results_10balls_contrast_6/simple_20250325_182406/best_model.pth (torch, 520034 bytes, 20 tensors)

conv1.weight f4 [32, 1, 5, 5]
000000 17 a7 a0 3e af 68 82 3e 01 42 62 bc 41 32 31 3e
       0.3137748 0.25470492 -0.013809682 0.17304327
000010 93 e6 d6 bc 7d ea 6f 3d fa 46 d4 bd 80 6b 3d 3d
       -0.026232993 0.058573235 -0.103651 0.046245098
000020 31 96 c5 3d c0 06 1b be 34 3f 10 3e 49 bd a5 bc
       0.09647787 -0.15139294 0.1408661 -0.02023186
000030 0d c2 8e 3d 13 2c 68 bd 7e 9b 64 3d 9f 6f dd bc
       0.06970606 -0.056682657 0.05581235 -0.027030764
000040 16 92 eb 3d 95 da a4 bc 3d 01 ec bd 97 48 04 3d
       0.11502473 -0.02012376 -0.11523674 0.03229579
000050 ef 6e b9 bd d6 9d 1a bd 23 37 ed bd af bb cc 3d
       -0.09054362 -0.03774818 -0.11582782 0.09996735
000060 5e fa 2a be 26 12 38 bd e1 74 22 bd 61 6a cd bd
       -0.1669707 -0.044939183 -0.039662246 -0.10030056
000070 32 03 99 3c ff 59 3d be 81 4d 56 3e e0 b3 f3 bd
       0.018678281 -0.18491362 0.20928003 -0.11899543
000080 e0 a9 0f 3e 7d 29 df 3c 99 44 4b bd c8 bb 34 3e
       0.14029646 0.027241463 -0.049625967 0.17649758
000090 fd 12 db 3d a6 4e 18 3e 9d d1 e5 3c da 17 5b bd
       0.10696981 0.14873752 0.028054053 -0.053489543
0000a0 3f 08 8f 3d 03 c5 ce 3c 70 92 a2 3d e2 ff 0d 3e
       0.06983995 0.025240427 0.07938087 0.13867143
0000b0 9c e9 c0 3d ef 1e 81 bd 2b 51 27 3e 2e 8a ae 3d
       0.094195575 -0.06304728 0.16339557 0.085224494
0000c0 ff 13 aa 3d 81 8e e1 bd 61 8c 5d be a3 b8 dc bd
       0.08304595 -0.110135086 -0.21635582 -0.10777404
0000d0 a3 3b 3c be f7 c5 f7 3d 6e 39 e8 3c b0 2a 80 3d
       -0.18382125 0.12098306 0.028347697 0.06258142
0000e0 23 97 ec 3c 9d 3f 18 bd c6 35 f7 3d a0 2f 16 be
       0.028880661 -0.03717004 0.12070803 -0.14666605
0000f0 9d 4d 5c bc 37 6e 13 be f8 2e eb 3c 3e fa bc bd
       -0.013446239 -0.14397512 0.02870892 -0.092274174
000100 6c 8e 55 3d 3e 6f 58 bd 57 71 07 3e 22 81 0f be
       0.052137777 -0.052840464 0.1322683 -0.14014104
000110 7c 8e ed bd ba d9 09 be 25 69 5b 3e 1f 85 54 3d
       -0.11599442 -0.13461962 0.21426828 0.051884767
000120 b8 ea 19 3e 65 24 17 be d7 c8 3d be 21 22 15 be
       0.15030944 -0.14759977 -0.18533646 -0.145638
000130 d2 ef 13 be 96 b4 88 3d 3b 57 95 3d a8 e1 54 3e
       -0.14446953 0.06675069 0.072920285 0.20789206
000140 af aa d2 bd 13 7e 0a be f6 a7 84 3d 0b d4 ab bd
       -0.102864616 -0.13524656 0.064773485 -0.08390053
000150 8d 47 05 3e 07 69 36 bd e6 b6 cb 3d 50 d0 2b be
       0.13015576 -0.044533756 0.099469945 -0.16778684
000160 61 a8 e4 bd 93 09 81 3d 60 e9 50 3c ff 9f 89 bd
       -0.11164928 0.06300654 0.012750953 -0.0671997
000170 d5 d3 c2 3d 0a b1 e1 3d 8e 8d 0d be bf 87 17 be
       0.0951306 0.11020096 -0.1382353 -0.14797877
000180 c8 79 fa 3d 9d 67 a2 bd eb 3b a9 bd 67 70 46 be
       0.12230259 -0.07929919 -0.082633816 -0.19378816
000190 8c 7b 12 be 14 69 22 bc a9 86 51 bc 39 44 86 bd
       -0.14304942 -0.009912748 -0.012788453 -0.06555981
0001a0 04 08 b7 bd 2b 0e 3d be 4e 0c 8e bd a6 7c 71 bb
       -0.08937076 -0.18462436 -0.06935941 -0.0036847978
0001b0 9a 16 47 bd 31 1b 30 bd 11 87 34 3e 1c 1a ed bc
       -0.04860554 -0.04299468 0.17629649 -0.028943114
0001c0 3a f7 7a 3d 61 43 56 bd b2 ba 14 bd fa 8b 8a bd
       0.06127093 -0.05231035 -0.03631086 -0.0676498
0001d0 70 a5 04 3d fe f7 03 be bb 11 a4 ba eb d5 36 bd
       0.032384336 -0.1288757 -0.0012517491 -0.0446376
0001e0 c2 76 da bb 7b 45 6e bd 7f 8b b9 bb 71 59 8e bd
       -0.006666989 -0.05817173 -0.005662381 -0.06950653
0001f0 e0 8c e1 bd df 9a 03 be 12 35 78 bd 0c 17 18 be
       -0.11013198 -0.12852047 -0.060597487 -0.14852542
000200 fc b9 06 3e 6e d3 aa bd 88 88 29 3e 0d bf 82 3d
       0.13156885 -0.08341108 0.16555989 0.06384096
000210 dd b3 1a be db 57 e8 3d 5b ad 9a bd 26 d5 b0 bd
       -0.15107675 0.11344882 -0.07552596 -0.08634405
000220 c0 f8 33 be 38 a3 43 be 9d e7 30 3d 0e 06 90 bd
       -0.1757536 -0.19105232 0.043189634 -0.07032405
000230 34 24 99 3d a1 b0 37 be 15 7b f6 3d 68 be 34 be
       0.07477608 -0.17938472 0.12035195 -0.17650759
000240 50 d3 2f bd d6 94 9e 3d b6 0c e6 3d 83 3f 1b 3e
       -0.042926133 0.07743232 0.11232893 0.15160947
000250 12 64 45 3e eb 27 17 be 58 4d 16 3d 2f d9 cd bd
       0.19276455 -0.14761321 0.036694854 -0.1005119
000260 a7 35 60 bd fd 42 44 be f0 65 29 3e 55 ec 0f be
       -0.054738667 -0.19166179 0.16542792 -0.14054997
000270 19 d5 c6 3d 74 1f 53 3d 9d ea 5b 3c 66 bf 03 be
       0.09708614 0.051543668 0.013422635 -0.12865981
000280 27 43 28 3e 06 6e dd 3c 51 dd dd 3c 58 45 3f be
       0.16431867 0.027030002 0.027083071 -0.18678796
000290 65 e8 36 3d 16 a7 4a bd ab 07 c7 bd d0 f3 19 3e
       0.044655222 -0.04947575 -0.097182594 0.15034413
0002a0 4a 57 af 3c e7 48 04 be 3e 7f e3 bd ff fb e7 bc
       0.021403927 -0.12918435 -0.11108254 -0.028318403
0002b0 ab 0b bb 3d 20 44 a2 bd cb e0 10 be 85 c6 50 bd
       0.09133085 -0.0792315 -0.14148252 -0.050970573
0002c0 eb c8 01 be c1 ed 92 3d d3 b5 0f 3e f9 ca 35 be
       -0.126743 0.07174254 0.14034204 -0.17753209
0002d0 d5 bf 7b 3d 23 ec d2 3d 14 9b 64 3d e9 8f 9b bd
       0.061462242 0.10298946 0.055811957 -0.07595808
0002e0 29 51 c3 3d 2f 23 f3 3d 71 b4 bc 3d 7e 4f 84 3c
       0.095369644 0.11871945 0.09214104 0.016151186
0002f0 42 4b cb bc cf a3 36 3c 66 d4 ad 3b ac 45 ac bc
       -0.02481616 0.011147453 0.005304861 -0.021029316
000300 47 ef 0d 3e 7e 55 32 3e 02 59 29 bc 39 86 b5 3c
       0.13860808 0.17415425 -0.0103361625 0.022158729
000310 9c 3b 5c 3d 93 28 46 3d 01 47 93 3d 54 0f 9e 3d
       0.053767785 0.04837854 0.07191277 0.07717767
000320 42 7e 55 be db 6a d0 bd 69 3b 07 3e 04 d7 a1 3d
       -0.20848945 -0.10176631 0.13206257 0.07902339
000330 21 17 5e bc a9 9b fe bd 60 9c 03 be c0 68 1d be
       -0.013555319 -0.124320336 -0.12852621 -0.1537199
000340 ad e3 b2 bd 84 ee 6c 3d 66 a6 f2 3d dd 83 a6 3d
       -0.08734832 0.057844654 0.11848144 0.0813062
000350 01 e2 13 be de e9 dd bd e5 7d 1e bd 5a c3 32 3e
       -0.14441682 -0.10835622 -0.03869428 0.17457333
000360 f9 fc e2 3c fd 50 82 bd 7a b9 7b 3d 14 0f 9c bd
       0.027708517 -0.063631035 0.06145618 -0.076200634
000370 ae 79 f6 bd 70 09 0c 3e 99 e4 e8 bd af c2 a2 bd
       -0.12034927 0.13675475 -0.113717265 -0.07947289
000380 91 fc 38 be 10 73 42 3e 96 ec 30 3e 02 72 8f 3d
       -0.18065096 0.18989205 0.1727775 0.07004167
000390 a6 80 14 be 10 df 44 be 50 21 16 be d3 c3 f6 3d
       -0.145022 -0.19225717 -0.14661145 0.12049069
0003a0 b1 ae 89 3d 8d 4e 0d 3e cd de af 3d 21 31 4d 3d
       0.06722773 0.13799496 0.08587418 0.05009568
0003b0 a6 16 96 bc a5 27 21 be 6d 9c 27 be f3 e4 41 be
       -0.018321346 -0.1573778 -0.16368265 -0.18934993
0003c0 51 3a 77 3d fe 02 cf bd 5c 9f 72 bd b0 d2 e7 bd
       0.06035835 -0.101079926 -0.05923401 -0.11319482
0003d0 32 9f ce bc 1b 54 1b be 9d 47 13 be c7 4d 14 3d
       -0.025222395 -0.15168802 -0.14382787 0.036206987
0003e0 d9 5a b1 bd c7 80 73 3d 86 06 51 bd d3 18 0c be
       -0.08659906 0.059448984 -0.05103161 -0.13681345
0003f0 b0 00 18 bd 1b 3c cf bd a2 10 c8 bd 38 4e 46 be
       -0.03711003 -0.10118886 -0.097687975 -0.19365776

conv1.bias f4 [32]
000000 50 d4 14 3a 62 5b a1 b9 24 89 4a ba 66 21 6d 3a
       0.0005677389 -0.00030776398 -0.0007726124 0.0009045809
000010 f4 6e e3 ba 12 1b 03 3a 86 de a7 ba aa 49 f6 b8
       -0.0017351792 0.0005001287 -0.0012807406 -0.00011743915
000020 9a 12 4c b9 ca 33 42 39 43 64 c5 38 b5 28 80 3b
       -0.00019461886 0.00018520575 9.412367e-05 0.0039111027
000030 51 fe a9 38 05 44 e6 ba 0a 96 c2 38 90 1c 50 b9
       8.105918e-05 -0.0017567879 9.278588e-05 -0.00019847066
000040 4c 55 76 b9 b6 42 7f b9 0c ec cc 3a 7f 08 18 3a
       -0.00023492164 -0.00024343547 0.0015634312 0.0005799606
000050 d5 20 9d b7 eb 64 6f 39 52 54 25 39 dc 2b dd 38
       -1.8731147e-05 0.00022830411 0.00015767038 0.00010546271
000060 2c ee 2e 3a db 8f 93 bb 4c 4d 55 38 b2 a7 43 b7
       0.00066730636 -0.004503233 5.0855146e-05 -1.166195e-05
000070 28 37 04 3a 18 20 bb 39 96 32 17 3a 3c 1c 29 bb
       0.00050436193 0.0003569133 0.0005767731 -0.0025804183

bn1.weight f4 [32]
000000 8a f5 61 3f ed f6 5f 3f d2 69 65 3f d7 c1 75 3f
       0.8826529 0.87486154 0.89614594 0.959989
000010 b9 09 86 3f 37 7c 74 3f fe 80 57 3f 8e 48 61 3f
       1.0471717 0.95502037 0.841812 0.88001335
000020 a8 d3 69 3f 3b cc 6c 3f 69 09 72 3f e2 d1 8a 3f
       0.91338587 0.9249913 0.9454561 1.0845301
000030 4c 90 5b 3f 52 3b 85 3f 51 7f 75 3f 2d d0 69 3f
       0.85767055 1.0408728 0.95897394 0.91333276
000040 b4 ab 71 3f e8 78 60 3f 35 9a 69 3f bf 1d 61 3f
       0.94402623 0.8768449 0.91250926 0.87936014
000050 b3 04 72 3f 23 4a 66 3f d4 9a 5c 3f b4 fa 5e 3f
       0.9453842 0.89956874 0.8617375 0.8710129
000060 ee 85 7e 3f 7f c9 86 3f ec 12 5d 3f 5f e1 69 3f
       0.9942311 1.0530242 0.86357 0.91359514
000070 1e 0c 66 3f 83 3a 71 3f f1 fe 6e 3f f7 05 79 3f
       0.8986224 0.94229907 0.9335776 0.97274727

bn1.bias f4 [32]
000000 ee ee da 3d 7e a1 ae 3d 86 84 25 ba 1b 94 b7 3d
       0.106901035 0.08526896 -0.0006313998 0.08963796
000010 3b fc 21 3e e1 a5 8b 3d ff ee 44 3d 6f 4b 1f be
       0.15818875 0.06818748 0.048079487 -0.1555612
000020 90 e8 b9 3d ff 53 19 3d e2 2b 80 3d 59 c4 2b 3e
       0.09077561 0.03743362 0.0625837 0.1677412
000030 9a c8 a3 3d d2 00 1e 3e 3f 64 dd bc 41 e2 aa 3d
       0.07997246 0.1543 -0.02702534 0.08343936
000040 6b 5a c8 3d c3 9a 4a 3d 35 06 0b 3d be f0 61 3d
       0.09782871 0.049464 0.033941466 0.05516123
000050 47 a1 82 bc 4c a4 92 3d 73 5b aa 3d 79 a7 a7 3d
       -0.015946044 0.071602434 0.08318224 0.0818624
000060 52 32 c8 3d f8 e8 27 3e e8 95 d3 3d 78 10 a3 3d
       0.09775223 0.16397464 0.10331327 0.079621255
000070 63 0e 49 3d 05 6d 75 3d 65 4a 10 3c 6a e3 97 3d
       0.049085986 0.059918422 0.0088068 0.07416423

bn1.running_mean f4 [32]
000000 de 05 17 3b bd 3f 48 3b b9 e7 6d bb f6 ba dd ba
       0.0023044269 0.003055557 -0.0036301448 -0.0016916681
000010 8c 4d da bb 95 a1 98 ba 85 62 02 bb 9c 52 5e 3b
       -0.0066620763 -0.0011644835 -0.0019895148 0.003392375
000020 65 f3 7d bb 9e dd 0c bb eb 46 50 ba 6b cc b6 3a
       -0.003874981 -0.0021494399 -0.0007945138 0.0013946419
000030 d2 d2 4b 3b 55 88 e0 bb 4b d4 ac ba ef 32 16 bb
       0.0031101 -0.0068521895 -0.0013185827 -0.0022918542
000040 81 e3 16 bb e0 c0 3d bb 7e a1 2a ba bd fa 92 ba
       -0.0023023786 -0.0028954074 -0.00065090496 -0.0011213642
000050 42 4a 07 bb 34 79 f8 ba fb c9 76 bb 25 bb 0b bb
       -0.0020643626 -0.001895702 -0.003765701 -0.0021321264
000060 f8 cc d7 ba 53 cf f8 bb 54 d6 79 3b 4d 62 cb b9
       -0.0016464284 -0.0075930743 0.0038122134 -0.00038792417
000070 62 7c 0b bb a2 65 c9 ba 02 d0 d3 ba 70 0f 3b bb
       -0.0021283855 -0.0015365372 -0.0016160014 -0.0028543137

bn1.running_var f4 [32]
000000 33 83 61 3a 2a c3 cb 3a 53 30 7b 3a 59 b6 58 3a
       0.0008602619 0.0015545834 0.0009582091 0.0008266918
000010 26 fa cb 3a 92 c5 fe 39 e7 25 13 3a be 17 b4 3a
       0.0015562221 0.00048593857 0.0005613253 0.0013739986
000020 8c cc ac 3a 72 4b 71 3a c8 1a ef 39 71 2c 4a 3a
       0.0013183518 0.00092046626 0.00045605586 0.0007712311
000030 e9 1a 9a 3a 65 23 07 3b 43 cc 28 3a af 5f 1c 3a
       0.0011757287 0.0020620462 0.0006439129 0.00059651857
000040 d9 8a 20 3a 6a 5d 61 3a f8 22 09 3a 6a a6 ff 39
       0.00061242055 0.00085969886 0.0005231346 0.00048761378
000050 de 78 45 3a 90 13 6e 3a c8 e3 fc 3a 5e 0c 15 3a
       0.0007532964 0.00090818945 0.0019293958 0.0005685742
000060 bc 8c 1d 3a 6c a5 5b 3a a1 83 b9 3a f2 17 33 3a
       0.0006010046 0.0008378837 0.0014153608 0.0006831876
000070 58 80 6b 3a 14 03 0c 3a 9b dc 4d 3a 49 fb ee 39
       0.0008983663 0.0005341035 0.0007853002 0.0004558212

conv2.weight f4 [64, 32, 5, 5]
000000 2a 13 ca bb 6f 15 6e 3b ef af df bc 77 b7 95 3c
       -0.0061668353 0.0036328693 -0.027305571 0.01827596
000010 7f 75 1b bc 3c c4 38 bc 50 11 89 3c cd 72 e2 bc
       -0.0094884625 -0.011277255 0.016731888 -0.027642632
000020 b1 ac 12 bc 57 c1 81 bd c3 17 d2 bc fc 49 20 bd
       -0.008952306 -0.06335705 -0.025646096 -0.039133057
000030 d7 55 59 bd 2a 61 65 bd 76 83 ca bc 3d 82 a2 bc
       -0.05306038 -0.056000866 -0.024720889 -0.019837493
000040 d1 2a 87 bb 1b 51 2a bb 5a 5b d7 bc 48 22 de bc
       -0.004124977 -0.0025988284 -0.026288677 -0.027115956
000050 e2 d6 10 bd 6b bc 99 bc 52 45 2e bd 05 91 f0 bb
       -0.03536118 -0.018766603 -0.042546578 -0.0073415064
000060 89 b5 46 3c a9 c2 e5 3b 82 44 ee 3c fd 77 49 3c
       0.012128242 0.0070117307 0.029085401 0.012296674
000070 75 9e 87 bc d6 0d 35 bd 5d 5f ba 3c 65 db c5 bc
       -0.01655505 -0.044202648 0.02275055 -0.024152467
000080 55 25 50 bd 57 c7 43 bc 39 60 77 3c 2d 86 82 ba
       -0.050816853 -0.011949382 0.015098625 -0.00099582
000090 de 37 ac bc ad 3d 71 bd d9 b3 25 bd 57 17 06 3d
       -0.021022733 -0.05889671 -0.04045472 0.032737102
0000a0 60 79 38 3c da e5 c5 bc 24 b9 06 bd 69 d2 12 bd
       0.011259407 -0.024157453 -0.032891408 -0.035845194
0000b0 a3 82 3e 3b 19 07 e6 ba 37 fb 35 3c e8 6a 3d bc
       0.0029069565 -0.0017549723 0.011107258 -0.011561133
0000c0 8d 9c 7a 3c ee 3a 5c 3c 90 c3 af 3c e6 da 97 bb
       0.015296114 0.013441784 0.021455556 -0.004634249
0000d0 43 67 19 bc f8 42 5b ba cb 55 4c 3d d3 ed 63 bc
       -0.009362998 -0.0008364166 0.049886506 -0.013911682
0000e0 4f 92 79 3b 52 f6 8d bc 82 e4 f3 bc 50 f0 0d bd
       0.0038081591 -0.017329369 -0.029772047 -0.034653008
0000f0 a0 b9 b0 bc d8 05 d5 3b 9c 70 ad 39 bd 3d c6 bb
       -0.021572888 0.006500941 0.00033081032 -0.0060498402
000100 d0 ee 9a bc bc bb c7 3a ce 66 31 bc 4b 07 04 bd
       -0.018912703 0.0015238444 -0.010827733 -0.032233518
000110 77 1e 99 3c 54 1f 18 3d 33 0d d7 3c 6b 66 93 3c
       0.018691285 0.03713925 0.026251411 0.017993173
000120 29 40 64 bc 9f 1d 8a 3b 51 3a 1f bd 73 3b cc 3c
       -0.013931313 0.004214957 -0.038873974 0.024930691
000130 ee 7c 14 bd 03 39 0d bc 8b 27 8e ba 0f a8 d0 3d
       -0.036251955 -0.00861955 -0.0010845525 0.10188305
000140 9e 60 52 3d dd ed 1d 3d 4d 12 a8 3c b3 a3 a9 bc
       0.051361673 0.038556922 0.020516539 -0.02070794
000150 59 aa 4a 3c 50 95 68 bc 5c 10 22 bd 6d 7c 1d bd
       0.012369716 -0.014195755 -0.039566383 -0.03844874
000160 5d fd 7d bd 96 49 23 3d c4 27 34 bd f1 ee e6 bc
       -0.062009204 0.0398651 -0.043983236 -0.028190108
000170 68 b7 13 bc 2f e3 cb bc 35 e6 80 3d fc d7 95 bb
       -0.009015895 -0.024888603 0.062939085 -0.0045728665
000180 bb 1e 08 bd d4 22 ab bc 48 80 85 3c cc 04 ae 3c
       -0.03323243 -0.02089063 0.01629652 0.021242522
000190 7a 46 81 bd 0c de a7 bd 56 7d 8b bd d1 ec 76 bd
       -0.063122705 -0.08196649 -0.06811015 -0.06028444
0001a0 52 20 b6 bd 38 7c 3f bc 66 03 be bc 71 a8 00 bd
       -0.08892883 -0.011687331 -0.02319498 -0.03141064
0001b0 3f 9a 39 bd ea 63 97 bd a5 d7 fc bc 09 0c b8 3c
       -0.045313116 -0.07392104 -0.030864546 0.022466676
0001c0 82 a2 22 bb 30 d8 ad bc 75 a0 eb bd e6 ff 9f 3b
       -0.00248161 -0.02122125 -0.11505214 0.0048828004
0001d0 42 0b ba bb e1 3c cd 3a d0 e3 09 bd 49 78 77 bd
       -0.0056776116 0.0015658402 -0.033664525 -0.060417447
0001e0 cd 0b 0e 3d f4 f1 29 3d 8b 1e 56 bc ab 05 87 bd
       0.034679223 0.04149051 -0.013068805 -0.06592878
0001f0 f7 46 9f bd 3b de 0c bd bc 9c 80 3b 57 a0 16 bd
       -0.07777207 -0.034391623 0.003924934 -0.036774006
000200 43 3d 7d bd 0a f6 82 3c 2a 01 79 bc 0f 88 17 3c
       -0.061826 0.015986461 -0.015198031 0.0092487475
000210 99 c4 2f bd 9b a2 e6 bb 5b 30 38 bb f5 8c c9 bc
       -0.0429121 -0.007038427 -0.0028104994 -0.024603346
000220 2e 86 a1 3c c1 c0 aa bc 5e bf a9 3b 49 28 b2 bb
       0.019717302 -0.020843865 0.0051802834 -0.0054369313
000230 06 8a a5 3c e3 54 55 bc 2b bb 74 3c b7 3a 51 3b
       0.020207416 -0.013020727 0.014937202 0.0031925866
000240 a4 2d 64 3b 84 78 22 3c b6 fd d4 3c 53 40 8a 3c
       0.0034817243 0.0099164285 0.025999885 0.016876375
000250 00 93 49 3c 4e cc 18 bc 92 93 1f 3d 83 dd d9 3c
       0.012303114 -0.009326054 0.038959093 0.026594883
000260 92 1d 1e 3b 40 30 31 3d 1a fa dd 3c fb 42 3c 3d
       0.0024126512 0.043258905 0.027096797 0.045962315
000270 34 b7 e0 3c 2e 9e 8b bb ef fa 8b 3b 62 29 d8 3c
       0.027431108 -0.0042608 0.004271857 0.02638692
000280 0c cc 57 ba 88 97 a7 bc e0 55 4e 3c 8d c3 13 bd
       -0.00082320045 -0.020457998 0.012593716 -0.036075164
000290 3d fa c5 3c 53 82 3c bc f7 14 45 bb 09 fe 1f bd
       0.024167174 -0.011505681 -0.003007231 -0.039060626
0002a0 99 e1 f8 3a fc 24 23 3d b1 ac 72 39 3e b7 86 3c
       0.0018988132 0.039830193 0.00023143251 0.016444799
0002b0 eb 80 28 bd 5a f3 dd bc 01 b4 b5 3c b6 46 36 bc
       -0.04113857 -0.027093578 0.02218056 -0.011125257
0002c0 f6 5a 93 bc 94 bf f4 bc ae 62 76 bc 73 90 eb bc
       -0.01798771 -0.029876508 -0.0150381755 -0.028755402
0002d0 45 fe c5 bc 90 25 95 bc a6 2a 10 bd e7 c4 b7 bc
       -0.024169097 -0.018206388 -0.035196923 -0.022432758
0002e0 eb 51 f6 bc d0 c4 18 bb 78 53 09 bc 42 12 98 bc
       -0.030068358 -0.0023310669 -0.008381717 -0.018563394
0002f0 f4 0c 90 bd da 98 d1 bb 0d de 0f bd 33 2a 44 bd
       -0.070337206 -0.006396395 -0.035123874 -0.047891807
000300 ad 7b cf bb 4d 04 f8 bc 1e bb 20 3c 81 a5 b1 bc
       -0.006331882 -0.030275488 0.009810237 -0.021685364
000310 0f 79 96 bb 5b 7b a5 bc d2 e2 80 3c 14 66 ba bc
       -0.004592068 -0.020200422 0.015733156 -0.022753753
000320 9d 83 a7 3c 81 2a f1 bc 13 48 5f bc ad 47 51 3d
       0.0204485 -0.029439213 -0.013628024 0.051093746
000330 c3 b0 78 3d d4 93 09 3c 16 59 7e 3d 73 1a 3f 3b
       0.060715448 0.008397061 0.062096678 0.0029160052
000340 cb 5b ab bc b4 77 84 3c 2c 23 d1 bc 84 b8 9e 3c
       -0.020917794 0.01617036 -0.025529467 0.019375093
000350 82 e6 f5 bc 25 06 35 bd 47 43 81 bc e4 b0 e2 3c
       -0.030017141 -0.044195313 -0.01577915 0.027672239
000360 61 f4 9e 3c 74 2b e1 bc 07 11 a9 3c aa 24 c4 3c
       0.019403638 -0.02748654 0.020638002 0.023943264
000370 b3 18 46 bc 09 b3 8b 3b 64 cf 69 bc ca 8a cf ba
       -0.01209085 0.004263286 -0.014270637 -0.0015834209
000380 9a 6c 11 3c 4c f2 b7 3c 39 77 2a 3c 63 f8 2d bd
       0.00887599 0.022454403 0.010404401 -0.04247321
000390 ff 2f de bb e7 e6 3d 3d c6 35 50 3c b8 0c 6c 3d
       -0.006780624 0.046362784 0.012708133 0.057629317
0003a0 69 3b ce bb 61 28 15 3d c8 34 ba bc b0 06 b4 3c
       -0.0062937033 0.03641546 -0.022730246 0.021975845
0003b0 91 9b 63 3d 72 cc 91 bb 9d 01 bb bc 6c 42 e4 bc
       0.05556828 -0.0044494206 -0.022827918 -0.027863704
0003c0 15 02 01 ba 0e 59 e9 3c 52 40 49 bd e7 c8 2b bd
       -0.000492127 0.028484847 -0.049133606 -0.041939642
0003d0 73 b4 8d bd 62 9a b5 3b 8b 01 31 bd 4b 4c 17 bd
       -0.069191836 0.0055420855 -0.043214362 -0.036937993
0003e0 27 af 59 bd c9 ed 14 bd 24 36 a2 bc e3 4b 8e bd
       -0.053145554 -0.036359582 -0.019801207 -0.06948068
0003f0 11 55 0e bd 29 c3 a4 bc b2 64 25 3d af c8 a6 3c
       -0.034749094 -0.02011259 0.040379234 0.020359365

conv2.bias f4 [64]
000000 46 30 38 b8 b0 e0 e5 36 04 8a 00 b7 b5 b6 94 37
       -4.3913977e-05 6.850889e-06 -7.661529e-06 1.7728054e-05
000010 9f fb df b6 65 e9 8d 35 16 22 04 38 6e 5e 76 37
       -6.6752104e-06 1.0573245e-06 3.1502997e-05 1.4684729e-05
000020 13 8b 41 b7 e4 b1 a4 b5 85 dc 91 b7 2f da c4 b6
       -1.1536077e-05 -1.2270725e-06 -1.7388034e-05 -5.866655e-06
000030 a4 a3 60 36 b3 75 36 b7 85 f1 b5 b7 c4 de ea b7
       3.3473852e-06 -1.0875449e-05 -2.1689348e-05 -2.7998707e-05
000040 16 97 2d b7 67 ca 35 38 8a a0 55 b8 ba db 91 b8
       -1.0346781e-05 4.3342265e-05 -5.093267e-05 -6.955066e-05
000050 6e 64 da 37 b1 da 4e b8 82 77 81 37 e4 8a 3e 38
       2.6034391e-05 -4.93179e-05 1.5433649e-05 4.5428882e-05
000060 32 19 3b b8 e6 bf 99 37 c6 86 ca 36 e3 2c f6 b7
       -4.460774e-05 1.8328381e-05 6.035759e-06 -2.9346387e-05
000070 a6 af d3 b8 73 b1 67 b5 8a 16 e5 b7 b3 aa b3 b7
       -0.00010093981 -8.631243e-07 -2.7309423e-05 -2.141795e-05
000080 1b d0 40 b7 29 19 a8 35 84 d5 1d b7 aa 71 d2 b7
       -1.1492545e-05 1.2524298e-06 -9.407642e-06 -2.508688e-05
000090 e4 96 99 b7 01 8c 05 37 d3 c0 83 b7 30 a7 ba 37
       -1.8309285e-05 7.960015e-06 -1.5706208e-05 2.225078e-05
0000a0 7b 78 3d 38 a2 07 db 35 c1 4c d7 38 2f aa 03 b8
       4.5173318e-05 1.6318993e-06 0.000102662954 -3.139133e-05
0000b0 4a 5b b6 37 45 0d eb b7 1f 9a 56 38 f0 6a 2b b8
       2.17386e-05 -2.8020362e-05 5.1165112e-05 -4.086917e-05
0000c0 9a 40 48 b7 6e ab d9 b7 5c ab 99 37 5a 9a 00 38
       -1.193597e-05 -2.5948244e-05 1.8318817e-05 3.066133e-05
0000d0 38 03 02 b9 d9 d6 75 38 dd 6a cc 38 ad 27 5d 38
       -0.00012398965 5.8612644e-05 9.747383e-05 5.2727457e-05
0000e0 ff 4b 80 37 98 c3 ee 37 2b a9 e3 b7 b9 c8 11 37
       1.5294178e-05 2.8462891e-05 -2.7139284e-05 8.689408e-06
0000f0 ee 4d 91 b7 26 d6 94 37 db a5 37 38 56 30 1f 36
       -1.7321636e-05 1.7742695e-05 4.3785065e-05 2.3720982e-06

bn2.weight f4 [64]
000000 8e 60 6e 3f 3d 20 50 3f 6e a4 71 3f 31 e6 76 3f
       0.9311608 0.8129919 0.94391525 0.96444994
000010 70 31 6a 3f 1f 48 6c 3f c7 2f 83 3f 23 77 68 3f
       0.91481686 0.9229755 1.0248955 0.9080679
000020 cb cd 7d 3f 7f 04 6b 3f 22 d8 7b 3f d5 32 6d 3f
       0.9914214 0.91803735 0.9837667 0.9265569
000030 bd 40 80 3f 70 72 40 3f 96 43 62 3f 98 40 82 3f
       1.0019757 0.7517462 0.8838438 1.0175962
000040 94 6a 5e 3f d4 4d 75 3f 07 05 7f 3f 31 e0 72 3f
       0.86881375 0.9582188 0.99617046 0.9487334
000050 02 3d 67 3f c0 e9 7d 3f e1 d3 8d 3f c8 34 7d 3f
       0.90327466 0.991848 1.1080285 0.9890866
000060 93 d3 6d 3f d9 de 75 3f 99 0b 63 3f da 51 69 3f
       0.9290096 0.96043164 0.8868957 0.9114052
000070 0b ed 84 3f 0f bc 6c 3f 27 53 6d 3f a8 a7 6a 3f
       1.038484 0.92474455 0.92705005 0.91662073
000080 05 9f 7e 3f ce ce 75 3f 84 fc 87 3f 25 2d 66 3f
       0.99461395 0.96018684 1.0623937 0.89912635
000090 da 4e 81 3f c6 86 86 3f 3e 81 71 3f 76 ea 5c 3f
       1.0102189 1.050988 0.9433783 0.8629526
0000a0 14 be 81 3f b7 b1 6a 3f 23 04 67 3f 2d 60 63 3f
       1.0136132 0.9167742 0.9024069 0.8881863
0000b0 32 79 6f 3f 5b 5f 64 3f f5 4b 6a 3f 96 88 74 3f
       0.93544304 0.89208 0.9152215 0.95520914
0000c0 47 5a 68 3f 73 1d 74 3f fc 92 85 3f a5 18 80 3f
       0.9076275 0.95357436 1.0435481 1.0007521
0000d0 7f bd 71 3f 21 7d 7e 3f de 54 6b 3f 40 70 71 3f
       0.94429773 0.9940968 0.9192637 0.94311905
0000e0 5c 75 6f 3f 7f c5 66 3f be fa 88 3f ba 5c 6b 3f
       0.9353845 0.90145105 1.070152 0.91938365
0000f0 c0 77 67 3f 92 4e 60 3f b2 d7 54 3f 70 3b 65 3f
       0.904171 0.8761989 0.83141625 0.8954382

bn2.bias f4 [64]
000000 21 a8 88 3d 9c a6 51 be 4b bd da 3d 7a 65 76 3d
       0.06672693 -0.20473713 0.10680636 0.06015537
000010 ec 41 d9 ba 60 f4 82 3d 26 75 54 3e de e1 c5 3d
       -0.0016575432 0.06394267 0.20747814 0.09662221
000020 58 2f 3f 3d 71 ea d5 3d b2 43 40 3d a8 bc 21 3e
       0.04667601 0.10445107 0.04693956 0.15794623
000030 52 03 b0 3d 97 44 ac be d4 fd 20 3e 80 a4 33 3e
       0.08594383 -0.3364608 0.15721828 0.1754322
000040 7b dc 9a 3c 70 92 1d 3e 57 2b ca 3d e7 56 f3 3d
       0.018903961 0.15387893 0.09871548 0.1188181
000050 14 c8 16 3d 21 3e 2b 3e fa a5 fe 3d 26 b9 48 3d
       0.036811903 0.16722919 0.12434001 0.049004696
000060 d3 65 ba 3d 55 c2 6a 3d a5 b9 d9 3d 4e 13 4d 3d
       0.09101453 0.057314236 0.10631112 0.05006724
000070 cf 06 0e 3d 3b 64 de 3d f2 26 c2 3d 9a 6f c7 3d
       0.034674462 0.10858961 0.094800845 0.09738083
000080 ee 18 1b 3d b2 28 0a 3e 40 e8 1b 3e e2 76 c0 3d
       0.03786557 0.13492087 0.15225315 0.09397675
000090 7b 85 1c 3e e7 b3 dd 3d 5d 9f b4 3d 7b f7 9a 3d
       0.15285294 0.10825329 0.08819459 0.075667344
0000a0 50 92 42 3d 2a 43 de 3d 93 45 94 3d 7d 78 aa 3d
       0.047502816 0.10852654 0.07239833 0.083237626
0000b0 a9 dc d4 3d 4c ed 36 3d 2e 9e 8e 3d 85 3e bb 3d
       0.1039365 0.044659898 0.06963764 0.09142784
0000c0 f9 0b 4e 3d 0f a6 a3 3d d0 f6 1a 3d 42 25 c1 3d
       0.050304387 0.079906575 0.037833035 0.094309345
0000d0 bf 01 aa 3d 03 8a 41 3d c8 4b f4 3c 0a 77 18 3e
       0.08301114 0.04725076 0.029821292 0.1488916
0000e0 7b 35 1a 3d f2 f2 ce 3d 69 8d 0c 3e c6 b6 20 3d
       0.03764866 0.10104932 0.13725819 0.039236806
0000f0 46 19 96 3d f8 cd a8 3d e2 8c 35 3e 96 7e 06 3e
       0.07329039 0.082424104 0.17729524 0.13134226

bn2.running_mean f4 [64]
000000 3d fe b0 bf 28 5f 1f bf d1 7a c9 bf 8d 3f 89 bf
       -1.3827587 -0.6225457 -1.5740606 -1.0722519
000010 33 a0 82 bf 49 dd 66 c0 51 5e 16 c0 26 b1 af bf
       -1.0205139 -3.6072562 -2.3495066 -1.3725936
000020 b0 fe d4 bf 58 41 a1 bf a3 bc 67 bf ae c6 c4 bf
       -1.6640224 -1.2598066 -0.9052221 -1.5373132
000030 7e 32 b8 bf 32 90 03 3e 44 55 1b c0 3e 49 c9 bf
       -1.4390409 0.12847975 -2.4270792 -1.5725477
000040 e7 70 1d bf 11 d8 17 c0 a8 73 f1 bf 17 b4 cd bf
       -0.615004 -2.3725626 -1.886342 -1.6070584
000050 55 4d a7 bf ae 70 d6 bf 60 92 44 bf 82 c5 37 c0
       -1.3070475 -1.6753137 -0.7678585 -2.87143
000060 69 8e 0c c0 74 c1 90 c0 7c 11 b2 bf 7e 86 3d c0
       -2.196192 -4.523615 -1.3911586 -2.9613338
000070 77 a4 05 c0 25 d0 fb bf a9 9a 72 bf 9e b2 ac bf
       -2.0881631 -1.9672896 -0.9476724 -1.349201
000080 f5 2a 84 bf 4b 57 d0 bf 4b 68 b0 bf 06 00 9f bf
       -1.032561 -1.627664 -1.3781828 -1.2421882
000090 12 72 2f c0 ff 69 8e bf a1 14 f5 bf 1c c6 92 bf
       -2.7413373 -1.1126097 -1.914692 -1.1466708
0000a0 e1 4a b1 bf 1b b6 b3 bf 03 fd 4d c0 bc 68 8b bf
       -1.3850976 -1.4039949 -3.2185676 -1.0891337
0000b0 75 c9 91 bf ac ff cd bf fa f6 a6 bf fb ae b1 bf
       -1.1389605 -1.609365 -1.3044121 -1.3881525
0000c0 79 a5 ca bf 87 c4 f9 bf fc d3 ef be 34 69 8c bf
       -1.5831748 -1.95131 -0.4684142 -1.0969605
0000d0 b8 e9 0f c0 4e ea 3f bf 0c cc 21 c0 82 ec 08 c0
       -2.24864 -0.74966896 -2.528079 -2.1394353
0000e0 ee f2 00 c0 ac 10 7e bf 7d e2 fa bf 46 9a 08 c0
       -2.0148273 -0.9924419 -1.9600369 -2.134416
0000f0 a0 0f 27 c0 d6 9a b9 bf a6 16 11 c0 94 84 04 c0
       -2.6103287 -1.4500377 -2.2670074 -2.070592

bn2.running_var f4 [64]
000000 d1 56 b1 40 75 ef be 40 c2 5b f8 40 c6 f2 c4 40
       5.5418477 5.9667306 7.761201 6.1546354
000010 b5 ce 63 40 66 49 6f 40 c9 0f d4 40 66 c3 0d 41
       3.5594914 3.738855 6.626927 8.860205
000020 53 6f bb 40 e1 75 f5 40 af 63 c2 40 b7 d2 55 40
       5.8573394 7.6706395 6.0746684 3.340986
000030 5f ea a7 40 1e a8 e4 40 54 85 33 40 b9 4c d4 40
       5.2473598 7.145522 2.8050127 6.6343656
000040 34 7f b3 40 c1 14 b1 40 3b d5 2d 40 ea 75 96 40
       5.6092777 5.5337834 2.7161396 4.701894
000050 79 9e ff 40 9e 4a cd 40 dc 20 eb 40 f3 ea a2 40
       7.988095 6.4153585 7.347761 5.0911803
000060 b5 36 74 40 a3 86 26 40 78 1d f0 40 33 2f 65 40
       3.815839 2.6019676 7.5035973 3.5810058
000070 aa c7 8b 40 a5 8d ef 40 0f 0f 17 41 47 cc 17 41
       4.368123 7.4860406 9.441176 9.487372
000080 55 eb b1 40 9b df d1 40 7e 6b 9c 40 9a 7a ba 40
       5.559977 6.5585456 4.8881216 5.827466
000090 37 ca d8 40 9f 31 96 40 47 6d f3 40 8d 3f c2 40
       6.7746844 4.6935573 7.6070895 6.0702577
0000a0 61 aa 8a 40 d5 9e 02 41 bf 11 a6 40 ba 9d 88 40
       4.333298 8.163777 5.1896663 4.2692537
0000b0 95 25 00 41 79 b8 f2 40 30 3e c2 40 95 b9 c4 40
       8.009175 7.5850186 6.0700912 6.147654
0000c0 0d c3 1d 41 2f 5c 23 40 52 93 7a 40 6f 76 8b 40
       9.86012 2.5525014 3.9152417 4.358207
0000d0 7a 4b 5c 40 b4 36 92 40 34 39 a2 40 77 3b c9 40
       3.4421067 4.5691776 5.069483 6.288509
0000e0 62 1a b2 40 2f 02 07 41 54 69 b1 40 b8 c7 7d 40
       5.5657206 8.438033 5.5441074 3.9653149
0000f0 1d 5c 07 41 ec d2 f5 40 ee 9e 69 40 82 54 83 40
       8.459989 7.6819973 3.6503253 4.104066

conv3.weight f4 [128, 64, 3, 3]
000000 da 10 b7 ba d9 d5 1e bc 69 f9 db bc 20 8f f9 3b
       -0.0013966814 -0.00969454 -0.026852326 0.007615939
000010 9c b5 c2 bc 69 9b b3 bc dd 07 1b bc a3 bd 24 bc
       -0.023768239 -0.021924691 -0.009462324 -0.010054979
000020 07 45 f4 bb f9 8b f1 bb d1 35 43 39 92 23 22 3c
       -0.0074545178 -0.0073714224 0.00018616697 0.009896176
000030 55 d6 50 3c 07 5c 67 3c cc 43 d3 bc 74 58 6a 3c
       0.012746413 0.014121062 -0.025789164 0.014303315
000040 63 d9 81 bc c7 f0 f5 3b 41 5a 6a bd 17 83 43 3c
       -0.015850728 0.0075055095 -0.05721498 0.01193311
000050 5e 1d bd bc da 6c 9f bb ee 04 95 3c 69 c1 42 3c
       -0.023085292 -0.004865271 0.018190827 0.011886933
000060 0f 5b b3 3b 24 bd b4 bc 4f 8c 00 bd 7b 28 e2 bc
       0.0054735015 -0.022062846 -0.03138381 -0.027607193
000070 e2 13 f6 bc 1f 74 03 bb 70 96 03 bc ae 01 aa 3c
       -0.030038778 -0.0020058227 -0.008031473 0.020752754
000080 d1 82 9c 3b b4 06 9f 3c 15 17 e7 bb 4c c5 1f bc
       0.0047763367 0.019412376 -0.007052312 -0.009751629
000090 b4 51 99 bb 5e 49 a1 bc 30 93 76 bd ad 1b 50 3b
       -0.004678929 -0.019688305 -0.060198963 0.0031754777
0000a0 71 2e d2 3c 62 ad 19 bd d5 ec ca bc 67 fd 34 3a
       0.02565691 -0.037518866 -0.024771133 0.0006904215
0000b0 bc bb 87 3b b4 bd 91 bc 85 08 ab bc 39 dd 33 bd
       0.0041422527 -0.017790653 -0.020878086 -0.043912146
0000c0 16 72 d5 3b 40 76 2c 3b 0c a4 48 bb a1 28 48 bd
       0.0065138442 0.00263156 -0.0030615358 -0.04886687
0000d0 1e e8 f3 bc c2 c0 f5 bc 51 28 db bb 2c c4 0a 3d
       -0.029773768 -0.02999914 -0.0066881557 0.03387849
0000e0 77 95 68 3c a4 1a 4e 3d a0 74 80 3d 89 ab 5e 3d
       0.014195791 0.050318375 0.062722445 0.054362807
0000f0 3d 8e db 3c 74 4d 99 3c 35 52 3b 3a 40 fe 09 bd
       0.026801223 0.01871369 0.00071457337 -0.033689737
000100 07 35 e6 3c 5f b7 28 3b a7 bc de bb 36 d3 5d 3c
       0.028101457 0.0025744063 -0.0067973915 0.013539126
000110 af 38 04 bd 1d 91 ab 3c 8b de fc bb 39 e3 b8 bc
       -0.03228062 0.020943219 -0.007716959 -0.022569286
000120 7a 60 ae bb d7 4d 7e bc 8e 72 2e bd 7b c4 1e bc
       -0.0053215595 -0.015521488 -0.042589717 -0.009690399
000130 3d 2a 53 3d f6 b0 94 3c 51 b7 f1 bc 4f a3 95 3c
       0.051553953 0.018150788 -0.029506357 0.018266348
000140 8f ff 3c bc ab 38 21 bc ab 32 a1 3c f5 e7 26 3c
       -0.011535539 -0.009840171 0.01967748 0.010187139
000150 de a1 e3 bc f3 a8 00 bc 07 12 02 3c cf 1e 8a 39
       -0.027787145 -0.007852781 0.007938868 0.00026344365
000160 4d 89 9b bb 38 27 c6 bc 6a 5b 15 3c 1c 29 8d 3b
       -0.004746592 -0.024188623 0.009116033 0.004307879
000170 5d a5 04 bc 28 31 71 3c 18 d9 5e 3b cd 0d cc 3c
       -0.008096066 0.014721192 0.003400391 0.024908924
000180 25 dc 38 ba 3d c7 98 bc 74 fc 26 ba 3c 1a 68 3c
       -0.0007051847 -0.018649692 -0.0006370016 0.014166411
000190 b4 42 d8 bc 30 ca e7 bc 85 de e5 3b 37 26 04 3c
       -0.026398994 -0.028294653 0.007015052 0.008065752
0001a0 0f ef 8a ba 90 d6 af ba eb 30 e8 bc 0b 2f 8d bb
       -0.001059981 -0.0013415385 -0.028343638 -0.0043085865
0001b0 d0 d6 d9 ba b8 13 9b 3c 83 ac 8b 3c af 73 97 bb
       -0.0016619805 0.018930301 0.017050033 -0.004621945
0001c0 69 5d 0c 3c 0d fe 43 3c 03 89 f9 bc 04 62 f6 3c
       0.008567193 0.011962426 -0.03046084 0.030076034
0001d0 83 24 51 bb 94 e0 82 3c 17 8a 8b 3c 1b d8 5a 3c
       -0.0031912632 0.015976228 0.01703362 0.013357188
0001e0 37 8f d7 3c 06 34 d5 3c 2e e5 bc bc 23 19 cb bc
       0.026313407 0.026025783 -0.0230585 -0.02479226
0001f0 b8 b0 85 3c 72 6b 33 3d 01 6e da bc 81 48 83 3c
       0.016319618 0.04380364 -0.026663782 0.016025783
000200 10 01 10 bd 11 2e a6 3c 25 71 60 3b 88 ec 08 3c
       -0.035157263 0.020285638 0.0034247127 0.008357175
000210 77 7d e9 bc 41 a3 38 3c f1 bf 5d 3b 11 04 5f 3b
       -0.02850221 0.0112693915 0.003383633 0.0034029523
000220 ea 6f 92 3d 50 ad c4 3c 9f a7 62 3d c9 de 1b 3d
       0.07150252 0.024008423 0.055335637 0.03805426
000230 f6 1a 05 3d 39 30 f5 3c c2 15 82 3d 6b 84 03 3c
       0.032496415 0.02993022 0.06351806 0.008027176
000240 cf 21 0d 3c c1 1a b5 3b d5 18 63 3c 5c e8 5d 3c
       0.008614018 0.005526871 0.013860901 0.013544168
000250 33 40 88 3c 56 46 f2 3c f7 44 22 bc 9b dc ea b8
       0.016632175 0.029574554 -0.009904138 -0.000111990805
000260 c8 35 65 bc d4 d3 1a bc 06 56 ca 3c 9b e9 14 bd
       -0.013989873 -0.009449918 0.024699222 -0.036355596
000270 76 c7 8e bb d1 e6 de bb e4 74 50 3c 9f b4 21 bd
       -0.0043572737 -0.006802418 0.012723181 -0.039478894
000280 f4 0c 4d bc fa e1 80 bd 11 1c 93 bb 21 99 8f bc
       -0.012515295 -0.062931016 -0.0044894298 -0.017529072
000290 34 9b 30 3c b2 19 6d bc 3c eb d6 bc 10 f8 8d bc
       0.010779191 -0.014471458 -0.026235215 -0.0173302
0002a0 24 19 2b bc 7f 7c cd bc 90 cf e2 bb 24 6d d8 ba
       -0.010443006 -0.025083778 -0.006921716 -0.0016512019
0002b0 65 2b 35 3c 9e 9e 6f 3c 39 ff 78 bc 26 2e 24 3d
       0.011057709 0.01462522 -0.015197569 0.040083073
0002c0 54 37 b2 bb bf 4d 45 bd 3c 84 cc bb 0c 46 ba 3b
       -0.0054387245 -0.048169848 -0.0062413495 0.00568462
0002d0 b9 fb 9d 3b 93 24 53 3c 97 07 eb bb 18 10 17 3b
       0.0048212674 0.012887138 -0.0071725356 0.0023050364
0002e0 7b 83 a8 3c d4 f7 b5 bc e7 cc 58 bc 62 6a 17 bc
       0.020570507 -0.0222129 -0.013232446 -0.009241672
0002f0 37 6d 8d bc 2f f0 d9 3c 80 5d 26 3d 51 e7 15 3c
       -0.017263992 0.026603786 0.040616512 0.009149388
000300 3f 96 7b 3c d5 d8 43 3d 2e 3b 22 3d c8 9c 15 3d
       0.015355646 0.04781421 0.03960722 0.03652647
000310 76 1f 91 3d e9 99 2f 3b 36 09 e6 3c 2d cb 5b bc
       0.07086079 0.0026794618 0.028080564 -0.01341514
000320 d1 09 37 3c ec 81 fa 3b fc 8e e6 39 50 0c e2 3c
       0.011171774 0.0076448824 0.0004397555 0.027593762
000330 ab be 83 3c 93 fa fc ba 85 04 15 bb 89 aa 17 bd
       0.016082129 -0.0019300751 -0.002273829 -0.03702787
000340 1e eb af bc 76 ef 61 bd 93 52 9f 3c e6 72 d3 3c
       -0.021474417 -0.05516001 0.019448554 0.025811624
000350 c1 0a 16 bc 94 91 cc bc 14 77 b7 bc 6b c8 87 bd
       -0.009157837 -0.02497176 -0.022395648 -0.066300236
000360 c4 75 80 bd 26 cb 1d 3c 41 d9 df bc 74 c7 3d bd
       -0.06272462 0.009630954 -0.027325274 -0.04633279
000370 71 ea b3 3b bf da 08 bd 62 aa 28 bc 9e e2 af 3c
       0.005490594 -0.033411738 -0.010294529 0.021470364
000380 6f 85 6b bc d2 a7 75 bd 4a 37 3c bc e7 2c 3c bd
       -0.014375075 -0.0599745 -0.011487791 -0.04594126
000390 c9 5f 81 ba 59 da 57 3c 39 9b 06 bc 2c c7 2c bd
       -0.0009870465 0.013174617 -0.008215719 -0.042182133
0003a0 5f 97 ea bc df c4 9c bd 8b 67 b7 3c ce 34 94 3b
       -0.028636632 -0.07654738 0.02238824 0.0045228964
0003b0 fc 96 70 3c 48 b8 b1 bc 87 3c b5 b9 51 0c 22 bd
       0.014684435 -0.021694317 -0.00034568107 -0.039562527
0003c0 94 c7 81 3c b2 ba e1 3a 55 6c b0 bb 07 69 99 bd
       0.015842237 0.0017221777 -0.005384008 -0.074907355
0003d0 c2 24 25 bd 24 ad 65 bd 74 8c ca bb e5 04 b3 bc
       -0.040318258 -0.056073323 -0.006181294 -0.02185292
0003e0 e9 4f 22 bc eb 67 1e bd 1b ab 84 bb 17 6a 26 bd
       -0.009906747 -0.038673323 -0.0040487177 -0.04062852
0003f0 4b 93 94 bd 98 d8 e3 bb a3 c2 2e bd 51 0f 08 bd
       -0.072546564 -0.00695331 -0.04266609 -0.033217732

conv3.bias f4 [128]
000000 75 da 0e 37 48 67 a5 37 3d 8d e3 b7 39 b1 c1 36
       8.514723e-06 1.9717627e-05 -2.7126278e-05 5.7724797e-06
000010 51 5d 06 b8 d7 f6 33 37 3c 95 d9 37 de 40 2c 38
       -3.2034997e-05 1.0726703e-05 2.5937909e-05 4.1068408e-05
000020 a5 25 92 b6 84 d1 34 b8 d4 f4 ce b8 6b b4 a8 38
       -4.3555215e-06 -4.311047e-05 -9.868448e-05 8.04447e-05
000030 fd ae 4a 38 f1 dd 04 b8 15 ef ea 36 c4 7d a8 b8
       4.8323524e-05 -3.167795e-05 7.0015763e-06 -8.03429e-05
000040 54 be 0d b8 52 8f 0b b8 52 65 7c 37 31 86 46 36
       -3.3794277e-05 -3.327366e-05 1.5043961e-05 2.9582409e-06
000050 96 2e ae b7 eb c0 b0 b8 9c bb e1 38 fc ec 20 b8
       -2.076411e-05 -8.428268e-05 0.00010763781 -3.836768e-05
000060 2b 9f 8f b7 00 0d 39 37 3a ab 79 38 84 52 ff 35
       -1.7121047e-05 1.1029886e-05 5.9525693e-05 1.9022996e-06
000070 c2 23 c0 35 1e 34 de 37 68 fd 09 b8 35 5c cc b7
       1.4315522e-06 2.6488731e-05 -3.289935e-05 -2.4361632e-05
000080 a4 04 b1 36 38 6b 66 b7 1a e9 49 b7 ab b9 eb b7
       5.2755513e-06 -1.3734032e-05 -1.2034807e-05 -2.8100641e-05
000090 fb 72 71 37 76 ba 50 37 01 66 f2 b7 18 94 59 b7
       1.439149e-05 1.244118e-05 -2.8896147e-05 -1.2968689e-05
0000a0 e2 9e 1f 37 ca d8 34 37 c5 8e 19 b7 0a 95 02 b8
       9.514131e-06 1.0779311e-05 -9.152752e-06 -3.113322e-05
0000b0 e6 a8 96 b7 d5 a9 a7 35 c9 e0 27 39 33 3d 56 b5
       -1.7960043e-05 1.2491897e-06 0.000160101 -7.981027e-07
0000c0 13 a4 9b 35 fc 15 ac 38 e4 d6 c7 b6 5e 0c 83 b8
       1.1596152e-06 8.205694e-05 -5.9556787e-06 -6.24887e-05
0000d0 aa db 49 37 75 b4 93 37 0c 65 22 b8 e7 32 98 b8
       1.2031678e-05 1.7607797e-05 -3.8717917e-05 -7.257406e-05
0000e0 96 35 30 37 53 e1 4c 38 a6 86 b3 b7 a3 75 c8 37
       1.0502894e-05 4.884724e-05 -2.1401163e-05 2.3896637e-05
0000f0 64 8a c1 b6 57 5d 6a b7 68 06 14 b8 e1 71 17 b7
       -5.767959e-06 -1.3969219e-05 -3.5291916e-05 -9.026816e-06
000100 5f 2f 98 b8 b8 c4 1e 37 13 cc ee b7 bc 46 b4 b7
       -7.256748e-05 9.463336e-06 -2.846684e-05 -2.149061e-05
000110 d5 2a c4 36 2a b9 63 b8 b6 0b 8f b8 08 a9 11 37
       5.8462415e-06 -5.4293465e-05 -6.820953e-05 8.682029e-06
000120 fd f0 99 36 96 d9 de 34 af f6 01 37 86 7a cd 37
       4.58781e-06 4.1509037e-07 7.746435e-06 2.4494959e-05
000130 f5 a2 26 35 76 b6 a5 37 6c 33 8f b7 fc 1d 3d 37
       6.207695e-07 1.9754498e-05 -1.7070874e-05 1.1272259e-05
000140 cc cf ab 37 32 6e 31 b7 9b 3c 9d 38 6d 0c 00 b7
       2.0481551e-05 -1.0575679e-05 7.497632e-05 -7.632288e-06
000150 45 3a f4 36 cf dc 0e 37 4f 60 f9 b7 c3 19 d1 b7
       7.27855e-06 8.515271e-06 -2.972796e-05 -2.4926738e-05
000160 93 b4 03 38 35 8a 47 b8 26 d3 25 b8 0d 0d c4 b7
       3.1401007e-05 -4.7574013e-05 -3.9535713e-05 -2.3371098e-05
000170 68 ef 3b b8 f3 d0 eb 38 36 df db b7 33 21 d1 38
       -4.480724e-05 0.00011244593 -2.6210775e-05 9.9720804e-05
000180 be 99 cb b8 35 9d 6d b7 a4 a0 1b b8 82 e0 8a b8
       -9.708431e-05 -1.4162903e-05 -3.7104488e-05 -6.6221706e-05
000190 10 03 aa b7 3c 15 16 b6 3f e7 f2 b5 19 8f 22 39
       -2.0267005e-05 -2.2364102e-06 -1.8097707e-06 0.00015502832
0001a0 8a ba 3b b6 e5 32 81 b7 67 9b d9 37 e7 a1 0c 37
       -2.7973751e-06 -1.5401698e-05 2.594078e-05 8.382346e-06
0001b0 a4 23 53 b7 86 3b 66 b7 88 f5 22 38 ab 45 03 36
       -1.2584878e-05 -1.3722927e-05 3.885248e-05 1.9561073e-06
0001c0 e3 db e0 b7 bf da a7 36 1d 4f a1 b8 f0 57 e8 b7
       -2.6805274e-05 5.0024532e-06 -7.691814e-05 -2.7697504e-05
0001d0 57 55 77 b6 3f 0f f2 b7 1b 74 db 38 0d c2 28 b7
       -3.6855542e-06 -2.8855748e-05 0.0001046436 -1.0058761e-05
0001e0 e3 d6 82 37 81 40 1a b6 b4 5a 15 38 89 81 ef b6
       1.5597272e-05 -2.2985334e-06 3.5608842e-05 -7.137835e-06
0001f0 98 c5 cc b8 33 c2 5f 35 a4 97 aa 38 95 2b bc b7
       -9.764283e-05 8.335657e-07 8.134477e-05 -2.243164e-05

bn3.weight f4 [128]
000000 07 0b 96 3f 1e 20 98 3f 57 ee ac 3f 20 c3 99 3f
       1.1722115 1.1884801 1.3510236 1.2012672
000010 04 a9 a9 3f e0 c6 98 3f 4b 80 98 3f 18 98 a4 3f
       1.3254704 1.1935692 1.1914152 1.2858915
000020 86 fa a3 3f cd 49 98 3f 66 2d 98 3f 00 cf ac 3f
       1.2810829 1.1897522 1.1888855 1.3500671
000030 f1 5f a1 3f 15 bc a2 3f b1 71 98 3f 0b c0 9b 3f
       1.2607404 1.2713648 1.1909696 1.2167982
000040 36 83 9d 3f ef 3f a1 3f ae c0 a6 3f dd eb 94 3f
       1.2305667 1.2597636 1.3027551 1.163448
000050 22 56 a6 3f de c8 a3 3f 09 a3 9f 3f 58 d7 98 3f
       1.2995036 1.2795675 1.2471629 1.1940718
000060 c0 b2 9c 3f d9 18 8d 3f 76 e4 ac 3f 3c 3c a0 3f
       1.224205 1.1023208 1.3507221 1.2518382
000070 28 1d 9a 3f 53 ac 9a 3f 05 6a a3 3f 55 e1 a0 3f
       1.2040148 1.2083839 1.276673 1.2568766
000080 88 c1 86 3f 77 5a a2 3f 27 eb 9a 3f 21 10 a6 3f
       1.0527811 1.2683858 1.2103013 1.2973672
000090 9e 7c 87 3f 40 c2 9e 3f 7c 9c ab 3f 90 b3 96 3f
       1.0584905 1.240303 1.340713 1.1773548
0000a0 d9 13 97 3f 66 ae 91 3f b2 72 9b 3f e0 6d 9f 3f
       1.1802932 1.1381347 1.2144377 1.2455406
0000b0 b0 5d 91 3f a1 89 95 3f 3a b3 a9 3f da a6 90 3f
       1.1356716 1.1682626 1.3257821 1.1300919
0000c0 3a f7 9d 3f 54 26 a5 3f 8c 66 96 3f 09 84 ad 3f
       1.2341073 1.2902322 1.1750045 1.3555919
0000d0 ea 33 98 3f 80 d6 a0 3f bb ac 96 3f c7 3d a1 3f
       1.1890843 1.256546 1.1771463 1.2596978
0000e0 fd ed 99 3f 96 9d 98 3f 25 18 a9 3f b1 ec a6 3f
       1.2025753 1.1923091 1.3210493 1.3040982
0000f0 6b 98 98 3f fd 50 8f 3f 1a fd a3 3f 10 41 9c 3f
       1.1921514 1.1196591 1.2811615 1.2207355
000100 75 37 9d 3f 63 3d 99 3f 72 eb 98 3f 09 1e 98 3f
       1.2282549 1.1971859 1.1946852 1.1884166
000110 8c 29 97 3f 8d d4 94 3f 6f 86 aa 3f e8 e2 92 3f
       1.1809554 1.1627365 1.3322276 1.1475496
000120 08 db 9a 3f 5d c9 9c 3f d4 d8 9b 3f d9 55 9c 3f
       1.2098093 1.2248951 1.2175546 1.2213699
000130 06 44 95 3f 5c dd a1 3f c0 93 a1 3f 64 fc 98 3f
       1.1661384 1.2645679 1.2623215 1.1952024
000140 61 24 9b 3f 4e 82 99 3f 4a 5c a7 3f d1 0f 96 3f
       1.2120477 1.1992891 1.3075039 1.1723577
000150 fa 07 96 3f 08 db 9b 3f 7b 6b ac 3f f2 04 a2 3f
       1.1721184 1.2176218 1.34703 1.2657759
000160 43 48 95 3f 8e 7d a7 3f 04 52 a2 3f ef ba a9 3f
       1.1662678 1.3085191 1.2681279 1.3260173
000170 30 2e 9f 3f 80 8d a2 3f 7f fa a1 3f c0 b6 a4 3f
       1.243597 1.2699432 1.265457 1.2868271
000180 17 c1 a0 3f 17 26 9b 3f 6c 14 ab 3f 8f 0a a8 3f
       1.2558926 1.2120999 1.3365607 1.3128222
000190 55 11 a7 3f 4b 29 98 3f 9c 2b 96 3f ad d6 a8 3f
       1.3052164 1.1887602 1.1732059 1.3190514
0001a0 bf 3e 99 3f 94 e7 a5 3f 50 21 a1 3f 3b 75 a4 3f
       1.1972274 1.2961297 1.2588291 1.2848276
0001b0 c1 11 a5 3f 4a da 9d 3f 54 b5 a2 3f e9 4e 98 3f
       1.2896043 1.2332242 1.2711587 1.1899081
0001c0 23 11 a0 3f ee da 97 3f 63 8b 98 3f 87 c6 94 3f
       1.250523 1.1863687 1.1917537 1.1623086
0001d0 fd 95 91 3f 0d 75 a0 3f b8 4f a4 3f 19 f5 a0 3f
       1.1373898 1.2535721 1.2836828 1.2574798
0001e0 cf aa 9a 3f 03 e6 8f 3f b9 54 9b 3f 04 2d 9c 3f
       1.2083377 1.1242069 1.213523 1.2201238
0001f0 3b 4a a4 3f f8 40 96 3f 10 f7 9a 3f 7f 9c 9e 3f
       1.2835153 1.1738577 1.2106647 1.2391509

bn3.bias f4 [128]
000000 e8 1a 44 3e 64 a3 c3 3d bf 83 c2 3c 5c 69 66 3e
       0.19150889 0.09552649 0.023744462 0.22501129
000010 18 33 4e 3d fe d4 5c 3e e1 2b 54 3e b3 50 8f 3d
       0.050341696 0.21565625 0.20719863 0.06997814
000020 01 9e 20 bc 46 8d 45 3e 8c 50 4c 3e 01 96 52 3c
       -0.009803296 0.19292173 0.19952601 0.0128531465
000030 10 31 b7 3c 92 d2 c0 3d be de 52 3e 82 76 67 3e
       0.022362262 0.09415163 0.20592782 0.22603801
000040 ca 08 8c 3d 68 b6 cd bc 2c 67 ac 3d 04 b0 3a 3e
       0.06837614 -0.025111392 0.08418116 0.18231207
000050 11 76 df 3d 78 d7 67 bd 73 38 8d 3d 23 e5 be 3b
       0.10911191 -0.05660197 0.068955325 0.005825655
000060 26 9a 75 3e 5b 3f f4 3d 57 c1 4a 3d 31 89 2d 3d
       0.23984584 0.119261466 0.04950079 0.042367164
000070 cc 19 6e 3e 14 a4 6e 3e 45 b2 fd bc 71 86 a6 3d
       0.23252028 0.23304778 -0.030968795 0.081311114
000080 e5 45 8a 3d dc cf 1d 3d 15 12 b5 3d 3d c1 d3 bc
       0.067516126 0.03852831 0.088413395 -0.02584898
000090 4c cf cf 3d a1 d8 76 3e 4e ad bd 3d ec c4 4d 3e
       0.101469606 0.24106075 0.09261571 0.20094651
0000a0 9a 15 3d 3e 0e 5d 22 3e 97 7f 68 3e f2 96 b9 3d
       0.18465272 0.1585581 0.22704922 0.09061994
0000b0 fa 1d 1b 3e 0c d7 3c 3e fb 63 af bc 33 46 19 3e
       0.15148154 0.18441409 -0.02140998 0.14968185
0000c0 af b5 9c 3d 8a f7 de bc 48 57 3d 3e 83 75 02 3d
       0.07651841 -0.027217645 0.18490326 0.03185035
0000d0 24 9e 51 3e 3e e1 ed bc ca 22 99 3c 66 02 00 3e
       0.20470482 -0.029038068 0.018693347 0.12500915
0000e0 1a e2 50 3e 1e e0 35 bd e7 2a fa 3d 27 14 9a 3d
       0.20398751 -0.044403188 0.12215214 0.07523375
0000f0 f8 09 50 3e 54 57 1b 3d 70 ec 60 bd b7 77 67 3e
       0.20316303 0.03792508 -0.054912984 0.22604261
000100 e0 72 12 3d 9b 42 a1 3d 22 7f 55 3e 8d 41 57 3e
       0.035754085 0.07874032 0.20849279 0.210211
000110 65 d8 40 3e 99 18 2f 3e d5 bd c5 3c c2 cf 24 3e
       0.18832548 0.17099227 0.02413837 0.16094878
000120 e9 2d 62 3e a6 e8 59 3e 8c 70 61 3d 06 b2 62 3e
       0.22087826 0.21280155 0.055038974 0.22138223
000130 e2 8a 42 3e 78 f6 3d 3d 39 9c 86 3e 8f 5f 56 3e
       0.18998292 0.04637763 0.26291063 0.2093489
000140 6b 22 6e 3e da 3b 5a 3e 9f 92 9b bc a8 8b 48 3e
       0.23255317 0.21311894 -0.018990813 0.19584525
000150 3f 63 a6 3c 4c 34 73 3e 34 1e 1f bc af f7 85 3d
       0.020310996 0.23750418 -0.009711791 0.065413825
000160 c9 25 3b 3e b5 b7 bc 3d 2e ea 9e 3c 0a 0c bb 3d
       0.18276133 0.09214727 0.019398775 0.09133156
000170 00 e5 00 bd 05 0e b3 3d 48 35 54 3d 92 0a 60 bd
       -0.03146839 0.087429084 0.051808625 -0.05469758
000180 ca 53 4f 3d 01 a3 6f 3e e8 3e bd 3d cf a8 17 3b
       0.050617017 0.23402025 0.09240514 0.002314139
000190 63 5e 05 3e 7b c0 63 3d ad 22 3e 3e ff 74 18 3c
       0.13024287 0.055603486 0.18567915 0.009305238
0001a0 f8 91 56 3e 7c 80 7e bd 11 78 bd 3d a0 f7 ab 3d
       0.2095412 -0.06213425 0.092514165 0.0839684
0001b0 d8 84 06 3e 4a 74 78 3e 31 78 d3 3d 3c 8c 58 3e
       0.13136613 0.24263111 0.10325659 0.21147245
0001c0 c4 c0 96 3d 0f ff 44 3e 99 99 56 3e 0c 6f 38 3e
       0.07360986 0.19237922 0.2095703 0.18011111
0001d0 ad 8d 12 3e c5 f4 59 bc c0 b7 cf bc b8 ce cf 3d
       0.14311858 -0.0133029865 -0.025356174 0.1014685
0001e0 16 a7 62 3e 0e b0 84 3d 22 f4 48 bd 65 13 6c 3e
       0.2213405 0.06478892 -0.04906095 0.23054273
0001f0 a7 81 86 bc 8b af 3c 3e 0c d9 b6 bb 87 31 e2 3d
       -0.016419245 0.1842634 -0.005580073 0.11044603

bn3.running_mean f4 [128]
000000 a9 cd 27 bf e3 de ad be 9a c9 c4 bf bd 52 13 bf
       -0.6554819 -0.33959112 -1.5374024 -0.57548124
000010 98 1c 3b bf a4 c6 3a bf f9 3f 2f bf f9 50 88 bf
       -0.73090506 -0.7295935 -0.6845699 -1.0649711
000020 9a e8 c3 bf d5 d8 c8 be 7e 90 88 be 90 c5 98 bf
       -1.5305359 -0.3922793 -0.2667274 -1.1935291
000030 13 6c 93 bf 33 5a 4b bf f0 8c 20 bf 5a 9c 28 bf
       -1.1517357 -0.7943451 -0.62715054 -0.65863574
000040 b6 55 67 bf 1e 1a 9f bf a6 df 55 bf 33 7f 60 bf
       -0.9036516 -1.2429845 -0.83544385 -0.8769409
000050 c1 49 26 bf a2 05 c1 bf 8b 69 1a bf 2f 18 a6 bf
       -0.6495629 -1.5079844 -0.60317296 -1.297613
000060 05 21 32 bf df dc 9d 3f b9 59 95 bf df 7b ab bf
       -0.69581634 1.233303 -1.1668006 -1.3397177
000070 1c 29 51 bf 89 b2 2e bf 8f 3b bb bf a7 dc 86 bf
       -0.8170335 -0.68241173 -1.4627551 -1.0536088
000080 82 c9 61 3f eb b5 75 bf 74 0f 41 be 5f 24 a7 bf
       0.881981 -0.9598071 -0.18853551 -1.3057975
000090 fb 66 42 be 05 7a 2a bf 13 17 30 bf fe d5 28 bf
       -0.18984596 -0.6659244 -0.6878521 -0.65951526
0000a0 cd 32 a0 be b6 a3 4b bf 2f 45 eb be ea 9a 20 ba
       -0.31288758 -0.7954668 -0.4595122 -0.00061265996
0000b0 8b ee 75 3e 3a a3 2b bf 78 88 d2 bf c3 d9 52 3e
       0.24016778 -0.6704594 -1.6447897 0.20590882
0000c0 9a d8 0b 3f 81 94 be bf 5b 42 ae 3e bd 86 b3 bf
       0.5462738 -1.488907 0.34035 -1.4025494
0000d0 88 68 2a bf a1 21 b5 bf 71 96 c8 bf c6 0e 18 bf
       -0.6656575 -1.4150888 -1.5670911 -0.5939754
0000e0 09 f7 4c be c8 6a d3 bf 52 85 3c bf c3 2e 5e bf
       -0.20016111 -1.6516962 -0.7364093 -0.867901
0000f0 0b 9c 30 bf 53 4c 71 bf 87 57 c6 bf dd b5 43 bf
       -0.689881 -0.94257087 -1.5495461 -0.76449376
000100 c2 fe 80 bf a8 d5 4d bf 7a 8a 52 bf be 4f 3d bf
       -1.0077746 -0.8040414 -0.8224255 -0.739498
000110 24 31 38 bf 55 04 6d be 23 b3 ac bf b9 d0 2a bf
       -0.7194998 -0.23146184 -1.3492168 -0.66724735
000120 fa c6 b3 be cd b9 76 be 07 40 8a bf 71 25 a0 3e
       -0.35112745 -0.24094315 -1.080079 0.31278566
000130 32 8a 17 bf 51 b7 ad bf 5f 30 b4 be b3 76 42 be
       -0.59195244 -1.3571569 -0.35193154 -0.18990593
000140 ba e3 49 bf 19 31 24 bf 9c 31 d7 bf c3 30 4b bf
       -0.7886311 -0.6413742 -1.6812015 -0.7937128
000150 0a ae 24 3f 9d cb 37 bf 58 54 ad bf 7f f7 69 bf
       0.6432806 -0.71795064 -1.3541365 -0.91393274
000160 a3 16 5b bf f3 d1 6f bf 11 fa 96 bf 40 c0 57 bf
       -0.85581416 -0.9367973 -1.1795064 -0.84277725
000170 e1 77 b8 bf 91 84 72 bf 33 fa a2 bf c8 82 89 bf
       -1.4411584 -0.9473353 -1.2732605 -1.0743036
000180 f7 a1 72 bf ea 8d 2b bf 4c 46 27 bf ad ac b6 bf
       -0.9477839 -0.6701342 -0.6534164 -1.4271446
000190 fb 46 05 bf 80 0b 80 be bf 7b 51 bf a8 98 c3 bf
       -0.5206143 -0.25008774 -0.81829447 -1.5280962
0001a0 07 00 3e bf e0 66 94 bf 51 d2 c0 be 00 6a 3e bf
       -0.7421879 -1.1593895 -0.3766046 -0.74380493
0001b0 61 a3 b9 be 14 9d 21 bf db fc e8 be 78 87 25 bf
       -0.3625746 -0.6313031 -0.45505413 -0.64659834
0001c0 b1 9c 73 bf a9 2b e3 be 91 56 2e bf b3 9b 39 bf
       -0.9516097 -0.44369248 -0.6810084 -0.72503203
0001d0 98 a2 26 bc 92 11 d5 bf ac aa bf bf 54 7c dc be
       -0.010170601 -1.6645987 -1.497396 -0.43063605
0001e0 1c e2 31 bf 06 38 1e be 4b 1e b3 bf 59 68 3b bf
       -0.6948564 -0.15451059 -1.399362 -0.73206097
0001f0 da b6 a7 bf de d9 46 bf d4 fa cc bf 2c 05 b7 be
       -1.3102677 -0.7767619 -1.6014047 -0.35746133
