results_10balls_14/simple_20250325_154627/best_model.pth (torch, 520034 bytes, 20 tensors)

conv1.weight f4 [32, 1, 5, 5]
0	0x3e878ad3	0.26473102
1	0x3e506501	0.2035103
2	0xbd5bc9f5	-0.053659398
3	0x3e25d634	0.16194993
4	0xbc980353	-0.018556273
5	0x3c9b1992	0.018933091
6	0xbe1de86c	-0.15420693
7	0xbcd6dc18	-0.026227996
8	0x3d8d3ed5	0.0689675
9	0xbe1fd565	-0.15608747
10	0x3e186fa4	0.14886338
11	0xbcd23f93	-0.02566508
12	0x3d17d699	0.03706989
13	0xbd98f5fc	-0.07468793
14	0x3d7b571f	0.061362382
15	0xbd0eb9aa	-0.03484503
16	0x3dbeb9e4	0.093127996
17	0xbccd7ca8	-0.025083855
18	0xbde141ba	-0.109988645
19	0x3cd596ee	0.026072945
20	0xbde7d430	-0.113197684
21	0xbd979535	-0.07401506
22	0xbe0692b2	-0.13141897
23	0x3d9d9ff2	0.07696523
24	0xbe3e3f08	-0.18578732
25	0xbd6e7e77	-0.058226075
26	0xbd67f02e	-0.056625538
27	0xbddf1969	-0.108935185
28	0x3c08bd05	0.008345847
29	0xbe3bf42b	-0.18354861
30	0x3e4eb7ed	0.2018735
31	0xbdf6404c	-0.120239824
32	0x3e03648b	0.12831323
33	0x3cbf5a10	0.023358375
34	0xbd8a1e2f	-0.06744038
35	0x3e2cd539	0.16878213
36	0x3d66b4a5	0.05632462
37	0x3e147aba	0.14499941
38	0x3c4147bf	0.011796891
39	0xbd6ebf83	-0.05828811
40	0x3d864874	0.06556788
41	0xbd2e376c	-0.042533323
42	0x3d8987dd	0.06715367
43	0x3e0e8086	0.13916215
44	0x3dbfc027	0.09362822
45	0xbd656ea8	-0.056013733
46	0x3e2ea751	0.17056014
47	0x3dad2b1c	0.08455488
48	0x3d8b4aec	0.068013996
49	0xbdfa7fab	-0.12231382
50	0xbe5c7d8c	-0.21532267
51	0xbdaf6504	-0.08564189
52	0xbe36f3d2	-0.17866448
53	0x3e0e20be	0.13879678
54	0x3d3bd80b	0.04586033
55	0x3d0e5bf7	0.034755673
56	0x3cf2b245	0.029626021
57	0xbc8cd3b8	-0.0171908
58	0x3e068da1	0.13139965
59	0xbe106738	-0.14101875
60	0xbceac30f	-0.028657464
61	0xbe2b3cb8	-0.16722381
62	0x3d2af590	0.041738093
63	0xbd9210f4	-0.0713214
64	0x3d69c591	0.05707318
65	0xbd3d3b21	-0.046198968
66	0x3df78530	0.120859504
67	0xbe03b742	-0.12862876
68	0xbddae7a4	-0.10688713
69	0xbdd4f233	-0.10397758
70	0x3e6fe2f9	0.23426427
71	0x3d766343	0.060153257
72	0x3e1fae33	0.15593795
73	0xbe09f8b5	-0.1347378
74	0xbe2d739f	-0.16938637
75	0xbdee26ac	-0.1162847
76	0xbe0477fe	-0.12936398
77	0x3d8e0efa	0.0693645
78	0x3da99c64	0.08281782
79	0x3e692199	0.22766723
80	0xbdae2a45	-0.08504156
81	0xbe03b077	-0.12860285
82	0x3d733657	0.059377994
83	0xbda374da	-0.07981272
84	0x3e121332	0.14265135
85	0xbd03b6a2	-0.032156594
86	0x3dc59ed0	0.09649432
87	0xbe302d1b	-0.17204706
88	0xbde32c9a	-0.110924914
89	0x3d8de9b6	0.069293424
90	0x3caf1fd8	0.021377489
91	0xbd8eb50f	-0.06968128
92	0x3db78c2d	0.08962283
93	0x3deca8d4	0.11555639
94	0xbdfbc95e	-0.12294267
95	0xbe0d2a65	-0.13785703
96	0x3e000bf0	0.12504554
97	0xbd9aaf6d	-0.07552991
98	0xbda0c85a	-0.07850714
99	0xbe2ecc26	-0.17070064
100	0xbde0c1a3	-0.10974433
101	0x3cf46cdb	0.029837063
102	0xbc900ab8	-0.017583236
103	0xbd95e60a	-0.07319267
104	0xbcd89484	-0.026438005
105	0xbe0f1a5b	-0.13974898
106	0xbdccff8e	-0.10009681
107	0xbce23511	-0.027613195
108	0xbd91fc13	-0.071281575
109	0xbd3a58f3	-0.045494985
110	0x3e4e5af0	0.20151877
111	0xbcdb9d01	-0.026808264
112	0x3d650a86	0.05591824
113	0xbd9e7cba	-0.077386335
114	0xbd2c4994	-0.042062357
115	0xbd5332f0	-0.05156225
116	0x3d22a263	0.039705645
117	0xbe096f0b	-0.13421266
118	0xbbddf5b6	-0.006773676
119	0xbd37b478	-0.044849843
120	0x3c572980	0.013132453
121	0xbd516544	-0.051121965
122	0xbc1d1873	-0.009588349
123	0xbdad4383	-0.084601425
124	0xbdb6b343	-0.0892091
125	0xbdf25022	-0.1183169
126	0xbd484045	-0.048889417
127	0xbe1da40f	-0.15394615
128	0x3e1113d7	0.14167725
129	0xbd8a4084	-0.06750587
130	0x3e1f3d15	0.15550645
131	0x3d641af8	0.055689782
132	0xbe1aabfe	-0.15104672
133	0x3dfe162f	0.12406575
134	0xbd8a000c	-0.0673829
135	0xbdbaecea	-0.09127219
136	0xbe3a4fd4	-0.18194515
137	0xbe49e683	-0.1971684
138	0x3d5b1e9f	0.053496
139	0xbd3512dd	-0.044207443
140	0x3dc60040	0.096680164
141	0xbe332aa8	-0.17496741
142	0x3e021f12	0.12707165
143	0xbe248315	-0.16065629
144	0xbce6ef0c	-0.028190158
145	0x3db19831	0.08671606
146	0x3dcd691b	0.10029813
147	0x3e1b4592	0.15163258
148	0x3e458471	0.19288804
149	0xbe0ff8c4	-0.1405974
150	0x3cda7465	0.02666683
151	0xbde9887d	-0.11402986
152	0xbd53e578	-0.05173251
153	0xbe29d631	-0.16585614
154	0x3e2de464	0.16981655
155	0xbe1f69fd	-0.15567775
156	0x3db2aa46	0.08723883
157	0x3d599b8e	0.053126864
158	0x3c263dad	0.010146541
159	0xbe036f5a	-0.12835446
160	0x3e13d36e	0.14436123
161	0x3cefb7e4	0.02926249
162	0x3c850738	0.016238794
163	0xbe4f0bcf	-0.20219348
164	0x3d48b3d7	0.048999634
165	0xbd4592a5	-0.048235554
166	0xbdd51de0	-0.10406089
167	0x3e17ae1d	0.14812513
168	0x3c99a8fb	0.018757334
169	0xbe133c72	-0.14378527
170	0xbdefcc38	-0.117088735
171	0xbcfa1d0c	-0.030531429
172	0x3db18279	0.08667464
173	0xbdc54ab3	-0.09633388
174	0xbe17ec12	-0.14836147
175	0xbd7d56e1	-0.061850432
176	0xbe0cda43	-0.13755135
177	0x3d5d2fbb	0.054000597
178	0x3e096346	0.13416776
179	0xbe2d27cf	-0.16909717
180	0x3d1661b5	0.036714274
181	0x3dbe85bc	0.093028516
182	0x3d203f3a	0.039122798
183	0xbdb2437f	-0.0870428
184	0x3dba4f02	0.09097101
185	0x3db3bb00	0.08775902
186	0x3da4bde7	0.080440335
187	0x3b8f8de6	0.0043809293
188	0x3b3f357d	0.0029176169
189	0x3d8fc41d	0.070198275
190	0xbd1b9873	-0.037987184
191	0xbd8d669e	-0.06904338
192	0x3e0378ed	0.12839098
193	0x3e51dc93	0.20494299
194	0x3d1a66f6	0.037695847
195	0xbd1920c7	-0.037384775
196	0x3cf5b9fc	0.02999591
197	0x3ce23080	0.027611017
198	0x3df5b653	0.11997666
199	0x3dcd3a1e	0.100208506
200	0xbe2d3090	-0.16913056
201	0xbda50989	-0.08058459
202	0x3e21704c	0.15765494
203	0x3d90ff90	0.07079995
204	0xbca6fee6	-0.020385217
205	0xbdc57559	-0.09641523
206	0xbdfc439f	-0.12317585
207	0xbe1caef8	-0.1530112
208	0xbd947e65	-0.0725067
209	0x3d1dcb11	0.038523737
210	0x3e0d1596	0.13777766
211	0x3d9df3a3	0.07712486
212	0xbe15164f	-0.14559291
213	0xbdbbb077	-0.091645174
214	0xbd4ae7d1	-0.049537484
215	0x3e4b2e0d	0.19841786
216	0x3c482ee2	0.012218209
217	0xbd788c98	-0.060680956
218	0x3d850cbd	0.0649657
219	0xbd89e684	-0.067334205
220	0xbdebeda0	-0.11519933
221	0x3e0679e2	0.13132432
222	0xbdccf564	-0.10007742
223	0xbd71db53	-0.059047054
224	0xbe38ce7f	-0.18047522
225	0x3e5b80a0	0.21435785
226	0x3e39c172	0.181402
227	0x3d9f2ba1	0.077719934
228	0xbe09ab87	-0.13444339
229	0xbe348e17	-0.17632328
230	0xbe12a726	-0.14321575
231	0x3debbad1	0.11510242
232	0x3d7d77fc	0.061882004
233	0x3e107d6d	0.14110346
234	0x3db20c5f	0.08693766
235	0x3d585c41	0.052822355
236	0xbc0fa8e4	-0.008768294
237	0xbe1304cf	-0.14357303
238	0xbe25ae17	-0.16179691
239	0xbe579410	-0.21052575
240	0x3d9cd594	0.07657924
241	0xbd92ca67	-0.071675114
242	0xbd4658cc	-0.048424527
243	0xbdadb95a	-0.08482619
244	0xbd2cb70b	-0.04216675
245	0xbdf9e45c	-0.12201759
246	0xbdf6fb8d	-0.12059698
247	0x3d4e4e2f	0.05036753
248	0xbd9115bc	-0.07084224
249	0x3d5a59a1	0.053308133
250	0xbd0fbd95	-0.03509291
251	0xbe00f9b7	-0.12595259
252	0xbc396ebe	-0.011317907
253	0xbdb2f086	-0.087372825
254	0xbd995dff	-0.074886315
255	0xbe3b42c1	-0.18287183

conv1.bias f4 [32]
0	0x37eaca76	2.7989252e-05
1	0xb641854d	-2.8836832e-06
2	0xb8c9e018	-9.6261676e-05
3	0x3a0150d1	0.0004933002
4	0xb9ad088c	-0.000330035
5	0xb8a158a1	-7.693587e-05
6	0xb9cf430d	-0.00039532073
7	0xb6157a8d	-2.2274064e-06
8	0x3a08662c	0.0005203213
9	0xb8ba2b5a	-8.877246e-05
10	0xb96a4b30	-0.00022343989
11	0x3b101ee3	0.0021991066
12	0xb7351a9b	-1.0794635e-05
13	0x38a9a6d5	8.089623e-05
14	0xb8a0bb47	-7.664278e-05
15	0xb9a98dcb	-0.00032339836
16	0x395cd774	0.00021061098
17	0x3943fb6a	0.00018690308
18	0xb9eccef1	-0.0004516761
19	0x37964b94	1.7916587e-05
20	0x38b709aa	8.72792e-05
21	0xb761299e	-1.3420735e-05
22	0xb97d7f2e	-0.00024175338
23	0x3a0323f0	0.00050026085
24	0xb9ccf6ea	-0.00039093877
25	0x3a7985f8	0.0009518559
26	0x367899a3	3.7044308e-06
27	0xb7a2bd7a	-1.9400137e-05
28	0xb9165e14	-0.00014340162
29	0xb9d80b8c	-0.00041207334
30	0x3a06c1e5	0.0005140587
31	0xb9f18e12	-0.00046072953

bn1.weight f4 [32]
0	0x3f614bb8	0.8800616
1	0x3f528c14	0.8224499
2	0x3f716bc2	0.9430505
3	0x3f7c0271	0.98441225
4	0x3f7c613f	0.98585886
5	0x3f7a3749	0.9774061
6	0x3f5ab0b1	0.8542586
7	0x3f599fac	0.85009265
8	0x3f6e3057	0.9304251
9	0x3f74ed74	0.95674825
10	0x3f753f12	0.9579936
11	0x3f7f05af	0.9961805
12	0x3f5985c8	0.8496976
13	0x3f7d2fe8	0.98901224
14	0x3f7b56ad	0.9817913
15	0x3f670660	0.902441
16	0x3f7ab48c	0.9793174
17	0x3f65870a	0.8965918
18	0x3f6a6599	0.91561276
19	0x3f660d87	0.8986439
20	0x3f79d4be	0.97590244
21	0x3f73c25a	0.9521843
22	0x3f605aba	0.8763844
23	0x3f5ed9f7	0.8705134
24	0x3f81d784	1.0143895
25	0x3f7b4138	0.9814639
26	0x3f54a469	0.8306337
27	0x3f6e10ec	0.9299457
28	0x3f65f21b	0.8982255
29	0x3f790b08	0.9728246
30	0x3f767215	0.96267825
31	0x3f807c39	1.003791

bn1.bias f4 [32]
0	0xbd29fbe4	-0.041499987
1	0xbdb00202	-0.08594133
2	0x3d640253	0.05566628
3	0x3dbeb486	0.09311776
4	0x3df3d389	0.119055815
5	0x3dd2edf2	0.10299291
6	0x3da04e31	0.07827414
7	0xbdad0c78	-0.08449644
8	0x3dc88028	0.09790069
9	0x3d6a4eaa	0.057203926
10	0xbc9b58d2	-0.018963251
11	0x3de9ddac	0.11419234
12	0xbd91f04f	-0.07125913
13	0x3dfe50c3	0.12417748
14	0xbd176136	-0.036957942
15	0x3d2529da	0.040323116
16	0x3debf6f9	0.11521716
17	0x3d848a27	0.06471663
18	0x3ca37b34	0.019956209
19	0xbc9f6456	-0.019457024
20	0xbd3d8c87	-0.046276595
21	0x3cf65d17	0.030073686
22	0x3dda1d32	0.106501
23	0x3dcf095d	0.10109208
24	0x3de536fe	0.111921296
25	0x3dfbf478	0.12302488
26	0xbd982046	-0.07428031
27	0xbc7d4219	-0.015457653
28	0x3d4c11b2	0.049821563
29	0x3d212a8b	0.039347213
30	0x3d6d70f1	0.057969037
31	0x3df1b3f0	0.118018985

bn1.running_mean f4 [32]
0	0x38f79d03	0.000118071235
1	0x3badc52d	0.005303046
2	0xbbaa5eae	-0.005199275
3	0xbb5b94f6	-0.0033505536
4	0xbbe70205	-0.0070498013
5	0xbb5598fd	-0.0032592409
6	0xbbd52382	-0.006504477
7	0x3bdf7725	0.006819623
8	0xbbca4176	-0.0061723543
9	0xbb8ace2b	-0.004236003
10	0xbb2ed674	-0.0026678117
11	0xbb5010cb	-0.003174829
12	0x3b8af167	0.004240203
13	0xbc08b843	-0.008344713
14	0xbace9c91	-0.0015763213
15	0xbba21935	-0.0049468526
16	0xbbb1d50b	-0.005427008
17	0xbbb66263	-0.005565928
18	0xbb895d5e	-0.0041920384
19	0xbb59a62e	-0.0033210623
20	0xbb1de62f	-0.00240935
21	0xbb528700	-0.0032123923
22	0xbc06e9d0	-0.008234456
23	0xbbaeba2a	-0.005332251
24	0xbadd3a2c	-0.0016878298
25	0xbbe093ff	-0.00685358
26	0x3bd4bc82	0.0064921984
27	0xbb3c1076	-0.0028696335
28	0xbbbef394	-0.0058273766
29	0xbb2c2a3e	-0.0026270295
30	0xbb25a15e	-0.0025273184
31	0xbb165f66	-0.0022945045

bn1.running_var f4 [32]
0	0x3abf2e42	0.001458593
1	0x3b78bd62	0.0037954678
2	0x3b3caec1	0.0028790685
3	0x3b12134f	0.002228934
4	0x3bb2d608	0.0054576434
5	0x3ada3822	0.0016648809
6	0x3b4c0055	0.0031128128
7	0x3b97fd1a	0.0046383264
8	0x3b8c1002	0.004274369
9	0x3b338a16	0.0027395538
10	0x3ae0931a	0.0017133683
11	0x3b160676	0.0022892035
12	0x3b4e6d6f	0.0031498333
13	0x3bb1a8f8	0.005421754
14	0x3b025d28	0.0019891951
15	0x3b23cc3b	0.0024993557
16	0x3b682550	0.003542263
17	0x3b5566ae	0.0032562423
18	0x3b0e312f	0.0021696796
19	0x3b0101a9	0.0019684827
20	0x3abeaf01	0.0014548005
21	0x3b34422f	0.0027505269
22	0x3be094d1	0.006853678
23	0x3b1fc4ba	0.0024378733
24	0x3ae226ba	0.0017253973
25	0x3b3cc6da	0.0028805048
26	0x3b6c1b00	0.0036026835
27	0x3b635012	0.0034685177
28	0x3b6febf0	0.0036609136
29	0x3ad41acd	0.0016182304
30	0x3ad9bc64	0.0016611931
31	0x3ade21f8	0.0016947379

conv2.weight f4 [64, 32, 5, 5]
0	0xba96afcc	-0.0011496483
1	0xbbf33136	-0.007421638
2	0xbd0fb2a0	-0.03508246
3	0x3b9f6dac	0.004865369
4	0xbbf359f2	-0.007426494
5	0xbca07f7f	-0.019592045
6	0x3a548c2f	0.0008108047
7	0xbd0f90bf	-0.03505015
8	0xbc051ce4	-0.008124564
9	0xbd348501	-0.044072155
10	0xbc94b21f	-0.018151341
11	0xbcde7d22	-0.027159277
12	0xbcec21d4	-0.028824724
13	0xbd04929e	-0.032366388
14	0x3ad12bb5	0.001595846
15	0xba298512	-0.00064666674
16	0x3c99939f	0.018747149
17	0x3c649002	0.01395035
18	0xbc20a0be	-0.009803949
19	0xbd1573de	-0.036487453
20	0xbd29ee6b	-0.04148714
21	0xbbdc6505	-0.0067259097
22	0xbcfa8c71	-0.030584546
23	0xbc0d50ec	-0.00862525
24	0xbbaeaee5	-0.0053309076
25	0x3c22b98f	0.009931936
26	0x3c2c0a2c	0.010500472
27	0x3b4be10e	0.0031109485
28	0xbca3d6db	-0.019999912
29	0xbce3afa8	-0.02779372
30	0x3cb6ecec	0.02232977
31	0xbd0a8f6d	-0.033828188
32	0xbd34b541	-0.04411817
33	0xb93c90cd	-0.0001798302
34	0x3c556076	0.013023486
35	0x3c8af401	0.016962053
36	0xbc084680	-0.00831759
37	0xbd59135b	-0.052996974
38	0xbd03f609	-0.03221706
39	0x3b9f34a4	0.00485857
40	0x3ba51109	0.005037431
41	0xbc426a53	-0.01186617
42	0xbd01bb7e	-0.031672947
43	0xbd2c81c3	-0.042115938
44	0xbc6dd1c0	-0.01451534
45	0xbc071ffe	-0.008247374
46	0x3c618af6	0.013766041
47	0xbc75b3b3	-0.014996457
48	0xbc00425e	-0.007828323
49	0xbbf35f69	-0.0074271453
50	0x3c92ad00	0.017904758
51	0x3c97fc83	0.018553024
52	0xb9266b3c	-0.00015870942
53	0xbb2eb732	-0.0026659486
54	0x3c8bbc0e	0.017057445
55	0xbc9fd255	-0.019509474
56	0xbc946fd3	-0.018119728
57	0xbc72d144	-0.014820401
58	0xbcf9cb1d	-0.03049236
59	0xbcec1223	-0.028817242
60	0xbd43842d	-0.047733475
61	0x3b15f1b5	0.0022879664
62	0x3ba690a1	0.005083159
63	0xbca69f55	-0.020339647
64	0xbc750b1d	-0.014956263
65	0x3bcbded7	0.006221633
66	0xbc18e108	-0.009330995
67	0xbc285376	-0.010273805
68	0xbc07b298	-0.008282326
69	0xba93e616	-0.0011283781
70	0x3d1b6596	0.037938677
71	0xbbeade70	-0.00716763
72	0xbb9891a0	-0.0046560317
73	0xbc562f43	-0.0130727915
74	0xbcf34201	-0.029694559
75	0xbcaedef4	-0.021346547
76	0xbcaced77	-0.021109326
77	0xbce20900	-0.027592182
78	0xbd00a681	-0.03140879
79	0x3db005a9	0.085948296
80	0x3bbfe4b7	0.0058561224
81	0xbc685220	-0.014179736
82	0x3c7974dd	0.015225616
83	0xbd5f1f43	-0.054473173
84	0x3cde6671	0.027148457
85	0xbcdb9888	-0.026806131
86	0xbd285efb	-0.041106205
87	0xbcc60b7d	-0.0241754
88	0xbd370505	-0.04468252
89	0x3d7a219f	0.06106722
90	0xbd2b8a1f	-0.04187977
91	0xbcef289b	-0.029194167
92	0x3c3d3a4c	0.011549544
93	0xbcd7430e	-0.026277091
94	0x3b31a67e	0.0027107294
95	0xbbaa544e	-0.005198038
96	0xbd188dc7	-0.037244584
97	0xbc6e9360	-0.014561504
98	0x3c1144e2	0.008866521
99	0xbcff29b9	-0.031147825
100	0xbce543dc	-0.02798646
101	0xbd636ccc	-0.05552368
102	0xbcff50ec	-0.031166516
103	0xbd8c76db	-0.068586074
104	0xbdb1533c	-0.08658454
105	0xbcc74559	-0.02432506
106	0xbcfd457e	-0.030916926
107	0xbcdd8dbe	-0.027045127
108	0xbd8c343c	-0.068459004
109	0xbd9816f9	-0.07426257
110	0xbd2248d5	-0.03962024
111	0xbc972286	-0.01844908
112	0x3ac1f7de	0.0014798602
113	0xbd1fe6f8	-0.03903863
114	0xbd5f3fb3	-0.054504108
115	0xbd0fa51a	-0.035069562
116	0xbd1fe34e	-0.039035134
117	0x3b8ec8eb	0.0043574474
118	0xbd41ec74	-0.04734464
119	0xbd34bab6	-0.044123374
120	0x3b1d71e1	0.0024024176
121	0x3a12110b	0.00055719976
122	0x3c3ee43d	0.011651096
123	0xbd62090c	-0.05518441
124	0xbd305bed	-0.043056417
125	0xbc82543b	-0.015909305
126	0x3b9d1d40	0.0047947466
127	0xbcb10408	-0.021608368
128	0xbd5e29fd	-0.054239262
129	0xb9bfa7db	-0.0003655542
130	0xbcb3331f	-0.021874962
131	0xbc4f65e8	-0.012658574
132	0xbce401aa	-0.027832825
133	0xbb95396e	-0.0045539653
134	0xbc4d8de4	-0.012546036
135	0xbd1a247d	-0.037632454
136	0x3b6f1e72	0.0036486653
137	0xbccc8ddd	-0.02496999
138	0xbcb5f442	-0.022211198
139	0xbcec0a12	-0.028813396
140	0x3c66b5fe	0.014081476
141	0xbaff158c	-0.0019461378
142	0x3c6bb450	0.014386252
143	0xbcf3523e	-0.029702302
144	0xbd48be68	-0.04900971
145	0x3c4f7266	0.012661552
146	0x3a12eea5	0.0005605019
147	0x3d018570	0.031621397
148	0x3ab344db	0.0013677137
149	0x3bc566fb	0.006024239
150	0x3a82ad8e	0.0009969936
151	0x3c558c48	0.013033934
152	0xbd177b20	-0.036982656
153	0xbbabb3bd	-0.0052399323
154	0x3cb8032c	0.02246245
155	0x3925affc	0.00015801186
156	0x3b882b50	0.004155554
157	0xbc2d2e4d	-0.010570121
158	0xbcd16874	-0.025562502
159	0x3cd7d95f	0.026348768
160	0xbc6a29db	-0.014292206
161	0xbce1074a	-0.027469296
162	0x3c8d6b08	0.01726295
163	0xbd17a80c	-0.037025496
164	0x3d08606e	0.033295088
165	0xbb9bde77	-0.0047567445
166	0xbc8812a5	-0.016610453
167	0xbcdd9834	-0.027050115
168	0xbbe15ff9	-0.006877896
169	0x3bd542e0	0.0065082163
170	0xbc7f7924	-0.015592847
171	0x3b54edd0	0.003249038
172	0xbcbe7fdc	-0.023254327
173	0xbd02c1ae	-0.03192299
174	0xbc61b3d7	-0.013775787
175	0xbc1a4db0	-0.009417936
176	0xbd0e8d39	-0.03480265
177	0xbd16ff9d	-0.036864866
178	0xbc9c7f7a	-0.019103754
179	0xbc728f23	-0.014804634
180	0xbcb3fd0b	-0.021971246
181	0xbcd8f8fc	-0.026485913
182	0xbccb4c2c	-0.024816595
183	0xbbed558f	-0.0072428654
184	0xbc89c8a7	-0.016819311
185	0x3c5e6b77	0.013575426
186	0x3a6d43d7	0.00090509414
187	0xbc1a08ef	-0.009401544
188	0xbd6e17f9	-0.05812833
189	0xbce0501d	-0.027381951
190	0xbcfb5990	-0.030682355
191	0xbd156dc1	-0.036481623
192	0xbc0bcaca	-0.008532235
193	0xbd0b865e	-0.03406369
194	0xbc8cc670	-0.017184466
195	0xbcf19c2c	-0.029493414
196	0x3a700665	0.00091562263
197	0xbd064933	-0.032784652
198	0xbbb30625	-0.005463379
199	0xbd21f929	-0.03954426
200	0xbc57fa05	-0.013182168
201	0xbcf99988	-0.030468717
202	0xbca374da	-0.01995318
203	0x3c95a9bc	0.018269412
204	0x3d463e4f	0.048399266
205	0xbca983bc	-0.020692699
206	0x3b096106	0.0020962371
207	0xbc959bdc	-0.018262796
208	0xbd6ec145	-0.058289785
209	0xbc5042de	-0.012711255
210	0xbd233b19	-0.03985128
211	0xbc6e7b97	-0.014555833
212	0xbcb1c5a4	-0.021700688
213	0xbd3c1180	-0.045915127
214	0x3b9562b3	0.004558885
215	0xbc8f9502	-0.017527107
216	0xbcd9920c	-0.026558898
217	0x3c528246	0.012848442
218	0xbc4fcfa5	-0.012683784
219	0xbbec3b8c	-0.007209247
220	0xbc6b432a	-0.014359275
221	0xbce8607a	-0.028366316
222	0x3d1030f6	0.035202943
223	0xbc8b620b	-0.017014524
224	0xbc1d63ab	-0.009606282
225	0x3c976d33	0.018484687
226	0x3d00d00a	0.0314484
227	0xbcd15f37	-0.025558097
228	0xbd1fc312	-0.039004393
229	0x3d2f80fb	0.042847615
230	0x3c6f0751	0.014589147
231	0x3c55df32	0.013053702
232	0xbd19e0e1	-0.037567977
233	0xbc32a233	-0.010902929
234	0xbd4a9cfc	-0.04946612
235	0x3c29f9a0	0.010374457
236	0x3c524029	0.01283268
237	0xbab9cc63	-0.0014175292
238	0xbc5ab532	-0.013348864
239	0xbc27ce75	-0.010242094
240	0x3c4702ad	0.012146634
241	0x3caf4c9b	0.021398833
242	0xbcf63cab	-0.030058226
243	0xbc8e8238	-0.017396078
244	0xbced8b1f	-0.028997002
245	0xbcae4663	-0.021273797
246	0xbd2894b7	-0.04115745
247	0xbc70a7ec	-0.014688473
248	0xbd098edd	-0.03358351
249	0xbcc2d812	-0.023784671
250	0xbc925077	-0.017860634
251	0xbd46981a	-0.0484849
252	0xbcaef123	-0.021355217
253	0xbc11f0c5	-0.008907502
254	0x3d565a1d	0.052332032
255	0x3cb40b6c	0.021978103

conv2.bias f4 [64]
0	0x35e94110	1.7378788e-06
1	0xb672ef34	-3.6200045e-06
2	0x3743923a	1.1656952e-05
3	0xb7a92ff2	-2.0168696e-05
4	0xb53b7bc8	-6.9843054e-07
5	0xb6cbf75d	-6.0786683e-06
6	0xb87548ac	-5.8480233e-05
7	0xb5b8a59a	-1.3757265e-06
8	0xb7c32885	-2.326468e-05
9	0xb64d0403	-3.0549716e-06
10	0x384db28e	4.90421e-05
11	0xb607634e	-2.017437e-06
12	0xb6dcfdd8	-6.586062e-06
13	0xb6b970f9	-5.5265814e-06
14	0xb5d779ff	-1.6054254e-06
15	0x37ec04f7	2.8135704e-05
16	0x356cfb34	8.82824e-07
17	0x37f24d25	2.8884571e-05
18	0x36f38c7d	7.2583193e-06
19	0x380089cf	3.0645922e-05
20	0x382066e7	3.8242808e-05
21	0xb70717c2	-8.052159e-06
22	0xb74bc2c9	-1.2145095e-05
23	0xb6ded3e0	-6.640781e-06
24	0xb674113b	-3.6368863e-06
25	0x350e312d	5.297068e-07
26	0xb4739f87	-2.2689174e-07
27	0x379b8a1d	1.8541754e-05
28	0xb873ad60	-5.8097183e-05
29	0x360c788a	2.0931789e-06
30	0xb7172572	-9.00902e-06
31	0x366cc219	3.527972e-06
32	0x378631f4	1.5997306e-05
33	0xb59240a2	-1.0896658e-06
34	0xb78cad22	-1.6769922e-05
35	0x37096259	8.188735e-06
36	0xb8c9fcf1	-9.631541e-05
37	0x365b0347	3.263545e-06
38	0xb8009e89	-3.0665225e-05
39	0x3781aaa7	1.5457465e-05
40	0x37ecc8a9	2.8226832e-05
41	0xb4d6ecca	-4.0032893e-07
42	0xb7a0d489	-1.9172456e-05
43	0xb7972f81	-1.8022723e-05
44	0x345c101d	2.0494959e-07
45	0xb6393898	-2.760009e-06
46	0x386462d6	5.4451484e-05
47	0xb76993af	-1.39222675e-05
48	0xb823740c	-3.8970305e-05
49	0xb75ae965	-1.3048154e-05
50	0xb8032d46	-3.1274998e-05
51	0x37fbf8fc	3.0037474e-05
52	0x37965553	1.7921126e-05
53	0x38008e2f	3.0649997e-05
54	0xb8cac869	-9.66944e-05
55	0xb7c781ac	-2.3783032e-05
56	0x36c3d605	5.836368e-06
57	0xb77b65ce	-1.4984469e-05
58	0xb7c66100	-2.3648608e-05
59	0xb7b550de	-2.1614538e-05
60	0x382c02ba	4.1010535e-05
61	0xb6f98611	-7.4363857e-06
62	0xb78c9823	-1.6760145e-05
63	0xb712eb3c	-8.757048e-06

bn2.weight f4 [64]
0	0x3f6fd6f2	0.93687356
1	0x3f58a0a4	0.8462012
2	0x3f76876c	0.9630039
3	0x3f7c3cf1	0.9853049
4	0x3f760f18	0.9611678
5	0x3f6d696e	0.92739
6	0x3f8035aa	1.0016377
7	0x3f703184	0.93825555
8	0x3f753b28	0.9579339
9	0x3f6fafcc	0.9362762
10	0x3f851edf	1.0400046
11	0x3f4d5525	0.80208045
12	0x3f7c14ee	0.98469436
13	0x3f34686c	0.70471835
14	0x3f5f039d	0.8711489
15	0x3f73e9fa	0.95278895
16	0x3f5f1f2c	0.8715694
17	0x3f778fe5	0.9670394
18	0x3f739470	0.9514837
19	0x3f6d9019	0.92798
20	0x3f7e3e08	0.993134
21	0x3f76541e	0.962221
22	0x3f8b8f38	1.0903082
23	0x3f8311cd	1.0239807
24	0x3f5533f0	0.83282375
25	0x3f648c49	0.8927656
26	0x3f6b1852	0.91833985
27	0x3f691806	0.9105228
28	0x3f87c5dd	1.0607258
29	0x3f6100ae	0.8789166
30	0x3f7a2a45	0.9772075
31	0x3f71ef43	0.9450571
32	0x3f78ce3f	0.97189707
33	0x3f6e5839	0.9310337
34	0x3f7b0649	0.98056465
35	0x3f686f53	0.9079487
36	0x3f809d69	1.0048038
37	0x3f85ea2f	1.0462092
38	0x3f57c883	0.8429033
39	0x3f63ebcd	0.8903168
40	0x3f82d5a8	1.0221453
41	0x3f6ee02b	0.93310803
42	0x3f5e59a1	0.8685551
43	0x3f687ab0	0.90812206
44	0x3f73c606	0.95224035
45	0x3f651a0e	0.8949288
46	0x3f66f9d7	0.90224975
47	0x3f764224	0.9619467
48	0x3f6f2f55	0.934316
49	0x3f653021	0.89526564
50	0x3f880bd8	1.0628614
51	0x3f81ec96	1.0150325
52	0x3f609634	0.8772919
53	0x3f8b860d	1.0900284
54	0x3f757361	0.9587918
55	0x3f7255ec	0.94662356
56	0x3f7fa8cf	0.99866956
57	0x3f73ef08	0.9528661
58	0x3f851c7d	1.0399319
59	0x3f640d6a	0.8908297
60	0x3f814785	1.0099951
61	0x3f68a999	0.90883785
62	0x3f44ae3a	0.7682835
63	0x3f68085d	0.9063776

bn2.bias f4 [64]
0	0x3da6223b	0.08111998
1	0xbe2086d0	-0.15676427
2	0x3dc10657	0.09425037
3	0x3d8b331c	0.06796858
4	0xba8c79b7	-0.0010717426
5	0x3bc2dec8	0.0059469678
6	0x3da52e02	0.08065416
7	0x3d4f9ba7	0.05068555
8	0x3d8f2468	0.06989366
9	0xbe21cd51	-0.15800978
10	0x3d4c136a	0.049823202
11	0xbe086e3f	-0.13323306
12	0x3d962443	0.07331135
13	0xbe4f0b67	-0.20219193
14	0x3d371b0d	0.044703532
15	0x3d96a7e8	0.07356244
16	0x3bc5e8ad	0.0060397
17	0x3da46e2f	0.08028828
18	0x3d881d67	0.06646233
19	0x3dbc2a2b	0.091877304
20	0x3da3b95b	0.07994338
21	0x3d9c6685	0.076367415
22	0x3d2724a0	0.040806413
23	0x3d921d16	0.07134454
24	0x3d17445a	0.03693042
25	0xbdaad45e	-0.08341287
26	0x3d28a9b4	0.041177467
27	0x3d713f05	0.05889799
28	0x3d7ab195	0.06120451
29	0x3d9ad98a	0.075610235
30	0x3d948803	0.07252505
31	0x3dc5f897	0.096665554
32	0x3d4f95b1	0.050679866
33	0xbe0d7ebd	-0.13817878
34	0x3dac69c6	0.08418612
35	0x3d7a6529	0.06113163
36	0x3d97744e	0.0739523
37	0x3d5ff212	0.054674216
38	0x3d0c6c67	0.034283068
39	0x3da30027	0.079590134
40	0x3d5d3773	0.05400796
41	0xbe375bea	-0.17906156
42	0x3d3c6fde	0.046005122
43	0xbabe25fd	-0.0014507171
44	0xbdfec5a8	-0.12440044
45	0x3c19aa0c	0.009378921
46	0x3d9ae70f	0.07563602
47	0xbe126da8	-0.14299643
48	0x3da38bbd	0.07985637
49	0x3cf62653	0.030047571
50	0x3cd9e6c2	0.026599292
51	0x3d7c557d	0.061604965
52	0x3ce25bc0	0.02763164
53	0x3d1a2316	0.037631117
54	0x3d8cd212	0.06876005
55	0x3daef4c6	0.085427806
56	0x3dbda284	0.09259513
57	0x3d862cbd	0.06551502
58	0x3da3f1bd	0.08005092
59	0x3d49c02f	0.049255546
60	0x3d903b4b	0.07042559
61	0x3dbe897f	0.09303569
62	0xbe225a61	-0.1585479
63	0x3c3bd4aa	0.011464277

bn2.running_mean f4 [64]
0	0xc009d731	-2.1537592
1	0xbf076a78	-0.52896833
2	0xbfde8d7f	-1.7386931
3	0xbf0e6466	-0.55621946
4	0xbf131252	-0.5744983
5	0xc006caba	-2.1061234
6	0xc054a2f6	-3.3224463
7	0xbfab343a	-1.3375313
8	0xbfd91efe	-1.6962583
9	0x3d18f920	0.03734696
10	0xbb83b6d3	-0.004019597
11	0xbe6ce731	-0.23135068
12	0xbf8923b9	-1.0714027
13	0x3f9effb3	1.2421783
14	0xbf2b9f8e	-0.67040336
15	0xc02f9f5f	-2.7441022
16	0xbf30372f	-0.68834203
17	0xc0451361	-3.0793078
18	0xbf8e7ab6	-1.1131198
19	0xbfc13b14	-1.5096154
20	0xbfc1aa65	-1.5130125
21	0xbfb19a87	-1.3875283
22	0xbf4f7b4e	-0.81047523
23	0xc061acb3	-3.5261657
24	0xbf5bc2f3	-0.85844344
25	0xbf575329	-0.8411127
26	0xbec4cb47	-0.38436338
27	0xbfcd9f72	-1.6064284
28	0xbfd52c63	-1.6654171
29	0xbf8e1825	-1.1101118
30	0xbf90eb24	-1.1321759
31	0xc00016d3	-2.001393
32	0xbf390b22	-0.7228261
33	0xbe89c5a2	-0.26908594
34	0xc029562d	-2.6458848
35	0xbfbdb679	-1.4821311
36	0xc034340c	-2.8156767
37	0xbf84fe07	-1.0390023
38	0xbfadc8a1	-1.3576852
39	0xbfa61176	-1.2974079
40	0xbef1fec1	-0.47264674
41	0x3e964a30	0.29353476
42	0xbfac3cef	-1.3456095
43	0xbe227afe	-0.1586723
44	0xbf09bf28	-0.53807306
45	0xbf274b62	-0.653494
46	0xbfcb206c	-1.5869269
47	0xbf4924fc	-0.7857206
48	0xc001654e	-2.0218081
49	0xbfa50e1d	-1.2894932
50	0x3d47df41	0.048796896
51	0xbf326668	-0.6968751
52	0xbf510989	-0.81655174
53	0xbf2ea9f0	-0.68228054
54	0xc014d974	-2.3257723
55	0xbfc0060f	-1.5001849
56	0xbff0c95c	-1.881145
57	0xbfad52ee	-1.3540933
58	0xc00f2691	-2.236729
59	0xbfcbf7c5	-1.5934988
60	0xbfa54903	-1.2912906
61	0xbfce01e0	-1.6094322
62	0x3f27512a	0.6535822
63	0xbfc48224	-1.5352216

bn2.running_var f4 [64]
0	0x40f06fef	7.513664
1	0x405b7ada	3.4293733
2	0x40e0a304	7.0198994
3	0x4033597a	2.8023362
4	0x4008e3cd	2.1389039
5	0x405decec	3.4675856
6	0x3f98c525	1.1935164
7	0x40a4f180	5.15448
8	0x3fc26422	1.5186808
9	0x4028bc21	2.6364825
10	0x4017302e	2.3623157
11	0x408297b6	4.0810194
12	0x3fd402cf	1.6563357
13	0x405bf7b5	3.4369938
14	0x406a6f64	3.6630487
15	0x3fcd499d	1.603809
16	0x402d8515	2.7112477
17	0x3fc8e756	1.5695598
18	0x4025e0b5	2.59184
19	0x408ebff8	4.4609337
20	0x40065e1d	2.0994942
21	0x4047eda8	3.1238804
22	0x4029c537	2.652662
23	0x3f79a36c	0.97514987
24	0x404a85ec	3.164424
25	0x4081b398	4.053173
26	0x4064a5c0	3.5726166
27	0x3f9e8cae	1.2386682
28	0x3fd7911b	1.6841158
29	0x40917a45	4.5461755
30	0x40920ade	4.5638266
31	0x40b50535	5.6568856
32	0x40385e51	2.8807566
33	0x408d9938	4.4249535
34	0x3fcc0eed	1.5942055
35	0x40cecc26	6.4624205
36	0x3fdd2077	1.7275532
37	0x3febac72	1.8412001
38	0x40a14d5b	5.040693
39	0x409b80e4	4.8594837
40	0x4028de5f	2.6385725
41	0x3ffb4630	1.9630795
42	0x3fff6cf2	1.9955122
43	0x404b84d6	3.1799827
44	0x40895af0	4.292351
45	0x4016f2a7	2.3585603
46	0x409e767a	4.9519625
47	0x4050b195	3.2608387
48	0x401a72a5	2.4132473
49	0x40969800	4.7060547
50	0x4041ca5a	3.0279756
51	0x3fb9b656	1.450877
52	0x405755e5	3.3646176
53	0x403b03b5	2.9221013
54	0x3f84ae56	1.0365703
55	0x4003379b	2.050269
56	0x40639c99	3.556433
57	0x409ab098	4.834057
58	0x40169899	2.3530638
59	0x4053824f	3.3048284
60	0x3ffd6d6b	1.9799017
61	0x40bdc594	5.9303684
62	0x4076c61a	3.8558412
63	0x408e4b70	4.4467087

conv3.weight f4 [128, 64, 3, 3]
0	0xbb7bbdc4	-0.003841267
1	0x3b10b2a2	0.002207913
2	0xbca5aa82	-0.020222906
3	0x3a94646b	0.0011321431
4	0xbcd5b5e8	-0.026087716
5	0xbcbc3b55	-0.02297751
6	0xbc8e47f1	-0.017368289
7	0xbc3616b5	-0.011113812
8	0xbbdb62d4	-0.006695131
9	0xbcda82a1	-0.026673617
10	0xbbf7fb24	-0.00756778
11	0x3c229b12	0.009924667
12	0xb9eac0ba	-0.0004477555
13	0x3c53756d	0.012906414
14	0xbcbb1bf0	-0.02284047
15	0x3bc295b7	0.0059382576
16	0xbce3ca0a	-0.0278063
17	0x3c45a1b7	0.012062482
18	0xbd20f63b	-0.039297324
19	0x3c36004f	0.011108472
20	0xbbe8004d	-0.007080114
21	0x3bcbd1e1	0.006220088
22	0x3c24ef3e	0.010066805
23	0x3bd0c623	0.006371276
24	0x3ca64526	0.020296644
25	0xbcb6eeeb	-0.022330722
26	0xbcdd8cef	-0.027044741
27	0xbc8937e4	-0.016750284
28	0xbd0b03f4	-0.033939317
29	0xbc9edd00	-0.01939249
30	0xbca21ec2	-0.019790057
31	0x3b52569a	0.0032095076
32	0xbc5d23ff	-0.013497352
33	0x3c9a32ff	0.018823145
34	0xbc8f46b9	-0.017489778
35	0xbcd03b80	-0.025418997
36	0xbbc9f3e7	-0.0061631086
37	0x3c537a84	0.012907628
38	0xbd21ce58	-0.039503425
39	0xbb091a9f	-0.0020920408
40	0x3d005af9	0.03133676
41	0xbd027988	-0.031854182
42	0xbcca70b7	-0.02471195
43	0xbb49bd1b	-0.0030782882
44	0x3bf99145	0.0076161944
45	0x3aa3a708	0.0012485692
46	0xbccf6b5c	-0.025319748
47	0xbd309f8d	-0.04312091
48	0x3b8fe1a2	0.004390911
49	0xbc1b08c4	-0.009462539
50	0xbca19a1f	-0.019726811
51	0xbd0c9f2f	-0.034331497
52	0xbc9ce80b	-0.019153615
53	0xbbe3ee1d	-0.0069558755
54	0xbdb30fc2	-0.0874324
55	0xbc4db03b	-0.012554224
56	0xbd97ca93	-0.07411685
57	0x3c1595b4	0.00912993
58	0x3d699597	0.057027426
59	0x3b637210	0.0034705438
60	0xbd2d72c3	-0.042345773
61	0xbd110712	-0.035407133
62	0xbd9d205d	-0.076721884
63	0xbcb06e02	-0.02153683
64	0x3cdd9c1b	0.027051976
65	0x3cabc2cd	0.020966912
66	0xbba25925	-0.0049544745
67	0xbaae0578	-0.0013276776
68	0xbcc1bbcf	-0.023649124
69	0x3c3bbbbd	0.0114583345
70	0xbc80438d	-0.01565721
71	0xbcacd605	-0.021098146
72	0xbcaa2173	-0.020767903
73	0xbcb2c599	-0.021822738
74	0xbd8bb6c4	-0.06821969
75	0xbca3e17f	-0.020004986
76	0x3d4722de	0.048617236
77	0x3bf7c1ea	0.007560958
78	0xbd301cfc	-0.04299639
79	0x3cc27bb8	0.023740634
80	0xbd18aca4	-0.037274018
81	0x3ba6353d	0.0050722645
82	0x3c0924f6	0.008370629
83	0x3c8054aa	0.015665371
84	0xbc9671b7	-0.01836477
85	0xbcf5f733	-0.0300251
86	0x3c6468fe	0.013941048
87	0x3cb39262	0.021920387
88	0xbc1670a4	-0.009182129
89	0xbcb7affb	-0.022422781
90	0x3c88a8e3	0.016682094
91	0xbc0c6a15	-0.008570214
92	0xbc783c91	-0.015151159
93	0x3c16d236	0.009205392
94	0xbcde14c2	-0.027109507
95	0x3c89151f	0.016733704
96	0x3b8dbf13	0.0043257563
97	0xbc8d0c7b	-0.017217865
98	0x3b3eeb54	0.0029131966
99	0xbb99d064	-0.0046940316
100	0xbd45fc22	-0.048336156
101	0xbc9dab94	-0.019246854
102	0x3c238699	0.009980821
103	0x3b840b7a	0.0040296884
104	0xbc00b78e	-0.007856263
105	0xbc195173	-0.009357798
106	0xbcb86ba0	-0.022512257
107	0x3ba8fdbd	0.005157201
108	0xbcb8cc6b	-0.022558412
109	0x3c71a0d3	0.014747816
110	0xbc1bb88b	-0.009504448
111	0xbbdfdf22	-0.0068320194
112	0x3a306fb8	0.00067305146
113	0xbbabc889	-0.0052424115
114	0xbd6b17eb	-0.057395857
115	0x3c83421d	0.016022736
116	0xbd1c7905	-0.03820135
117	0xbbd21977	-0.006411727
118	0x367a54d9	3.730229e-06
119	0xbba403f3	-0.0050053536
120	0x3c07cedd	0.008289066
121	0x3bb1f949	0.0054313284
122	0xbd3620e4	-0.04446496
123	0xbd34e419	-0.044162843
124	0xbbe65ff0	-0.0070304796
125	0x3c972a80	0.018452883
126	0xbccefe72	-0.025267813
127	0x3cc4347a	0.023950804
128	0xbc1263fd	-0.008934972
129	0x3cce42ac	0.025178276
130	0x3b99819a	0.004684639
131	0x3ca6d1bc	0.020363681
132	0xbcf73979	-0.030178772
133	0x3c322af4	0.010874499
134	0x3ca0b04a	0.019615311
135	0xbd9fa3b5	-0.077948965
136	0x3cab6ebe	0.02092683
137	0xbd4c93d5	-0.04994567
138	0x3c41d3cc	0.0118302815
139	0x3ce41a8b	0.027844688
140	0xbd18639f	-0.03720438
141	0xbcf94a54	-0.03043095
142	0xbc5b65fc	-0.013391014
143	0xbd9419c0	-0.07231474
144	0x3ba1a6fe	0.004933237
145	0x3c12285d	0.008920756
146	0x3c1619f3	0.00916146
147	0x3c2b94f3	0.010472524
148	0x3c34f1ec	0.011044007
149	0x3c71f1cb	0.014767121
150	0xbc2312ea	-0.00995324
151	0xbb0c53ab	-0.0021412175
152	0xbced240f	-0.028947858
153	0xbd629a2d	-0.055322815
154	0x3cfa138d	0.0305269
155	0xbd93c58d	-0.07215414
156	0xbbf3d650	-0.0074413195
157	0x3c18d66b	0.009328465
158	0x3c91e779	0.01781057
159	0xbd8a1024	-0.0674136
160	0xbcadff59	-0.021239923
161	0xbdbd21a5	-0.09234933
162	0xbb54aba4	-0.0032450939
163	0xbc235440	-0.009968817
164	0x3c991450	0.018686444
165	0x3c11d565	0.008900975
166	0xbc9c0893	-0.019047057
167	0xbc06093a	-0.008180911
168	0xbb87496a	-0.0041286247
169	0xb8e583a2	-0.000109440894
170	0x3ac9c3ef	0.0015393476
171	0xbcf8ed64	-0.030386634
172	0x3bbc8dbf	0.005754202
173	0x3c03841b	0.008027102
174	0xbc524076	-0.0128327515
175	0x3d3d0179	0.046143983
176	0xb9cfb3f8	-0.00039616204
177	0xbd60cdb8	-0.05488369
178	0xbadc7906	-0.0016820736
179	0x39e2769d	0.00043194453
180	0xbc0505f2	-0.008119093
181	0x3c1f03b4	0.009705473
182	0xbd03173c	-0.03200458
183	0xb861632e	-5.373655e-05
184	0x3cd14b6c	0.02554866
185	0xbd0d6736	-0.034522258
186	0xbd1c0ec5	-0.038100023
187	0xbcee6b7d	-0.029103989
188	0xbd6e57a2	-0.058189042
189	0xbc98208c	-0.018570207
190	0x3a72ee71	0.0009267098
191	0xbd1d8e09	-0.038465533
192	0xbcebc4ab	-0.028780302
193	0x3d00b57f	0.03142309
194	0xbb4f165b	-0.0031599018
195	0xbc927638	-0.017878637
196	0x3d0436a5	0.032278676
197	0xbd31847a	-0.04333923
198	0xbca7ee28	-0.020499304
199	0xbd069e98	-0.03286609
200	0xbcde9881	-0.027172329
201	0xbc0ff5a9	-0.008786597
202	0x3cb02268	0.021500781
203	0xbb6aa906	-0.0035806312
204	0xbcdf8c33	-0.027288532
205	0xbd0d8ae8	-0.0345563
206	0xbcca4498	-0.024690911
207	0xbd965388	-0.07340151
208	0xbcd287f2	-0.02569959
209	0xbdc0c6c8	-0.094129145
210	0x3c9183d8	0.017763063
211	0x3d1c4289	0.03814939
212	0xbc10d442	-0.008839669
213	0xbd6f931c	-0.058489904
214	0xbc6ff437	-0.014645628
215	0xbdc07e10	-0.093990445
216	0xbd4263a9	-0.047458325
217	0x3cd495cd	0.025950337
218	0xba748158	-0.0009327135
219	0xbd1ac9c1	-0.037790064
220	0xbac6b6e3	-0.0015160706
221	0xbcdff3ff	-0.027338026
222	0x3b742fe4	0.003725999
223	0x3d0b5edf	0.034026023
224	0xbc778886	-0.015108233
225	0xbd05f823	-0.032707345
226	0xbc84d172	-0.016213153
227	0x3c68ab32	0.014200972
228	0x398ed039	0.0002723949
229	0xbcb64f26	-0.022254538
230	0xbc5e1533	-0.013554859
231	0xba6c2684	-0.0009008425
232	0xbce3aa63	-0.027791208
233	0xbc94c1fe	-0.018158909
234	0x3c92a36b	0.01790019
235	0x3bbac849	0.0057001454
236	0x3cfdbd8d	0.030974174
237	0xbccb3251	-0.024804266
238	0xbba73697	-0.005102943
239	0xbcbdc37f	-0.023164509
240	0x3a669fe1	0.00087976275
241	0xbbff0360	-0.0077823848
242	0xbb574ec3	-0.0032853342
243	0xbd5e9565	-0.054341692
244	0xbd27d8a4	-0.04097809
245	0xbd56fa66	-0.052484892
246	0xbb28e861	-0.0025773274
247	0xbcb7a230	-0.022416204
248	0xbc0534aa	-0.008130232
249	0xbcdd5b06	-0.027020942
250	0x3bdc46b4	0.0067222957
251	0xbcce6595	-0.025194922
252	0xbd933bf2	-0.07189168
253	0x3b3ee153	0.0029126003
254	0xbd32e06e	-0.043671064
255	0xbd2c4d4f	-0.042065915

conv3.bias f4 [128]
0	0xb7102709	-8.592157e-06
1	0x36fb59c0	7.490831e-06
2	0xb6eaafe6	-6.9942207e-06
3	0x37019a8e	7.724984e-06
4	0xb6c0d177	-5.746431e-06
5	0x368b2fff	4.1481103e-06
6	0xb71c9d87	-9.335002e-06
7	0x3714d5b2	8.871242e-06
8	0xb51570cc	-5.5670967e-07
9	0xb82f7484	-4.1831765e-05
10	0xb8c3d18f	-9.337358e-05
11	0x368fbbdb	4.2836014e-06
12	0xb711ed03	-8.697857e-06
13	0x3663b97e	3.3933607e-06
14	0xb70c5f1d	-8.366796e-06
15	0xb890eda3	-6.9107184e-05
16	0xb69429d7	-4.4156145e-06
17	0x36a7c469	4.999853e-06
18	0x377aaaf9	1.4940969e-05
19	0xb5801e70	-9.545602e-07
20	0x362b8609	2.5559004e-06
21	0x37a562af	1.9715486e-05
22	0xb680fb39	-3.8439434e-06
23	0x3849bda9	4.809877e-05
24	0xb548437e	-7.460402e-07
25	0xb703efae	-7.864013e-06
26	0xb7b789a2	-2.187939e-05
27	0x36b0aa6f	5.26505e-06
28	0x36a8a73b	5.0262583e-06
29	0xb6d240f4	-6.2660492e-06
30	0x34e0d5f5	4.1878926e-07
31	0x353e99eb	7.1004496e-07
32	0xb724a6b4	-9.813975e-06
33	0x362065f2	2.3901198e-06
34	0xb384e9a5	-6.189229e-08
35	0xb7d0767c	-2.4850706e-05
36	0x362fd13f	2.619883e-06
37	0xb5a8b28b	-1.2568938e-06
38	0x37061720	7.992407e-06
39	0x36a6711d	4.9603536e-06
40	0x35464b94	7.387073e-07
41	0x33d48499	9.896139e-08
42	0x370ab5c7	8.267764e-06
43	0x370137a2	7.701952e-06
44	0x369e2ac6	4.7137464e-06
45	0x378193ef	1.5446885e-05
46	0x3772ce3f	1.4472344e-05
47	0x37221a1c	9.6620315e-06
48	0xb701f05e	-7.744964e-06
49	0xb78e68a0	-1.6976439e-05
50	0x372cd8c1	1.0302466e-05
51	0xb690df8f	-4.31756e-06
52	0xb6a6e5d7	-4.9739424e-06
53	0x38b089d5	8.418007e-05
54	0x35299b88	6.3183734e-07
55	0xb718539a	-9.079371e-06
56	0x378e1c2e	1.6940841e-05
57	0x376348d7	1.3547214e-05
58	0xb5db2fa0	-1.6330632e-06
59	0x3721425f	9.611801e-06
60	0xb662f509	-3.3819254e-06
61	0xb49a60de	-2.8755215e-07
62	0x38be302d	9.0688794e-05
63	0xb696bb4d	-4.492153e-06
64	0x37e42ce6	2.7200625e-05
65	0x360c26a6	2.0884122e-06
66	0xb766a6a2	-1.37478655e-05
67	0x3545c4aa	7.36744e-07
68	0x3712d49f	8.751783e-06
69	0xb8586fd9	-5.160258e-05
70	0xb734df71	-1.078086e-05
71	0x376a3910	1.3960773e-05
72	0xb781ac17	-1.5458134e-05
73	0x36bc9ff4	5.6214576e-06
74	0x36989259	4.54699e-06
75	0x33b67ca1	8.497705e-08
76	0x3714fb63	8.880018e-06
77	0xb73aa703	-1.1125349e-05
78	0xb6b81ce4	-5.4869906e-06
79	0xb806be56	-3.2125354e-05
80	0xb65c46bd	-3.282373e-06
81	0x3780c688	1.5351237e-05
82	0xb8025627	-3.107465e-05
83	0x369f9ef2	4.757073e-06
84	0x371be608	9.292278e-06
85	0xb6fb1280	-7.4825366e-06
86	0x3717c817	9.046888e-06
87	0x36910632	4.322058e-06
88	0xb792a09a	-1.7479342e-05
89	0xb73814ca	-1.0972095e-05
90	0xb64ca94a	-3.0496908e-06
91	0x35a26d04	1.2101668e-06
92	0xb74bdcc9	-1.2151148e-05
93	0xb5cbc6d9	-1.5182551e-06
94	0xb5bff2ea	-1.4301306e-06
95	0x3917a7b1	0.00014462952
96	0x37881d7a	1.622619e-05
97	0x36d091fe	6.215879e-06
98	0xb62a52eb	-2.5380239e-06
99	0xb7314ed4	-1.0568376e-05
100	0xb62a7e3d	-2.5405454e-06
101	0x36c2276b	5.7862394e-06
102	0xb6e87779	-6.9280472e-06
103	0x37c4f6f2	2.3480014e-05
104	0x36c4d949	5.8665505e-06
105	0xb7e85251	-2.7694887e-05
106	0x37b2f438	2.1332977e-05
107	0x35ce4af9	1.5370016e-06
108	0xb79b7c7d	-1.853541e-05
109	0xb7886f21	-1.6264212e-05
110	0x37e3b113	2.7142965e-05
111	0xb7109b33	-8.619204e-06
112	0x365c49ec	3.2825583e-06
113	0xb5812043	-9.620638e-07
114	0xb81ad35d	-3.691331e-05
115	0xb74dfd50	-1.2277931e-05
116	0x36e13597	6.711761e-06
117	0xb79a7057	-1.8410543e-05
118	0x3700860f	7.6606075e-06
119	0x36a0f5f4	4.7970043e-06
120	0xb78568ba	-1.5903603e-05
121	0x3695f9d4	4.46963e-06
122	0xb7e8040f	-2.7658445e-05
123	0x36caca14	6.043594e-06
124	0xb6c003fa	-5.722509e-06
125	0xb70865a9	-8.129901e-06
126	0xb62fa1f8	-2.617131e-06
127	0xb75135cf	-1.2469899e-05

bn3.weight f4 [128]
0	0x3f92a640	1.1456985
1	0x3f9488b4	1.1604218
2	0x3fa6e30e	1.3038042
3	0x3f96b112	1.1772788
4	0x3fa50b79	1.2894126
5	0x3f963b46	1.1736839
6	0x3f960f8f	1.1723498
7	0x3f9e407f	1.2363433
8	0x3f9d52f6	1.2290943
9	0x3f95c063	1.1699337
10	0x3f9458fd	1.1589657
11	0x3fa5f935	1.2966677
12	0x3f997db3	1.1991485
13	0x3f9cd4c6	1.2252433
14	0x3f9643f0	1.1739483
15	0x3f9920ae	1.1963098
16	0x3f97aee5	1.1850249
17	0x3f9d35ee	1.2282083
18	0x3fa09f1d	1.2548558
19	0x3f92731d	1.144138
20	0x3f9f53c2	1.2447436
21	0x3fa28c3d	1.2699047
22	0x3f99d981	1.2019502
23	0x3f977b0f	1.183443
24	0x3f99edff	1.2025756
25	0x3f891a81	1.0711213
26	0x3fa6e50a	1.3038647
27	0x3f9b5940	1.2136612
28	0x3f97279d	1.1808964
29	0x3f97c5d4	1.1857247
30	0x3fa01bb4	1.2508454
31	0x3f9ea8c6	1.2395256
32	0x3f912f52	1.1342566
33	0x3f9b8f32	1.2153075
34	0x3f9571a5	1.1675307
35	0x3fa1a415	1.2628199
36	0x3f83f771	1.0309888
37	0x3f9bcb3f	1.2171401
38	0x3fa42855	1.2824808
39	0x3f942aff	1.1575621
40	0x3f954af6	1.1663501
41	0x3f8ff522	1.1246684
42	0x3f9763f2	1.1827376
43	0x3f9b2357	1.212016
44	0x3f8e5a62	1.1121333
45	0x3f92d897	1.1472348
46	0x3fa571cb	1.2925352
47	0x3f8cce40	1.1000443
48	0x3f971609	1.18036
49	0x3fa2c6ef	1.271696
50	0x3f934794	1.1506219
51	0x3fa6fa70	1.3045177
52	0x3f955aca	1.1668332
53	0x3f9df74d	1.2341095
54	0x3f9112a9	1.133382
55	0x3f9c2a4c	1.2200408
56	0x3f962e41	1.1732866
57	0x3f95db49	1.1707546
58	0x3fa2652b	1.2687124
59	0x3fa173bd	1.2613446
60	0x3f96a02b	1.1767629
61	0x3f8c41ab	1.095754
62	0x3fa0d865	1.2566038
63	0x3f99520f	1.1978167
64	0x3f9845fc	1.1896358
65	0x3f959d29	1.1688586
66	0x3f96a5cf	1.1769351
67	0x3f9593ac	1.1685691
68	0x3f94a680	1.1613312
69	0x3f924ab0	1.1429043
70	0x3fa52a17	1.290347
71	0x3f8fec08	1.1243906
72	0x3f97306a	1.181165
73	0x3f983449	1.1890956
74	0x3f964042	1.173836
75	0x3f96fa6b	1.1795171
76	0x3f92e667	1.1476563
77	0x3f9c45f0	1.2208843
78	0x3f9d3c20	1.2283974
79	0x3f9535b7	1.1657017
80	0x3f982f78	1.1889486
81	0x3f971261	1.1802484
82	0x3fa13059	1.259288
83	0x3f9388ba	1.1526101
84	0x3f8fc146	1.1230857
85	0x3f9983a3	1.1993297
86	0x3fa7b87c	1.3103175
87	0x3f9b813d	1.2148815
88	0x3f92e4c3	1.1476063
89	0x3fa16d7e	1.2611539
90	0x3f9ca121	1.2236673
91	0x3fa3407b	1.2754053
92	0x3f9bca43	1.21711
93	0x3f9d65e6	1.2296722
94	0x3f9bbc7a	1.2166893
95	0x3fa290b6	1.2700412
96	0x3f9c4182	1.2207491
97	0x3f98d0ec	1.1938758
98	0x3fa3c5e7	1.279477
99	0x3fa3d5a1	1.2799569
100	0x3fa24032	1.2675841
101	0x3f974a84	1.1819615
102	0x3f945c97	1.1590756
103	0x3fa3163c	1.274116
104	0x3f971a0f	1.1804827
105	0x3fa53a16	1.2908351
106	0x3f9c356f	1.2203807
107	0x3f9eba02	1.2400515
108	0x3fa07bc2	1.2537768
109	0x3f9aa998	1.2083006
110	0x3f9c2b53	1.2200722
111	0x3f96596d	1.174604
112	0x3f99b2c4	1.200768
113	0x3f945f15	1.1591517
114	0x3f95d31a	1.1705048
115	0x3f91ed87	1.1400613
116	0x3f8e5ad3	1.1121467
117	0x3f9ad5d7	1.2096509
118	0x3fa0f25e	1.2573965
119	0x3f9cf4eb	1.2262243
120	0x3f987ce7	1.1913117
121	0x3f8d40e8	1.1035433
122	0x3f8df81f	1.1091346
123	0x3f991e86	1.196244
124	0x3fa04aea	1.2522862
125	0x3f938f56	1.1528118
126	0x3f9cac53	1.2240089
127	0x3f9a73ec	1.2066627

bn3.bias f4 [128]
0	0x3e256ccb	0.16154782
1	0x3dd1b6a0	0.10239911
2	0x3db2232f	0.08698117
3	0x3e4a1fc4	0.1973868
4	0x3dd331bc	0.103122205
5	0x3e40fccc	0.18846434
6	0x3e3c80e5	0.18408544
7	0x3e1b7bae	0.15183899
8	0x3d64d505	0.055867214
9	0x3e329ca4	0.17442566
10	0x3e2f5829	0.17123474
11	0x3da3bc51	0.07994903
12	0x3d9d4c87	0.07680612
13	0x3de3f716	0.11131112
14	0x3e3d465e	0.18483874
15	0x3e4e8f99	0.20171966
16	0x3db322a3	0.08746841
17	0xbc56291c	-0.013071325
18	0x3e1fe30b	0.15613954
19	0x3e2376a3	0.15963225
20	0x3e229484	0.15876967
21	0xbd078f4d	-0.033095647
22	0x3de0d790	0.10978615
23	0x3d384c82	0.04499484
24	0x3e5a2608	0.2130357
25	0x3c21c01f	0.009872465
26	0x3dccb199	0.099948116
27	0x3dd096fd	0.10185049
28	0x3e518d14	0.20463973
29	0x3e58b233	0.21161728
30	0xbc6563c1	-0.014000834
31	0x3e38e2ab	0.18055217
32	0x3d269122	0.040665753
33	0x3da0819e	0.078372225
34	0x3dcc38c9	0.099717684
35	0x3b80d09a	0.0039311172
36	0x3c73db5e	0.014883844
37	0x3e5bddd0	0.21471334
38	0x3e0e58d2	0.1390107
39	0x3e33e0b2	0.17566183
40	0x3e2bc29c	0.16773456
41	0x3e0f7607	0.14009868
42	0x3e4e8804	0.20169073
43	0x3dd6ecf9	0.10494418
44	0x3dfc622f	0.123234145
45	0x3e23cb3d	0.15995498
46	0x3c5ef74e	0.013608767
47	0x3de68965	0.11256675
48	0x3d778a84	0.060434833
49	0x3be0338e	0.0068420833
50	0x3e23e711	0.16006114
51	0x3d94cdc4	0.07265809
52	0x3e390828	0.18069518
53	0xbb85ee75	-0.004087264
54	0x3d748675	0.05969854
55	0x3e210899	0.15725936
56	0x3e39a65d	0.18129869
57	0xbc37af62	-0.011211248
58	0x3e39d3a2	0.18147138
59	0x3e358cea	0.17729536
60	0x3e3c914d	0.18414803
61	0x3d75988b	0.05995993
62	0xbcf629ff	-0.030049322
63	0x3e4da6e4	0.20083195
64	0x3dbd2067	0.09234696
65	0x3e120fc1	0.14263822
66	0x3e3f7252	0.18695953
67	0x3e3e4d7b	0.18584244
68	0x3e2a45b6	0.16628155
69	0x3e15f9b3	0.14646034
70	0x3d517a02	0.051141746
71	0x3e08cc0c	0.13359088
72	0x3e461dc8	0.19347298
73	0x3e42922f	0.19001077
74	0x3ddfaef1	0.10922039
75	0x3e46b03d	0.19403167
76	0x3e283657	0.16426979
77	0x3dc8d444	0.098061115
78	0x3e72d008	0.2371217
79	0x3e349367	0.17634355
80	0x3e540a9d	0.20707174
81	0x3e4266bc	0.18984503
82	0x3c3cec17	0.011530898
83	0x3e2feb17	0.17179523
84	0x3b8347ad	0.004006347
85	0x3e5c831a	0.21534386
86	0x3cabbcbd	0.02096402
87	0x3df12640	0.11774874
88	0x3e24260d	0.1603014
89	0x3e1c450d	0.15260716
90	0x3d891616	0.06693666
91	0x3e36a072	0.17834643
92	0xbc176b94	-0.009241957
93	0x3e19773a	0.14986888
94	0x3ddd6f4d	0.108122446
95	0xbd0c2aee	-0.03422063
96	0x3dd802e7	0.105474286
97	0x3e583150	0.21112561
98	0x3e19fe4e	0.15038416
99	0x3d393828	0.04521957
100	0x3e2a7ed2	0.1664994
101	0x3deb7b54	0.11498132
102	0x3e2b8dcc	0.1675331
103	0x3d7910de	0.0608071
104	0x3e3b8c8a	0.1831533
105	0xbd1cab4f	-0.03824931
106	0x3df23bc6	0.11827807
107	0x3e02d9ab	0.12778346
108	0x3e286c41	0.16447546
109	0x3e5a7bf0	0.21336341
110	0x3e1b0525	0.15138681
111	0x3e448567	0.19191514
112	0x3dc7d784	0.09757903
113	0x3e2edf94	0.17077476
114	0x3e3cea9a	0.18448868
115	0x3e1d86c9	0.15383448
116	0x3df8bed4	0.121457726
117	0x3d2ae48e	0.041721873
118	0x3b3a8132	0.0028458354
119	0x3ded9b88	0.11601931
120	0x3e4b4f6d	0.19854517
121	0x3d29304b	0.04130582
122	0x3e002ce7	0.12517129
123	0x3e4edbf2	0.2020109
124	0x3c249b36	0.010046771
125	0x3e23ac12	0.15983608
126	0x3d8aecab	0.06783422
127	0x3e15b6bd	0.1462049

bn3.running_mean f4 [128]
0	0xbfdc8f9c	-1.7231326
1	0x3f8f57d8	1.1198683
2	0xbea27205	-0.31727615
3	0xbfd0a94f	-1.6301669
4	0xbe49256e	-0.19643185
5	0xbfd200ee	-1.6406534
6	0xbfd73ab5	-1.6814791
7	0x3e89295e	0.26789373
8	0xbeb1c868	-0.3472321
9	0xbfad58cd	-1.3542725
10	0xbfb56f9e	-1.4174688
11	0xbeae1a1b	-0.34004292
12	0x3dceea8d	0.10103331
13	0x3eb5ddac	0.35520685
14	0xbfdac353	-1.7090858
15	0xbfd8870c	-1.6916213
16	0x3f089324	0.5334952
17	0xbf5270fd	-0.82203656
18	0x3e87a71e	0.26494688
19	0xbfe5b907	-1.7947091
20	0x3f242f27	0.6413445
21	0xbf9cd16d	-1.2251412
22	0xbce214d1	-0.027597817
23	0xbece156a	-0.40250713
24	0xbfcccf4e	-1.6000764
25	0x3f821aca	1.0164425
26	0xbe8de56a	-0.27714092
27	0xbd81b0bc	-0.063325375
28	0xbfe39c5a	-1.778209
29	0xbff5f376	-1.9214923
30	0xbf0d5928	-0.55214167
31	0x3e32a5ba	0.17446032
32	0x3fd256d3	1.6432747
33	0x3e70f8ae	0.23532364
34	0x3f822da5	1.017018
35	0xbf5b1b8c	-0.8558891
36	0x3fd255e5	1.6432463
37	0xbff29887	-1.8952798
38	0x3edee94c	0.43537366
39	0xbfd59ce5	-1.6688505
40	0xbfbca365	-1.4737364
41	0xbfca4659	-1.5802718
42	0xbfed3050	-1.8530369
43	0x3fb15be6	1.385617
44	0xbf3d6cec	-0.73994327
45	0xbfe3e162	-1.7803156
46	0xbf7c1065	-0.98462516
47	0xbf7acdbd	-0.9797018
48	0x3fbb578a	1.463609
49	0xbf619bd5	-0.88128406
50	0xbf2a74d2	-0.66584504
51	0xbec355c8	-0.38151383
52	0xbfcd5455	-1.6041361
53	0xbf8dd30b	-1.108003
54	0xbd46a4c5	-0.04849698
55	0x3f5ad4bb	0.8548085
56	0xbfec58ad	-1.8464562
57	0xbf8c6be6	-1.0970428
58	0x3f79b7bd	0.9754599
59	0x3f2c6930	0.67348003
60	0xbff3ac76	-1.9037006
61	0x3edc7289	0.43056133
62	0xbfa75898	-1.3073912
63	0xbfef6ef3	-1.8705734
64	0xbe8cebf3	-0.27523765
65	0x3f220693	0.6329128
66	0xc0078aad	-2.117839
67	0xbfe04dd1	-1.7523748
68	0xbfec16fe	-1.8444517
69	0xbf57ec6c	-0.84345126
70	0xbf201c29	-0.6254297
71	0xbfd20b78	-1.640975
72	0xbfae61ab	-1.3623556
73	0xbfae7c18	-1.363162
74	0x3e80c636	0.25151223
75	0xbfef6668	-1.8703127
76	0xbfbd62c7	-1.479577
77	0x3e7be49f	0.24598931
78	0xbfe455d8	-1.7838697
79	0xbfb0a038	-1.3798895
80	0xbfdd66a5	-1.729695
81	0xbfd2a959	-1.6457931
82	0xbf84b320	-1.0367165
83	0xbfe8bdcf	-1.8182925
84	0x3f8eb67d	1.1149441
85	0xbfdae984	-1.7102513
86	0xbf4af5f4	-0.79281545
87	0x3eed66a1	0.46367362
88	0xbff0f9fc	-1.8826289
89	0x3f12097c	0.5704572
90	0xbee8fbbf	-0.45504567
91	0x3e8cf0d5	0.2752749
92	0xbf9769ca	-1.1829159
93	0x3ee6d5a5	0.45084873
94	0xbde2daf1	-0.11076916
95	0xbf7360a4	-0.95069337
96	0xbe679892	-0.22616795
97	0xbfda8ca6	-1.7074172
98	0x3e714994	0.23563224
99	0xbf151c53	-0.58246344
100	0x3f21e184	0.63234735
101	0x3f70378e	0.9383477
102	0xbfe67ef3	-1.8007492
103	0xbf35d485	-0.71027404
104	0xbfa6000b	-1.2968763
105	0xbf75bbc6	-0.95989645
106	0x3f21f25b	0.6326043
107	0xbd9593a8	-0.07303554
108	0x3f62ac81	0.8854447
109	0xbfce1a93	-1.610186
110	0x3f54d64f	0.8313951
111	0xbfea5f43	-1.8310322
112	0x3e8aff6e	0.27148002
113	0xbfed183f	-1.8523024
114	0xbfe3d1a8	-1.7798357
115	0xbfd17170	-1.6362743
116	0xbf1c4a00	-0.61050415
117	0xbf14df1b	-0.5815293
118	0xbf35aa62	-0.7096311
119	0x3fa57367	1.2925843
120	0xbfe64bd3	-1.799189
121	0x3fa3c83b	1.279548
122	0xbfe4046d	-1.7813851
123	0xbfd3799c	-1.6521487
124	0xbf4638c4	-0.7743037
125	0xbfd8385e	-1.6892202
126	0xbe5ba82a	-0.21450868
127	0x3f95beca	1.1698849

bn3.running_var f4 [128]
0	0x3f4a3adc	0.7899606
1	0x3e52cd0c	0.20586032
2	0x3e5e801e	0.2172856
3	0x3f2cf4fe	0.6756133
4	0x3e1927d7	0.14956604
5	0x3f17f0dd	0.59351903
6	0x3f2bef59	0.6716209
7	0x3e56d7ff	0.20980833
8	0x3e463ace	0.1935837
9	0x3f08988c	0.5335777
10	0x3f0a8e64	0.5412352
11	0x3e06ac67	0.13151704
12	0x3e5197e4	0.20468098
13	0x3e725ef7	0.23669039
14	0x3f212015	0.6293958
15	0x3f191c17	0.59808487
16	0x3e8c78ff	0.27436063
17	0x3e946659	0.28984335
18	0x3e46c687	0.1941167
19	0x3f0694c3	0.5257074
20	0x3e68cb18	0.22733724
21	0x3e59fb0e	0.21287176
22	0x3e411510	0.18855691
23	0x3e3c03a7	0.18360768
24	0x3f2207ff	0.6329345
25	0x3e4f7330	0.20258784
26	0x3e216ccb	0.15764157
27	0x3e5ec8fa	0.21756354
28	0x3f34fd8c	0.7069938
29	0x3f559f46	0.83446157
30	0x3e85bbe6	0.26119918
31	0x3e2469da	0.16056004
32	0x3e898056	0.26855725
33	0x3e5353dc	0.20637459
34	0x3e4db5ba	0.20088854
35	0x3e40897d	0.18802448
36	0x3f3b3169	0.7312227
37	0x3f4d9a8b	0.8031394
38	0x3e319593	0.17342214
39	0x3f2e9a9a	0.68204653
40	0x3f11c725	0.56944495
41	0x3f0ccbaa	0.54998267
42	0x3f3f118a	0.7463614
43	0x3e8e8f9e	0.27843946
44	0x3eecaed9	0.46227148
45	0x3f09a67c	0.5376966
46	0x3e75632e	0.23963615
47	0x3eef3be9	0.46725395
48	0x3e5a4850	0.21316648
49	0x3e2249fd	0.15848537
50	0x3ee897d4	0.45428336
51	0x3e3a6692	0.1820319
52	0x3f21441e	0.62994564
53	0x3e5897af	0.21151613
54	0x3ec245fe	0.37944025
55	0x3e71173f	0.23544024
56	0x3f254b72	0.64568245
57	0x3e9939d9	0.29926947
58	0x3e5de723	0.21670203
59	0x3e3ee627	0.18642484
60	0x3f27fb2f	0.6561765
61	0x3e9a6705	0.30156723
62	0x3e6691c9	0.2251655
63	0x3f2a21b7	0.66457695
64	0x3e824fc1	0.25451472
65	0x3e81b930	0.253366
66	0x3f80d353	1.0064491
67	0x3f31fb8e	0.69524467
68	0x3f2a8dbf	0.6662254
69	0x3ec3ebf3	0.38265952
70	0x3e5387b2	0.20657232
71	0x3f062ef8	0.5241542
72	0x3f2db6c2	0.6785699
73	0x3f04b3ce	0.5183686
74	0x3e8cb1c7	0.27479383
75	0x3f372ecd	0.7155579
76	0x3f0e5f74	0.556144
77	0x3e97e09a	0.29663545
78	0x3f24d84a	0.6439253
79	0x3f364453	0.71198004
80	0x3f2c00ad	0.6718853
81	0x3f3281e8	0.6972947
82	0x3e55174f	0.20809673
83	0x3f16a584	0.58846307
84	0x3e638e52	0.2222226
85	0x3f18ac4b	0.596379
86	0x3e25df87	0.1619855
87	0x3e53280b	0.20620744
88	0x3f2e4dca	0.68087447
89	0x3e8d99ca	0.27656394
90	0x3e3693a9	0.17829765
91	0x3eb0c65a	0.3452633
92	0x3e6aa70d	0.22915287
93	0x3e470c63	0.19438319
94	0x3e8b8807	0.27252218
95	0x3e3a1b11	0.18174388
96	0x3e5323f9	0.20619191
97	0x3f27be13	0.65524405
98	0x3e255ac3	0.16147904
99	0x3e45f793	0.19332723
100	0x3e541a15	0.20713075
101	0x3e9e3866	0.30902404
102	0x3f2e30fe	0.68043506
103	0x3e3c6beb	0.18400542
104	0x3f29db9b	0.66350716
105	0x3e30acdd	0.17253442
106	0x3e87314b	0.26404795
107	0x3e424dff	0.18975066
108	0x3e0dbe1b	0.1384205
109	0x3f0e02ee	0.5547322
110	0x3e3df708	0.18551266
111	0x3f41cb2e	0.7570065
112	0x3e6c9053	0.2310193
113	0x3f1469de	0.5797404
114	0x3f30b3a3	0.69024104
115	0x3f2dff28	0.6796746
116	0x3ef3d942	0.47626692
117	0x3e342d1e	0.17595336
118	0x3e373419	0.17890967
119	0x3ea29f67	0.3176224
120	0x3f3011e5	0.68777305
121	0x3eb184eb	0.3467172
122	0x3f0697a1	0.5257512
123	0x3f193cb3	0.59858245
124	0x3e2b44f1	0.16725518
125	0x3f171331	0.5901366
126	0x3e9a11fb	0.30091843
127	0x3e4f49a7	0.2024294
