results_10balls_contrast_2/simple_20250325_182018/best_model.pth (torch, 520034 bytes, 20 tensors)

conv1.weight f4 [32, 1, 5, 5]
0	0x3e3064e9	0.17225994
1	0x3e3e3735	0.18575747
2	0xbd2c5f78	-0.042083234
3	0x3e3b515b	0.18292753
4	0xbd110258	-0.035402626
5	0x3d0147f0	0.031562746
6	0xbdc2b957	-0.09508007
7	0x3db8bc6f	0.09020316
8	0x3e1a4a25	0.15067346
9	0xbe156d3c	-0.14592451
10	0x3e236cb1	0.15959431
11	0x3cba8a4d	0.022771025
12	0x3df98bc0	0.12184858
13	0x3bdfa67e	0.0068252673
14	0x3db5474f	0.08851492
15	0xbcf0a703	-0.029376512
16	0x3e0ba55c	0.13637298
17	0x3bcdc431	0.0062794914
18	0xbdd79d3b	-0.10528036
19	0x3d24b617	0.040212717
20	0xbdc637ac	-0.09678587
21	0xbd10f6f3	-0.03539176
22	0xbde390f1	-0.1111163
23	0x3ded99d1	0.11601604
24	0xbe2c5b9f	-0.16831826
25	0xbd954438	-0.07288402
26	0xbd4f2e5c	-0.05058132
27	0xbde490d5	-0.11160437
28	0x3ca358d5	0.01993982
29	0xbe426624	-0.18984276
30	0x3e48fc14	0.1962741
31	0xbe264a1f	-0.16239212
32	0x3e141838	0.14462364
33	0x3cfd29b2	0.030903671
34	0xbd73ff24	-0.059569493
35	0x3e09c634	0.13454515
36	0x3d328c71	0.043590967
37	0x3e269e73	0.16271381
38	0x3c8b97de	0.01704019
39	0xbd74cd67	-0.0597662
40	0x3d5dc866	0.054146193
41	0xbd28590e	-0.041100554
42	0x3dbbf7a3	0.09178092
43	0x3e32b63c	0.1745233
44	0x3df85bef	0.1212691
45	0xbdb69011	-0.08914197
46	0x3e01ef73	0.12688999
47	0x3d2a837a	0.041629292
48	0x3dcc352d	0.0997108
49	0xbde6b004	-0.11264041
50	0xbe54150e	-0.20711157
51	0xbdc2f1ff	-0.09518813
52	0xbe2de1fd	-0.16980739
53	0x3e1ab887	0.15109454
54	0x3d53690f	0.051613864
55	0x3d861246	0.06546454
56	0x3d448586	0.0479789
57	0xbcd17f9d	-0.025573546
58	0x3e110141	0.14160635
59	0xbe1acd59	-0.15117396
60	0xbb498fd3	-0.0030755892
61	0xbe185803	-0.14877324
62	0x3d334b66	0.043773077
63	0xbdb440b2	-0.08801402
64	0x3d4513de	0.04811465
65	0xbd6599cf	-0.056054886
66	0x3e126458	0.1429609
67	0xbe0abaae	-0.13547775
68	0xbe03d7d9	-0.12875308
69	0xbe061f19	-0.130978
70	0x3e3034c6	0.17207631
71	0x3d52a8b9	0.051430438
72	0x3e3326e8	0.1749531
73	0xbe2f6c51	-0.17131163
74	0xbe50608a	-0.20349327
75	0xbe1a8d73	-0.15093021
76	0xbe00543b	-0.12532131
77	0x3da0fecc	0.07861099
78	0x3d9b257e	0.075755104
79	0x3e3b56e7	0.1829487
80	0xbdd982bf	-0.10620641
81	0xbe0e8e02	-0.13921359
82	0x3dcf407a	0.1011972
83	0xbd9acecf	-0.07558977
84	0x3e03af04	0.12859732
85	0xbd4a84ed	-0.049443174
86	0x3dc7f2d9	0.097631164
87	0xbe25c3d5	-0.16187985
88	0xbdc7ebf6	-0.09761803
89	0x3d7737da	0.060356
90	0x3d0c7883	0.034294616
91	0xbd8b97f7	-0.06816094
92	0x3dd126e1	0.10212494
93	0x3e030594	0.12795097
94	0xbe13b2bf	-0.14423655
95	0xbdf0d52a	-0.11759408
96	0x3e25043f	0.16114901
97	0xbdb1c14e	-0.08679448
98	0xbdb4c6f5	-0.088270105
99	0xbe464d62	-0.19365457
100	0xbe0e62a8	-0.13904822
101	0xbae13e60	-0.0017184727
102	0xbc7d2a81	-0.015452028
103	0xbd9ee485	-0.077584304
104	0xbd00226b	-0.031282824
105	0xbe321b90	-0.17393327
106	0xbdbfac2c	-0.09359011
107	0xbcdb347c	-0.026758425
108	0xbda65612	-0.08121885
109	0xbd5cc6d1	-0.053900544
110	0x3e35db6a	0.17759481
111	0xb9a443b0	-0.0003133095
112	0x3d6fd03f	0.05854821
113	0xbdb61bb5	-0.088920034
114	0xbd4c21fd	-0.0498371
115	0xbd8b5712	-0.06803717
116	0x3cdeadae	0.027182426
117	0xbdf856be	-0.1212592
118	0xbc199054	-0.009372789
119	0xbd4da73c	-0.050208315
120	0xbbc786e7	-0.0060890797
121	0xbd88869c	-0.066663
122	0xbbb5d329	-0.005548854
123	0xbda399d0	-0.07988322
124	0xbdd188ed	-0.10231195
125	0xbdf2f94c	-0.11863956
126	0xbd9b1228	-0.075718224
127	0xbe289cc7	-0.16466056
128	0x3e239831	0.15976025
129	0xbd4a8c2b	-0.04945008
130	0x3e261a01	0.16220857
131	0x3d53d86a	0.05172006
132	0xbe352332	-0.17689207
133	0x3e03af2c	0.12859792
134	0xbd81e796	-0.06343
135	0xbdae7975	-0.0851926
136	0xbe32170a	-0.17391601
137	0xbe52cd54	-0.20586139
138	0x3d5136cb	0.051077645
139	0xbd52caa3	-0.05146278
140	0x3d7de689	0.061987434
141	0xbe34e5b2	-0.17665747
142	0x3e08512b	0.13312213
143	0xbe1fc5c6	-0.15602788
144	0xbd311e04	-0.043241516
145	0x3d25410a	0.04034523
146	0x3dbe871b	0.09303113
147	0x3e19471d	0.14968534
148	0x3e2b485d	0.16726823
149	0xbe2e8bc4	-0.17045504
150	0x3d24e9b2	0.04026193
151	0xbdc3e415	-0.095649876
152	0xbd1412a8	-0.036150604
153	0xbe1cf75b	-0.15328734
154	0x3e306d88	0.17229283
155	0xbe1b735e	-0.15180728
156	0x3dc79e4a	0.09746988
157	0x3d648630	0.055792034
158	0x3d50153b	0.050801497
159	0xbdf4460b	-0.11927422
160	0x3e2d7d77	0.16942392
161	0x3ce233bd	0.027612561
162	0x3c6502db	0.013977732
163	0xbe4078d6	-0.18796095
164	0x3d8ee132	0.06976546
165	0xbd361986	-0.044457935
166	0xbdd537b6	-0.10411017
167	0x3e175c12	0.14781216
168	0x3cdbf121	0.026848378
169	0xbdff4593	-0.12464442
170	0xbdee1f1c	-0.116270274
171	0xbcfe2d63	-0.031027501
172	0x3db4880f	0.088150136
173	0xbd95aeb2	-0.07308711
174	0xbe021d90	-0.1270659
175	0xbd88c01b	-0.06677266
176	0xbe111272	-0.14167193
177	0x3d8248d9	0.06361551
178	0x3e194dc0	0.14971066
179	0xbe38c66c	-0.18044442
180	0x3d5f0e3c	0.054456934
181	0x3dd295bb	0.10282465
182	0x3cfd8c80	0.030950785
183	0xbd9f9536	-0.077921316
184	0x3ddf148f	0.10892593
185	0x3df57865	0.11985854
186	0x3d9bb13b	0.076021634
187	0xbd0d3fae	-0.034484558
188	0xbd2e2cbd	-0.042523134
189	0x3d0e7b3d	0.034785498
190	0xbc577fb7	-0.013153008
191	0xbd62b4eb	-0.055348318
192	0x3e0da96a	0.13834158
193	0x3e327518	0.1742748
194	0xbc5600f3	-0.01306175
195	0xbce8d3d3	-0.028421318
196	0x3c83015f	0.015991865
197	0xbbda5da7	-0.0066639963
198	0x3d498235	0.04919644
199	0x3d5d1e70	0.053984106
200	0xbe421145	-0.189519
201	0xbda86492	-0.08222307
202	0x3e1a8451	0.15089537
203	0x3d98db6d	0.07463727
204	0xbc52d05b	-0.012867059
205	0xbe03ee41	-0.12883855
206	0xbe06715d	-0.13129182
207	0xbe2f8995	-0.17142327
208	0xbd8f358a	-0.06992634
209	0x3d8655b3	0.065593146
210	0x3ded951f	0.11600708
211	0x3d904f48	0.07046372
212	0xbe2d9869	-0.16952671
213	0xbdf9f0e9	-0.12204153
214	0xbd1856a9	-0.03719202
215	0x3e3560f9	0.17712773
216	0x3c6afbb1	0.0143422345
217	0xbd7144fd	-0.058903683
218	0x3d88fc76	0.06688778
219	0xbda55391	-0.0807258
220	0xbe0d3c71	-0.13792588
221	0x3e056e31	0.13030316
222	0xbdd26fe4	-0.10275248
223	0xbd4c242d	-0.049839187
224	0xbe4609c3	-0.19339661
225	0x3e10a2de	0.14124629
226	0x3e1c1dd3	0.15245752
227	0x3d8c3160	0.06845355
228	0xbe119215	-0.14215882
229	0xbe5040a4	-0.20337158
230	0xbe287291	-0.16449954
231	0x3e0c1452	0.13679627
232	0x3db32b36	0.08748476
233	0x3e210c8f	0.15727447
234	0x3dbb684a	0.09150751
235	0x3d40f7f5	0.04711147
236	0xbc468b9c	-0.012118246
237	0xbe1fd8c6	-0.15610036
238	0xbe2df988	-0.1698972
239	0xbe43ab1a	-0.19108239
240	0x3d97b030	0.07406652
241	0xbdbbad4f	-0.09163915
242	0xbd32594e	-0.0435422
243	0xbdeeb136	-0.11654894
244	0xbd30344d	-0.043018628
245	0xbe0da6dd	-0.13833185
246	0xbe06d6d4	-0.13167888
247	0x3d5ea12f	0.054352935
248	0xbd84eff9	-0.06491084
249	0x3de71b32	0.11284484
250	0xbd8e2a7e	-0.069416985
251	0xbe1c2923	-0.15250067
252	0xbd409e86	-0.04702618
253	0xbdc96887	-0.0983439
254	0xbd80ce2b	-0.062893234
255	0xbe4d464f	-0.20046352

conv1.bias f4 [32]
0	0x38420f9e	4.626775e-05
1	0x3bcc7f7e	0.006240784
2	0xbda996a5	-0.08280686
3	0x3cee6434	0.029100515
4	0xbac58542	-0.0015069621
5	0xbd71e815	-0.05905922
6	0xbac5f86d	-0.0015103944
7	0x3c85ded5	0.016341606
8	0x3d9f4935	0.07777635
9	0xbd0d0d54	-0.03443654
10	0xbc8a38fe	-0.01687288
11	0x39823de7	0.00024841653
12	0xb8940fd7	-7.06014e-05
13	0x3bd59aa2	0.006518678
14	0x3ccf7824	0.025325842
15	0xb9a0255f	-0.00030545422
16	0x3cd08b12	0.025456939
17	0x3d629edc	0.05532728
18	0x3905549c	0.00012715388
19	0x3d4fc8d9	0.050728653
20	0x3c89aa1c	0.016804747
21	0x3da59cc7	0.080865435
22	0xbce47138	-0.027886018
23	0xbc92ef91	-0.0179365
24	0x39a9b11d	0.00032366152
25	0x3b24b727	0.0025133581
26	0x3d061da9	0.03274313
27	0xbce81e8d	-0.02833488
28	0x3c96b784	0.018398054
29	0xbb4c55a8	-0.0031178985
30	0x3d0871d6	0.033311687
31	0xba8bc56e	-0.0010663697

bn1.weight f4 [32]
0	0x3f7269fd	0.94692975
1	0x3f75d07b	0.9602124
2	0x3f760ab5	0.9611009
3	0x3f78cafd	0.97184736
4	0x3f806ff3	1.0034164
5	0x3f775a5d	0.9662226
6	0x3f74a5b2	0.9556533
7	0x3f778ba2	0.9669744
8	0x3f71ef1a	0.94505465
9	0x3f75645f	0.9585628
10	0x3f776ea8	0.96653223
11	0x3f838359	1.0274459
12	0x3f7263ea	0.94683707
13	0x3f80010d	1.0000321
14	0x3f7aee9b	0.98020333
15	0x3f7c0be9	0.98455673
16	0x3f766ae3	0.96256846
17	0x3f7acb97	0.97966903
18	0x3f75643a	0.9585606
19	0x3f76fbd6	0.9647802
20	0x3f79ea80	0.97623444
21	0x3f757052	0.9587451
22	0x3f6feab4	0.93717504
23	0x3f74db8b	0.95647496
24	0x3f7c9bc8	0.98675203
25	0x3f7ed1fd	0.99539167
26	0x3f73adfd	0.9518736
27	0x3f73c638	0.9522433
28	0x3f77204f	0.96533674
29	0x3f787414	0.9705212
30	0x3f76d8d0	0.9642458
31	0x3f79365c	0.9734857

bn1.bias f4 [32]
0	0x3dc6dec7	0.0971046
1	0x3da02961	0.078203924
2	0xbc5b7244	-0.013393942
3	0x3d92531a	0.071447566
4	0x3ddefed3	0.108884476
5	0x3d9114f0	0.07084072
6	0x3d4df7b8	0.05028507
7	0x3da0fde8	0.07860929
8	0x3d94bdc1	0.07262755
9	0x3d01ec4b	0.031719487
10	0x3d708de3	0.058729064
11	0x3deafbdf	0.11473822
12	0x3daf02a9	0.08545429
13	0x3dded475	0.10880367
14	0xbcf928b1	-0.030414911
15	0x3db1e0bc	0.08685443
16	0x3db765e6	0.089549825
17	0x3d93cb24	0.072164804
18	0x3d1c2cbb	0.038128596
19	0x3d9869e8	0.07442075
20	0xbc8527b2	-0.01625428
21	0x3d9bc314	0.076055676
22	0x3db0f9ec	0.08641419
23	0x3da385b8	0.07984489
24	0x3da8f52c	0.08249888
25	0x3ddc5665	0.10758666
26	0x3dbac633	0.09119835
27	0x3da16597	0.07880705
28	0x3d79afbe	0.060958616
29	0x3d772238	0.060335368
30	0x3b0b557e	0.0021260674
31	0x3d8e55b4	0.0694994

bn1.running_mean f4 [32]
0	0x3b33729e	0.002738155
1	0x3c34db63	0.011038634
2	0xbdbd211e	-0.09234832
3	0x3d06abe9	0.03287879
4	0xbbe660d6	-0.0070305867
5	0xbd8a7c9d	-0.06762049
6	0xbb18f282	-0.0023337905
7	0x3cb86985	0.022511253
8	0x3da739d8	0.0816533
9	0xbd2bef5c	-0.041976318
10	0xbcb7a211	-0.022416146
11	0xbb6dac86	-0.0036266162
12	0x3b33a440	0.0027411133
13	0x3b88a48e	0.004170007
14	0x3cef219a	0.029190827
15	0xbab5b461	-0.0013862961
16	0x3ced4900	0.028965473
17	0x3d76eac9	0.060282502
18	0xba9915f1	-0.0011679513
19	0x3d6899fa	0.05678747
20	0x3ca26cfa	0.019827355
21	0x3db2e704	0.08735469
22	0xbd12570e	-0.035727553
23	0xbcc415c0	-0.023936152
24	0xbb00d274	-0.001965669
25	0xbb82f702	-0.003996731
26	0x3d27b7b8	0.040946692
27	0xbd077f80	-0.033080578
28	0x3caf3748	0.021388665
29	0xbbdc9e6c	-0.0067327525
30	0x3d194ffc	0.037429795
31	0xba880d2c	-0.0010379902

bn1.running_var f4 [32]
0	0x3a736698	0.0009285002
1	0x3a25ca81	0.0006324426
2	0x3a3f8ddd	0.0007307211
3	0x39e8d58c	0.00044409593
4	0x3ae6350c	0.0017563417
5	0x3a0e15f8	0.0005420144
6	0x398d3aa9	0.0002693732
7	0x39f39fee	0.0004646773
8	0x3a9c08d8	0.0011904491
9	0x3a20045b	0.00061041646
10	0x39b98d8d	0.00035391413
11	0x3a53e0a0	0.0008082483
12	0x3a6cd782	0.0009034799
13	0x3b098622	0.002098449
14	0x39ed94e5	0.00045315098
15	0x39988ec0	0.00029098056
16	0x3a0ee7e3	0.0005451424
17	0x39c2a96d	0.00037128796
18	0x398cf5aa	0.00026885915
19	0x39572af8	0.00020520005
20	0x39d7712d	0.00041092318
21	0x39dc87b4	0.00042062777
22	0x3a89714e	0.0010486038
23	0x39b36555	0.0003421704
24	0x39f04487	0.00045827424
25	0x3a5f30dd	0.0008514056
26	0x3a43c579	0.00074680854
27	0x3a16e710	0.0005756477
28	0x39df0660	0.00042538624
29	0x39d2cb34	0.0004020572
30	0x39f105d1	0.00045971436
31	0x39c2b9cc	0.00037140993

conv2.weight f4 [64, 32, 5, 5]
0	0xbc8556a3	-0.016276663
1	0xbc2be792	-0.010492222
2	0xbcdce293	-0.026963508
3	0x3c0e9bb3	0.008704114
4	0xbcc3e8a8	-0.02391465
5	0xbab822d0	-0.0014048461
6	0x3bf7ebe0	0.0075659603
7	0xbceb5f09	-0.02873184
8	0xb98e4884	-0.0002713838
9	0xbd363bf9	-0.044490788
10	0xbcc3b43a	-0.02388965
11	0xbd172959	-0.036904667
12	0xbca9f2c8	-0.02074565
13	0xbcbb4314	-0.022859134
14	0xbb522cf0	-0.0032070242
15	0xbc1b8271	-0.009491549
16	0x3c4646ac	0.01210181
17	0x3cd9856e	0.026552882
18	0x3b44b32d	0.0030014024
19	0xbcc014dc	-0.023447447
20	0xbd1b0017	-0.037841883
21	0x3b962d5c	0.004583044
22	0xbca4e3c8	-0.020128146
23	0x3c2597a5	0.010106956
24	0x3c83bfc9	0.016082661
25	0x3c561e78	0.013068788
26	0x3cfdf510	0.031000644
27	0x3cafcb8b	0.021459362
28	0xbba79bca	-0.005115007
29	0xbd1baccd	-0.038006593
30	0x3ce13408	0.02749063
31	0xbcabafb0	-0.020957798
32	0xbcde2ff1	-0.02712247
33	0x3c8ccb9d	0.017186934
34	0x3c9dcc39	0.01926242
35	0x3b9784b9	0.004623976
36	0xbb1a5c79	-0.0023553653
37	0xbd00f001	-0.031478886
38	0xbc4fa57b	-0.012673731
39	0x3ce13371	0.02749035
40	0x3bc680e7	0.006057847
41	0xbbfb199b	-0.0076629645
42	0xbc23e271	-0.010002718
43	0xbca3ad5d	-0.019980127
44	0x3c098a0b	0.008394728
45	0xbbda58b1	-0.006663405
46	0x3c5b68f9	0.013391727
47	0xbc553187	-0.0130122965
48	0x3c0b1d25	0.008490835
49	0x3c1ca939	0.00956183
50	0x3c499afe	0.012305019
51	0x3ccf0a1c	0.025273375
52	0x3c8ec986	0.017430078
53	0x3cd4f960	0.025997818
54	0x3d0ace09	0.033887897
55	0xbb58fd20	-0.0033109859
56	0xbd0f0cf9	-0.03492448
57	0x3b83113e	0.003999858
58	0xbbb05fa7	-0.0053824964
59	0xbc57dc14	-0.013175029
60	0xbc826c19	-0.015920686
61	0xba2fcf40	-0.0006706603
62	0x3cabf72c	0.020991884
63	0x3c5b3bf9	0.013380998
64	0xbc59624c	-0.013268065
65	0xbc8f0d8d	-0.017462516
66	0xbc9b9264	-0.018990703
67	0xbccc9d97	-0.024977488
68	0x3cd42c72	0.0259001
69	0x3cb73552	0.022364292
70	0x3cf5de6d	0.030013287
71	0x3a234cc3	0.0006229395
72	0x3ad8c855	0.0016539196
73	0x3b52dfc1	0.0032176825
74	0xbcf8fc50	-0.03039375
75	0x3c16625e	0.009178726
76	0xbc2398ef	-0.009985193
77	0xbd1ab503	-0.037770282
78	0xbcf06fb9	-0.029350149
79	0x3d7ca542	0.06168104
80	0x3cf6ddf4	0.030135132
81	0x3c30c979	0.010790222
82	0x3ca0e35d	0.019639665
83	0xbcedf12d	-0.029045666
84	0xb9197f6a	-0.00014638682
85	0x3bd6f389	0.0065597934
86	0xbcb0028e	-0.021485593
87	0xbc65e651	-0.0140319625
88	0xbd24313e	-0.040086024
89	0x3cc5a804	0.024127968
90	0xbce1a12a	-0.02754267
91	0xbc4aa4a3	-0.012368354
92	0x3c81109f	0.015754996
93	0xbc93b1d0	-0.018029124
94	0x3c29d6f2	0.010366188
95	0x3c82640e	0.01591685
96	0xbcacd292	-0.021096501
97	0xbbdd44be	-0.0067525795
98	0x3c9d6cf9	0.019217001
99	0xbc1d77ec	-0.009611111
100	0xbd90fd25	-0.070795335
101	0xbdaaffdb	-0.08349582
102	0xbda06039	-0.07830853
103	0xbdba7522	-0.091043726
104	0xbdd71221	-0.10501505
105	0xbce3fb7c	-0.027829878
106	0xbd6cdcc6	-0.057827733
107	0xbd9b9946	-0.07597594
108	0xbdcb5694	-0.09928623
109	0xbdbcb58e	-0.09214316
110	0xbd292c56	-0.041302048
111	0xbc9c645c	-0.019090824
112	0xbcb4a4d9	-0.022051262
113	0xbd10ca9b	-0.03534947
114	0xbda74c3c	-0.081688374
115	0xbd513808	-0.051078826
116	0xbd970749	-0.073744364
117	0xbd01fbb8	-0.0317342
118	0xbda7f52f	-0.08201062
119	0xbd9b48df	-0.075822584
120	0xbca4a3b3	-0.02009759
121	0xbcb2cb49	-0.02182545
122	0xbceb9d30	-0.028761476
123	0xbdc7440b	-0.09729775
124	0xbdc120b5	-0.094300665
125	0xbc7dedd6	-0.015498599
126	0x3cce41f2	0.02517793
127	0xbc2e3441	-0.0106325755
128	0xbd2b6e7c	-0.041853413
129	0x3b2328fe	0.002489626
130	0xbcc27f8e	-0.023742463
131	0xbc836b12	-0.016042266
132	0xbcb699f3	-0.022290206
133	0x3c86af2e	0.016440954
134	0x3b72db58	0.0037057009
135	0xbc204029	-0.009780922
136	0x3b659ca8	0.0035036001
137	0xbc567876	-0.013090244
138	0x3c59f86a	0.013303855
139	0x3c0ed743	0.008718315
140	0x3bd21184	0.0064107794
141	0xbcf1127c	-0.02942776
142	0x3cafc5cf	0.021456627
143	0xbbfb9630	-0.007677816
144	0xbc83a2bd	-0.01606881
145	0x3c7ff4ca	0.015622327
146	0x3cce1b30	0.025159448
147	0x3cf37711	0.029719861
148	0x3c25a8e3	0.0101110665
149	0xba96768b	-0.001147942
150	0x3cd10bb2	0.025518272
151	0x3d085dcf	0.033292588
152	0xbcf50b85	-0.02991272
153	0xbaebe88d	-0.0017998383
154	0xbc3fbefe	-0.011703251
155	0x3c660ba7	0.014040864
156	0x3ca7ab89	0.020467537
157	0xbbded962	-0.0068008164
158	0xbbf3a4fa	-0.007435438
159	0x3cb50a9d	0.022099787
160	0xbb6d60e8	-0.003622109
161	0xbd0b81a8	-0.034059197
162	0x3d07c47b	0.033146363
163	0xbca5634a	-0.020188946
164	0xbb7da430	-0.00387026
165	0xbb9688fb	-0.004593966
166	0xbc965115	-0.01834921
167	0xbd0d9981	-0.03457022
168	0x3be59b38	0.007007029
169	0xbc86d882	-0.01646066
170	0xbcf0eae4	-0.02940888
171	0xbb41d257	-0.0029574835
172	0xbd0d4ba0	-0.03449595
173	0xbcdc12bc	-0.026864402
174	0xbc150a3c	-0.009096678
175	0xbc180ef3	-0.009280908
176	0xbc8616ee	-0.016368356
177	0xbc9e0d0b	-0.019293329
178	0xbb962f41	-0.00458327
179	0xbcecfb64	-0.028928466
180	0xbcc61916	-0.024181884
181	0xbbd3e563	-0.006466554
182	0xbc2229f9	-0.009897702
183	0x3c043522	0.0080693085
184	0xbcf6831f	-0.03009182
185	0x3bf1c21f	0.0073778774
186	0x3c8499dd	0.016186649
187	0x3c4398d8	0.011938296
188	0xbd2d0b43	-0.042247068
189	0xbc739c82	-0.014868857
190	0xbd0adae7	-0.033900168
191	0xbce0b8ee	-0.027431931
192	0x3c8fa2d4	0.017533697
193	0xbc806de9	-0.01567741
194	0x3bd24b21	0.0064176475
195	0xbd03f810	-0.032218993
196	0xba0998c9	-0.0005248902
197	0xbcd0b6c2	-0.02547777
198	0x3bd703e9	0.0065617454
199	0xbcc13209	-0.023583429
200	0xbbbea60b	-0.0058181337
201	0xbd0f5fd7	-0.03500351
202	0xbc651b3c	-0.013983544
203	0x3bfb6dc1	0.007672996
204	0x3ca2422a	0.01980694
205	0xbc6693e6	-0.014073348
206	0xbc49f1a3	-0.012325677
207	0xbc8ae1de	-0.016953405
208	0xbd517fbd	-0.05114721
209	0x3c971258	0.018441364
210	0xbc06b162	-0.008221002
211	0x3b5f69b3	0.0034090101
212	0xbc817598	-0.015803143
213	0xbccd3749	-0.025050776
214	0x3bd3ed60	0.0064675063
215	0x3bdcede0	0.006742224
216	0xbbe3b780	-0.006949365
217	0xbd0be73f	-0.03415608
218	0x3ca4628d	0.020066524
219	0xbbf1fc55	-0.0073848167
220	0xbcf0f791	-0.029414924
221	0xbce2acd8	-0.027670309
222	0x3c83cb4a	0.016088147
223	0xbc8a8869	-0.016910749
224	0xbc317986	-0.010832196
225	0x3c04f07e	0.008113978
226	0xbaf9861a	-0.0019037158
227	0xbc98bdd1	-0.018645199
228	0xbd02396a	-0.031793036
229	0x3cc1e0d7	0.023666782
230	0x3d05627b	0.03256462
231	0x3d34f2e2	0.044176944
232	0xbd02167e	-0.03175973
233	0x3ba90b3f	0.0051588113
234	0xbd083382	-0.033252247
235	0x3ce4a5ea	0.027911145
236	0x3ce3d415	0.02781109
237	0x3cb4db46	0.022077214
238	0x3c766fe3	0.015041324
239	0x3c4fe73a	0.012689406
240	0xbb8b4491	-0.004250117
241	0x3c2b98ab	0.010473411
242	0xbca71a99	-0.020398425
243	0xbc0446a2	-0.008073481
244	0xbcdea74f	-0.027179388
245	0xbc7f161e	-0.015569238
246	0xbcfbf36a	-0.030755717
247	0xbc4cd17c	-0.012501117
248	0xbcc3ba9a	-0.02389269
249	0xbcb58601	-0.022158625
250	0xbcac2c32	-0.021017168
251	0xbd26d423	-0.040729653
252	0xbc12cb41	-0.008959592
253	0x3c360083	0.01110852
254	0x3d1813b4	0.037128165
255	0x3cd6df62	0.026229564

conv2.bias f4 [64]
0	0x38c7e33c	9.531385e-05
1	0xb88e8ce6	-6.797332e-05
2	0x38026e52	3.109716e-05
3	0x3830c73f	4.2147232e-05
4	0x387f5c35	6.0882612e-05
5	0x3862b1dc	5.4048243e-05
6	0xb7db3cfb	-2.613523e-05
7	0xb7358303	-1.0818944e-05
8	0x37cc3591	2.4343639e-05
9	0xb8769777	-5.8792033e-05
10	0x37e8bfdc	2.7745897e-05
11	0x36ed7d78	7.077757e-06
12	0xb6e9c170	-6.96646e-06
13	0xb622b131	-2.424302e-06
14	0x38320df7	4.2451513e-05
15	0xb7c120c8	-2.3022658e-05
16	0x389ae272	7.385471e-05
17	0xb8301084	-4.197705e-05
18	0xb7f6fe4e	-2.9443905e-05
19	0x376d9a30	1.41622e-05
20	0xb70202ab	-7.749225e-06
21	0x3899cdf7	7.3339725e-05
22	0xb890e4a3	-6.909042e-05
23	0xb69bc0b2	-4.6417927e-06
24	0x38bbf075	8.9616435e-05
25	0x38baf45c	8.9146866e-05
26	0xb913d310	-0.0001409764
27	0x38c5a2ea	9.424037e-05
28	0xb811a171	-3.4721048e-05
29	0xb5d69b6d	-1.5989477e-06
30	0x37ce4704	2.4590183e-05
31	0x382940e9	4.0353192e-05
32	0x38720f03	5.7711277e-05
33	0xb85e7b37	-5.3043677e-05
34	0xb9203c82	-0.0001528133
35	0xb7653ba0	-1.3663346e-05
36	0x376c4d8a	1.408475e-05
37	0xb7109cfa	-8.619618e-06
38	0x37bb86e7	2.2354956e-05
39	0x38dcb095	0.000105233084
40	0xb8b83a8e	-8.7847104e-05
41	0x37b9a3c2	2.2129974e-05
42	0xb79c5dbd	-1.86403e-05
43	0x35941ec7	1.1035817e-06
44	0xb74ffb88	-1.2396726e-05
45	0x37b3d02e	2.1435404e-05
46	0xb70b347d	-8.2972665e-06
47	0xb88ce50b	-6.718383e-05
48	0xb79af74c	-1.8473387e-05
49	0x372d6916	1.0336071e-05
50	0xb8877cea	-6.460569e-05
51	0x380922dd	3.2695814e-05
52	0xb4d2d303	-3.926908e-07
53	0x38497d67	4.8038924e-05
54	0x38d1a272	9.9961544e-05
55	0xb74a24d0	-1.2048709e-05
56	0x367bc377	3.751569e-06
57	0xb5f830e5	-1.849167e-06
58	0x38843201	6.3035644e-05
59	0x381aaf46	3.6879697e-05
60	0x37b321c0	2.1354179e-05
61	0x3815c416	3.5706988e-05
62	0xb6f969d5	-7.4330987e-06
63	0xb8540d46	-5.05571e-05

bn2.weight f4 [64]
0	0x3f80e495	1.0069758
1	0x3f6fb463	0.93634623
2	0x3f7d0571	0.9883643
3	0x3f7d48ef	0.9893941
4	0x3f795361	0.9739285
5	0x3f75e1cd	0.9604767
6	0x3f7f21a8	0.9966073
7	0x3f79d195	0.9758542
8	0x3f810661	1.0080072
9	0x3f78e61d	0.97226125
10	0x3f7b5518	0.9817672
11	0x3f743627	0.9539513
12	0x3f7f5d14	0.997514
13	0x3f70fe66	0.9413818
14	0x3f70f531	0.9412413
15	0x3f79c391	0.97564036
16	0x3f7880bd	0.9707144
17	0x3f7d6c91	0.98993784
18	0x3f7ec697	0.99521774
19	0x3f7a7896	0.9784025
20	0x3f7a8ed2	0.97874177
21	0x3f79d98b	0.9759757
22	0x3f87d3a3	1.0611461
23	0x3f82001d	1.0156285
24	0x3f7c58af	0.9857282
25	0x3f7b14e2	0.9807874
26	0x3f74a156	0.9555868
27	0x3f7c1276	0.9846567
28	0x3f82b4b7	1.02114
29	0x3f7864c5	0.9702876
30	0x3f7cb049	0.9870649
31	0x3f7ce1d0	0.9878206
32	0x3f7b3e85	0.9814227
33	0x3f7e2b5c	0.9928491
34	0x3f825502	1.0182192
35	0x3f7c4ed6	0.98557794
36	0x3f8163ab	1.0108541
37	0x3f82b19b	1.0210451
38	0x3f7c2bce	0.9850434
39	0x3f797b38	0.9745364
40	0x3f800f3e	1.0004652
41	0x3f7a84db	0.9785897
42	0x3f79c399	0.97564083
43	0x3f772f1a	0.96556246
44	0x3f7ca098	0.98682547
45	0x3f7c1ac7	0.9847836
46	0x3f7ffa61	0.9999142
47	0x3f7feb21	0.99968153
48	0x3f7b9971	0.9828101
49	0x3f793bc1	0.973568
50	0x3f7e7e19	0.9941116
51	0x3f7d4be7	0.9894394
52	0x3f7b392f	0.9813413
53	0x3f803eb8	1.001914
54	0x3f7ce7a8	0.9879098
55	0x3f7d348c	0.98908305
56	0x3f81f766	1.0153625
57	0x3f75c9e2	0.96011174
58	0x3f83f5c5	1.0309378
59	0x3f78e981	0.972313
60	0x3f7fa5da	0.99862444
61	0x3f77ab30	0.96745586
62	0x3f6e3596	0.93050516
63	0x3f7158e3	0.94276255

bn2.bias f4 [64]
0	0x3d5984f8	0.053105325
1	0xbd04a1ba	-0.032380797
2	0x3d4374ed	0.04771893
3	0x3d76002a	0.06005875
4	0x3d0ea034	0.03482075
5	0x3bace730	0.005276583
6	0x3d8f88fc	0.070085496
7	0x3d108721	0.03528512
8	0x3d5c5ece	0.05380135
9	0x3d2b0e98	0.041761965
10	0x3d58f9d1	0.05297262
11	0x3d1f02cf	0.038821038
12	0x3d746707	0.059668567
13	0x3c2aa8f9	0.010416263
14	0x3d3edfb5	0.046600062
15	0x3d88341d	0.06650565
16	0x3c443199	0.011974716
17	0x3d5153c7	0.051105287
18	0x3d362668	0.04447022
19	0x3d15e78f	0.036597785
20	0x3d3058bb	0.04305337
21	0x3d2792ff	0.04091167
22	0x3dc37eee	0.09545694
23	0x3d73ba9e	0.059504144
24	0x3d3064bf	0.04306483
25	0x3d202212	0.039094992
26	0x3cd780b8	0.026306495
27	0x3d4721c7	0.048616197
28	0x3d7809b1	0.060556117
29	0x3d154168	0.03643933
30	0x3d1983ad	0.03747909
31	0x3cd7e0d1	0.026352318
32	0x3d4c8f43	0.049941313
33	0x3d842c6a	0.06453784
34	0x3da6ae88	0.08138758
35	0x3d6f93a2	0.058490403
36	0x3d992c5a	0.074791625
37	0x3d97012e	0.07373272
38	0x3cec4bb3	0.02884469
39	0x3d02afc1	0.031905893
40	0x3d702ba8	0.058635384
41	0x3cde1172	0.027107928
42	0x3d057da0	0.03259051
43	0x3d0ad44f	0.03389388
44	0x3d289842	0.04116083
45	0x3cfd750e	0.030939605
46	0x3d5385ee	0.051641397
47	0x3d172e43	0.036909353
48	0x3d7120dc	0.058869228
49	0x3c802424	0.015642233
50	0x3d30f736	0.04320451
51	0x3d5a99ee	0.053369455
52	0x3d3e4ae9	0.04645816
53	0x3d2e8042	0.042602785
54	0x3d1237e8	0.035697848
55	0x3d766cc3	0.060162317
56	0x3d79fe34	0.061033443
57	0x3d23f5d6	0.04002937
58	0x3db84133	0.08996811
59	0x3b34d0f6	0.002759037
60	0x3d98a256	0.07452838
61	0x3cf06469	0.029344754
62	0x3da98ee0	0.08279204
63	0x3d2ef7f9	0.042716954

bn2.running_mean f4 [64]
0	0xbfa2e709	-1.2726756
1	0x3ec2d72f	0.38054797
2	0xbf85e883	-1.0461582
3	0xbf631863	-0.88709086
4	0xbf656a2f	-0.8961515
5	0xbfbb4266	-1.4629638
6	0xbfbc6be9	-1.4720432
7	0xbf7d9c55	-0.9906667
8	0xbf8838a5	-1.0642287
9	0xbf5b2035	-0.8559602
10	0xbf51757e	-0.81819904
11	0xbe3384b2	-0.17531088
12	0xbf89e721	-1.077366
13	0x3f0298e9	0.5101457
14	0xbdd1de49	-0.10247476
15	0xbf57fe56	-0.8437246
16	0xbf0b37db	-0.54382104
17	0xbf787e84	-0.9706805
18	0xbf4714ea	-0.7776629
19	0xbf80ff27	-1.0077866
20	0xbf82d810	-1.0222187
21	0xbfa288df	-1.269802
22	0xbd55344d	-0.05205183
23	0xbfd48ff5	-1.6606432
24	0xbf8ede6c	-1.1161628
25	0xbfc15b5b	-1.5106004
26	0xbeb8b5de	-0.36076254
27	0xbfc63269	-1.5484134
28	0xbfa3ecfc	-1.2806697
29	0xbfb94e3f	-1.4477004
30	0xbf05ccbe	-0.52265537
31	0xbf2eb999	-0.6825195
32	0xbf5230bb	-0.82105607
33	0xbf123e8f	-0.57126707
34	0xbf81d687	-1.0143594
35	0xbf742f86	-0.95385015
36	0xbfc2fe04	-1.523377
37	0xbf04274c	-0.5162246
38	0xbfa38b25	-1.2776839
39	0xbf5ff055	-0.8747609
40	0xbf792acc	-0.9733093
41	0xbf7d253b	-0.98884934
42	0xbf9c1f45	-1.2197043
43	0xbf234bcd	-0.6378754
44	0xbf1ed22f	-0.62039465
45	0xbfaaf9d3	-1.335749
46	0xbfbcd20e	-1.4751604
47	0xbf448169	-0.76759964
48	0xbfb6bdb3	-1.4276642
49	0xbf9c3757	-1.2204388
50	0xbe7e02c3	-0.24805741
51	0xbf3fa66c	-0.74863315
52	0xbfac1feb	-1.344724
53	0xbf537879	-0.826057
54	0xbfa08e74	-1.2543473
55	0xbf5484c6	-0.83015096
56	0xbfa9618b	-1.3232893
57	0xbf256a58	-0.6461539
58	0xbf81d9c4	-1.0144582
59	0xbf8b4e44	-1.088326
60	0xbfbe3f65	-1.4863096
61	0xbf86bc75	-1.0526263
62	0xbddd3c10	-0.10802472
63	0xbec6d6e3	-0.3883582

bn2.running_var f4 [64]
0	0x3f96ab60	1.177105
1	0x3fac91d6	1.3482006
2	0x3fde92ff	1.738861
3	0x3fbfa6e2	1.4972804
4	0x3f5bcdce	0.8586091
5	0x3fdd8992	1.7307608
6	0x3f97abda	1.184932
7	0x3ff24e7a	1.8930199
8	0x3f00a726	0.5025505
9	0x3fc08711	1.5041219
10	0x3f3c7e57	0.7363028
11	0x3f799ec3	0.97507876
12	0x3f42f04c	0.76147914
13	0x3fc2ef3b	1.5229257
14	0x3fc430de	1.5327413
15	0x3f512c59	0.81708294
16	0x3fad21fe	1.3525999
17	0x3f6825ee	0.90682876
18	0x3f1cfa02	0.6131898
19	0x3fbc1551	1.4694005
20	0x3fc34296	1.5254695
21	0x3f8ec135	1.1152712
22	0x3f77d6c1	0.96812063
23	0x3f39b2ee	0.7253865
24	0x3f3a5fcf	0.7280244
25	0x3f4f6dce	0.81026924
26	0x3fcbe900	1.5930481
27	0x3f310fcd	0.69164735
28	0x3f3fd57b	0.7493512
29	0x400d0986	2.2037063
30	0x3ffdef43	1.9838642
31	0x3fb20f14	1.3910851
32	0x3f7efd1a	0.9960495
33	0x3f61c9c7	0.8819851
34	0x3fe29ab2	1.7703459
35	0x400fd0c4	2.247117
36	0x3f6b7cbd	0.9198721
37	0x3f1caa66	0.6119751
38	0x3fad08c0	1.3518295
39	0x3f690e73	0.9103767
40	0x3f0410d6	0.5158819
41	0x3fdffe88	1.7499552
42	0x3f3a7b84	0.7284472
43	0x3fa69acc	1.301599
44	0x3f9bada3	1.2162365
45	0x3fb76c48	1.432992
46	0x40107783	2.2572944
47	0x3f59ce11	0.8508006
48	0x3ff1b1c6	1.8882377
49	0x3f985dfb	1.190368
50	0x3f9e1031	1.2348691
51	0x3f391262	0.72293675
52	0x3f8880e6	1.0664337
53	0x3fafb46c	1.3726935
54	0x3edd783c	0.43255794
55	0x3f63dbf1	0.8900748
56	0x3f711c5c	0.941839
57	0x3fdf5086	1.7446449
58	0x3f5e075c	0.8672998
59	0x3f81fadc	1.0154681
60	0x3efba1f5	0.49147
61	0x3fcd4557	1.6036786
62	0x3fa82076	1.3134906
63	0x3fa02a47	1.2512902

conv3.weight f4 [128, 64, 3, 3]
0	0xbb8af36b	-0.0042404435
1	0xbba72c1d	-0.0051016943
2	0xbc61006a	-0.013733009
3	0x3a64e451	0.00087315316
4	0xbd20b70b	-0.039237063
5	0xbcec1f55	-0.028823534
6	0xbc053c15	-0.008132
7	0xbca6e73d	-0.020373935
8	0xbbda8cca	-0.0066696154
9	0xbbe5bc69	-0.0070109856
10	0xbbb5d804	-0.0055494327
11	0x3ca02ff0	0.019554108
12	0x3c8e7598	0.017390057
13	0x3c89429b	0.016755393
14	0xbd0217f8	-0.03176114
15	0x3c8cd374	0.017190672
16	0xbcea765d	-0.028620893
17	0x3baa5975	0.0051986524
18	0xbd466a2e	-0.048441105
19	0x3c54a15a	0.012977922
20	0xbb267293	-0.0025397881
21	0xbb7f916b	-0.0038996588
22	0x3c02565e	0.007955162
23	0x3c126480	0.008935094
24	0x3ccf3eda	0.025298525
25	0xbcc588b3	-0.024113035
26	0xbcff6edc	-0.031180792
27	0xbd11dfb5	-0.035613734
28	0xbd42c154	-0.047547653
29	0xbca31ec0	-0.019912124
30	0xbd0dbbf4	-0.034603074
31	0x3c07b860	0.0082837045
32	0xbb3e8708	-0.0029072184
33	0x3cb26053	0.021774447
34	0xbcabc4cc	-0.020967864
35	0xbd351164	-0.044206038
36	0xbbaec71e	-0.005333795
37	0xbc42047b	-0.011841889
38	0xbd473535	-0.048634727
39	0x3b4dacf2	0.00313836
40	0x3d0082f6	0.031374894
41	0xbd158c9e	-0.036511056
42	0xbd11bb1b	-0.03557883
43	0xbb559492	-0.0032589776
44	0x3c83af7a	0.016074885
45	0x3cc6329c	0.024194054
46	0xbcdc21e6	-0.026871633
47	0xbd501d99	-0.050809477
48	0x3c7f89c4	0.015596811
49	0xbc58d7d2	-0.013235049
50	0xbc2fb0d9	-0.010723316
51	0xbd1643f9	-0.036685918
52	0xbcd2aa5c	-0.025716
53	0xbcc1693a	-0.023609746
54	0xbd39a4f2	-0.04532332
55	0xbc9ee6e0	-0.0193972
56	0xbd0499de	-0.0323733
57	0x3cba961c	0.022776656
58	0x3d11ac51	0.035564724
59	0x3c7edf24	0.015556131
60	0x3b9d21b7	0.004795279
61	0xbd38f514	-0.0451556
62	0xbd170dec	-0.03687851
63	0xbc940a3b	-0.018071285
64	0x3d1496ab	0.0362765
65	0x3cab876d	0.0209386
66	0xbb9db955	-0.004813353
67	0x3b260161	0.0025330412
68	0xbd1a8faa	-0.037734665
69	0x3cf94b1f	0.030431328
70	0xbc279efb	-0.010230775
71	0xbc9a053c	-0.018801324
72	0x3947e1a9	0.00019062184
73	0xbc8c7ae2	-0.017148439
74	0xbd3ec928	-0.046578556
75	0xbc4723ca	-0.012154529
76	0x3d2d81e6	0.04236021
77	0x3cf3e788	0.029773489
78	0xbd55e434	-0.052219585
79	0x3c77d1a6	0.015125668
80	0xbcf3fed1	-0.029784592
81	0x3c0ddc6e	0.008658512
82	0x3cbdfc4a	0.02319159
83	0x3caf87ba	0.021427024
84	0xbcbef640	-0.02331078
85	0xbc849e5a	-0.01618879
86	0x3c0f1cc4	0.008734886
87	0x3d0acac1	0.033884767
88	0x3b9c90f6	0.004778023
89	0xbc83e08a	-0.01609828
90	0x3c89b46e	0.016809668
91	0xbc9830e0	-0.018577993
92	0xbd1fb370	-0.038989484
93	0x3c468111	0.012115733
94	0xbc71a97e	-0.014749883
95	0x3ce8df86	0.028426897
96	0xbc1e50dd	-0.009662834
97	0xbccd5824	-0.025066443
98	0xbc8a6b9b	-0.016897013
99	0x3ca23f5c	0.019805603
100	0xbd485d3e	-0.048917048
101	0xbcc324f3	-0.02382133
102	0x3ce0fa1a	0.027463008
103	0x3c9b72b8	0.0189756
104	0xba8fccc8	-0.0010971064
105	0xbb8e3ed7	-0.004340987
106	0xbc38ef69	-0.011287549
107	0x3ca17d44	0.019713052
108	0xbcca269b	-0.024676612
109	0x3b49b12d	0.003077577
110	0xbb207b91	-0.0024487714
111	0x3adc8dbe	0.001682691
112	0xbbdafa6b	-0.006682684
113	0x3b087d04	0.0020826468
114	0xbd33d042	-0.043899782
115	0x3cdc1383	0.026864773
116	0xbcadfbed	-0.021238292
117	0x3c8922bc	0.016740195
118	0x3c7edc2e	0.015555425
119	0x3c2d2a45	0.01056916
120	0x3d083247	0.033251073
121	0x3ce73d00	0.02822733
122	0xbd07227e	-0.03299188
123	0xbd02188e	-0.0317617
124	0x3c1191f7	0.008884898
125	0x3d0a4996	0.033761583
126	0xbcdcc8be	-0.02695119
127	0x3cd64d70	0.026159972
128	0xbc2daae9	-0.01059983
129	0x3d068055	0.03283723
130	0xbb173438	-0.0023071896
131	0x3ccda015	0.025100747
132	0xbd086a71	-0.033304635
133	0x3c733f1d	0.01484659
134	0x3c3b49b3	0.0114311455
135	0xbd47dba4	-0.04879345
136	0x3cce28aa	0.025165875
137	0xbc8c2f94	-0.01711253
138	0x3cd31a5f	0.02576941
139	0x3b5b8527	0.0033496113
140	0xbd0b60b7	-0.03402778
141	0x3b825e14	0.0039785
142	0xbc8a0a1b	-0.016850522
143	0xbd329768	-0.043601424
144	0x3cb3fa6a	0.021969993
145	0x3c68f22f	0.014217897
146	0x3c8078d3	0.015682613
147	0x3ca6b4ad	0.020349825
148	0x3c8553e5	0.016275356
149	0x3d12f71a	0.035880186
150	0xbb1b4b41	-0.0023695978
151	0xbb484df4	-0.0030564042
152	0xbcb01f12	-0.02149919
153	0x3c5fcf70	0.013660297
154	0x3d002bb4	0.03129168
155	0xbd137255	-0.035997707
156	0xbae9422a	-0.0017796208
157	0xbc9ed79c	-0.01938992
158	0x3ca57426	0.020196985
159	0xbc9adebc	-0.018905036
160	0xbb4e09c4	-0.0031438926
161	0xbd179868	-0.03701058
162	0x3b91750b	0.0044390014
163	0xbcdb87a3	-0.026798075
164	0x3cd99435	0.026559928
165	0x3b8ba855	0.00426201
166	0xbcda9ecf	-0.026687054
167	0xbcac7487	-0.021051658
168	0x3cbcc864	0.023044772
169	0x3c6f7baa	0.014616886
170	0x3cd88c05	0.026433954
171	0xbbca0418	-0.006165039
172	0xbbbe6acd	-0.0058110715
173	0x3cb0df9b	0.021590998
174	0xbc3f66f5	-0.011682262
175	0x3d36cff9	0.044631932
176	0xbc1e3fd6	-0.009658774
177	0xbd171632	-0.0368864
178	0x3ba5ab24	0.005055802
179	0x3ca8230e	0.020524528
180	0x3b73974f	0.0037169044
181	0xbb530a93	-0.0032202348
182	0xbc483d65	-0.012221669
183	0x3b32f299	0.0027305244
184	0x3c33b8f5	0.01096939
185	0xbd22aff0	-0.03971857
186	0xbd22cb3c	-0.0397446
187	0xbd156975	-0.036477525
188	0xbcd3e834	-0.025867559
189	0xbc255bfd	-0.0100927325
190	0xbc698676	-0.014253249
191	0xbd4202fc	-0.047366127
192	0xbd292372	-0.04129357
193	0x3c995a87	0.018719925
194	0xbc47dac3	-0.012198153
195	0x3c1b0641	0.00946194
196	0x3ca76ecc	0.020438574
197	0xbd209c07	-0.0392113
198	0xbbf4153d	-0.007448821
199	0xbd32534b	-0.043536466
200	0xbc2a629e	-0.010399489
201	0xbc013e58	-0.007888399
202	0x3cd187c9	0.025577443
203	0xbc37cded	-0.01121853
204	0xbd086687	-0.033300903
205	0xbd3eb88b	-0.046562713
206	0xbd1c20ce	-0.038117222
207	0xbd00cced	-0.031445432
208	0xbd062455	-0.032749493
209	0xbd724798	-0.05915031
210	0x3cbc9ae6	0.02302308
211	0x3c458254	0.012054998
212	0xbc7d9a27	-0.015478647
213	0xbc1301a5	-0.00897256
214	0xbce17f36	-0.02752648
215	0xbd7d770b	-0.061881106
216	0xbd54428d	-0.05182128
217	0x3cc1fd49	0.023680346
218	0xbc81375f	-0.015773473
219	0xbd49ea3e	-0.049295656
220	0xbc01205c	-0.00788125
221	0xbd142b41	-0.036174063
222	0x3c79de4b	0.015250753
223	0x3d239bb9	0.03994343
224	0xbc973d42	-0.018461827
225	0xbd08c32d	-0.03338926
226	0xbc1d4c83	-0.009600761
227	0x3c6e339d	0.014538673
228	0x3c5c48e8	0.013445117
229	0xbbc4aaaf	-0.0060017924
230	0x3c071a2a	0.008245984
231	0x3c2adb1f	0.010428219
232	0xbcd8f852	-0.026485596
233	0xbca085d8	-0.019595072
234	0x3cc8498a	0.024449129
235	0x3bb950f4	0.0056554023
236	0x3cef989c	0.029247575
237	0xbcc857ac	-0.024455868
238	0xbbdbc061	-0.006706283
239	0xbd2c5672	-0.04207463
240	0x3c92d440	0.017923474
241	0x3b403471	0.0029328133
242	0x3bd4b799	0.006491613
243	0xbd39d139	-0.045365546
244	0xbd36ecd8	-0.044659466
245	0xbd07a160	-0.033112884
246	0x3b3d78e5	0.002891117
247	0xbd1af9c9	-0.03783587
248	0xbba66a1e	-0.005078568
249	0xbc61c1f6	-0.013779154
250	0x3b61b903	0.003444255
251	0xbc330e7a	-0.010928744
252	0xbd6708a9	-0.056404743
253	0x3bad6462	0.0052915076
254	0xbd455ab9	-0.048182223
255	0xbc11c88d	-0.008897913

conv3.bias f4 [128]
0	0x38f74304	0.000117903604
1	0xb82e71e4	-4.15909e-05
2	0x38f30f61	0.000115900075
3	0x38a21302	7.7283024e-05
4	0x3894a311	7.0875634e-05
5	0xb89eb95d	-7.568554e-05
6	0xb803586e	-3.131519e-05
7	0x37228d78	9.688891e-06
8	0x3785773d	1.591036e-05
9	0xb79ea398	-1.8911247e-05
10	0xb7873eb3	-1.612245e-05
11	0x35d5a22d	1.5916936e-06
12	0x377c019f	1.5020748e-05
13	0xb81e02a2	-3.7672587e-05
14	0x37478206	1.1891598e-05
15	0x374c1df4	1.21663215e-05
16	0xb9085ce5	-0.00013004577
17	0xb8b689e2	-8.704119e-05
18	0xb58b21c5	-1.0366135e-06
19	0x391030fc	0.00013751158
20	0xb75549a5	-1.2712936e-05
21	0x37b182ef	2.1161015e-05
22	0x374e7d31	1.2307705e-05
23	0x37104de6	8.601206e-06
24	0x388cac49	6.707811e-05
25	0xb7459229	-1.1776146e-05
26	0xb7de5717	-2.6505017e-05
27	0xb83591d5	-4.328958e-05
28	0x38d76a3d	0.00010271787
29	0x35d4a61d	1.5843576e-06
30	0xb913bf1d	-0.00014090208
31	0xb831dbb1	-4.2404692e-05
32	0x36c4eb2d	5.8686333e-06
33	0x390fd65b	0.00013717396
34	0xb79c0e5b	-1.8603334e-05
35	0xb8eedae4	-0.00011389496
36	0x3815d1a0	3.5719597e-05
37	0xb87544d7	-5.8476664e-05
38	0x3764691f	1.3614334e-05
39	0x3904312b	0.00012606817
40	0x37c56b7b	2.353428e-05
41	0x381eb106	3.7835e-05
42	0x38341f69	4.2944597e-05
43	0xb7b6fee6	-2.1814787e-05
44	0xb5ea5a5e	-1.7460659e-06
45	0xb915c593	-0.0001428335
46	0xb722c9cf	-9.70294e-06
47	0xb90a5f03	-0.000131961
48	0xb6305108	-2.627321e-06
49	0x3817fb6b	3.6235357e-05
50	0xb8a304a8	-7.773313e-05
51	0xb7bd400a	-2.2560376e-05
52	0x380eda52	3.4058765e-05
53	0x3792d571	1.7503948e-05
54	0xb884039c	-6.294923e-05
55	0xb8d34335	-0.00010073782
56	0x3791c8f7	1.7378929e-05
57	0xb520c58c	-5.9892113e-07
58	0xb8a10e24	-7.679712e-05
59	0xb8080b8a	-3.2435673e-05
60	0xb7cd3b7d	-2.4465606e-05
61	0x38b1fdf2	8.487319e-05
62	0x381402e4	3.528864e-05
63	0xb82d5946	-4.1329557e-05
64	0x34bb9bde	3.4944873e-07
65	0x390e1d3a	0.00013553063
66	0xb7907132	-1.7218848e-05
67	0xb85f3156	-5.321329e-05
68	0x390ff577	0.00013728986
69	0xb6eebb3a	-7.1147488e-06
70	0xb7026f88	-7.774572e-06
71	0xb83aa415	-4.449867e-05
72	0x3911e29d	0.00013912698
73	0xb8dd7608	-0.00010560086
74	0x3753b64e	1.2619026e-05
75	0xb894580a	-7.0735885e-05
76	0x38023292	3.1041513e-05
77	0xb8a1f0aa	-7.7219054e-05
78	0xb8a6345d	-7.92525e-05
79	0x37875831	1.6134321e-05
80	0xb850c94b	-4.9778533e-05
81	0x37dc63d1	2.6272524e-05
82	0xb8094a62	-3.273262e-05
83	0xb80132ab	-3.0803185e-05
84	0x3826c2f4	3.975905e-05
85	0x3828ce2d	4.0246337e-05
86	0xb8c55b3d	-9.4106865e-05
87	0xb901c63e	-0.0001237625
88	0x36bb7ae1	5.5873393e-06
89	0xb7317659	-1.0577577e-05
90	0xb8e92ebb	-0.0001111901
91	0x39130612	0.00014021274
92	0x38982175	7.254157e-05
93	0x37ca3898	2.410663e-05
94	0x3852077c	5.0074872e-05
95	0xb7c132d2	-2.3031058e-05
96	0x3426bf68	1.5529588e-07
97	0xb7d96559	-2.591561e-05
98	0xb903af28	-0.00012558384
99	0x3884a5d4	6.3251384e-05
100	0xb84fe3da	-4.956485e-05
101	0x385dad53	5.2851927e-05
102	0x38b03d27	8.4037245e-05
103	0xb7963f55	-1.7910885e-05
104	0x3863090e	5.412945e-05
105	0x384d17ed	4.889809e-05
106	0xb827847a	-3.993928e-05
107	0x34b5fc2d	3.389736e-07
108	0x381dd4bd	3.7629845e-05
109	0x37ba2943	2.2192142e-05
110	0x37b23434	2.1243563e-05
111	0xb916c667	-0.00014379025
112	0xb8bee541	-9.102608e-05
113	0x38ab3e37	8.165504e-05
114	0xb63c7b92	-2.808611e-06
115	0x37b73bbd	2.1843118e-05
116	0x39145cdf	0.00014148977
117	0xb83610b1	-4.3407726e-05
118	0xb585579a	-9.934768e-07
119	0x36eee3b0	7.119459e-06
120	0x3791a5b1	1.7362503e-05
121	0xb80d967b	-3.3757166e-05
122	0x3712d112	8.750956e-06
123	0x380a10b1	3.291731e-05
124	0xb89e6e93	-7.554623e-05
125	0xb819d78d	-3.667879e-05
126	0x37f2c0f8	2.8938506e-05
127	0xb89552d2	-7.1203e-05

bn3.weight f4 [128]
0	0x3f836f90	1.0268421
1	0x3f7f4ecf	0.9972963
2	0x3f884862	1.064709
3	0x3f85f63c	1.046577
4	0x3f86cda4	1.0531507
5	0x3f851408	1.0396738
6	0x3f85beeb	1.0448889
7	0x3f861dab	1.0477804
8	0x3f83d238	1.0298529
9	0x3f828a36	1.0198429
10	0x3f84d035	1.037604
11	0x3f889d4c	1.0673003
12	0x3f8277e9	1.0192844
13	0x3f817ac7	1.0115594
14	0x3f849746	1.0358665
15	0x3f878101	1.0586244
16	0x3f820f5b	1.0160936
17	0x3f825e99	1.0185119
18	0x3f84e5af	1.0382594
19	0x3f83f8b1	1.031027
20	0x3f8767ec	1.057859
21	0x3f84828c	1.035234
22	0x3f83aa99	1.0286437
23	0x3f7d7d72	0.9901954
24	0x3f87b923	1.0603374
25	0x3f7eb491	0.9949427
26	0x3f8946b3	1.0724701
27	0x3f82a50a	1.0206616
28	0x3f8478a0	1.0349312
29	0x3f868488	1.0509195
30	0x3f84e475	1.038222
31	0x3f82d00e	1.0219743
32	0x3f7fa139	0.9985538
33	0x3f84fafc	1.0389094
34	0x3f81317f	1.009323
35	0x3f856b4d	1.0423371
36	0x3f7a6200	0.97805786
37	0x3f8816fb	1.0632013
38	0x3f87d561	1.0611993
39	0x3f833684	1.0251012
40	0x3f8407d8	1.0314894
41	0x3f81513b	1.0102915
42	0x3f8470e0	1.0346947
43	0x3f8210e2	1.0161402
44	0x3f81f929	1.0154163
45	0x3f843b63	1.0330623
46	0x3f871c0b	1.0555433
47	0x3f8056f5	1.0026537
48	0x3f81b640	1.0133743
49	0x3f834ffc	1.0258784
50	0x3f83e1f3	1.0303329
51	0x3f86ee59	1.0541488
52	0x3f86153b	1.0475229
53	0x3f82e996	1.0227535
54	0x3f7e72b1	0.99393755
55	0x3f84dcfe	1.0379941
56	0x3f868353	1.0508827
57	0x3f7ca2ad	0.98685724
58	0x3f8523a9	1.0401508
59	0x3f8493c4	1.0357594
60	0x3f85732a	1.042577
61	0x3f7e853c	0.9942205
62	0x3f835ba9	1.0262347
63	0x3f8709cb	1.0549864
64	0x3f831f2a	1.0243886
65	0x3f819656	1.0124004
66	0x3f86a5a5	1.0519301
67	0x3f86200f	1.0478534
68	0x3f844739	1.0334235
69	0x3f8386b4	1.0275483
70	0x3f86b415	1.0523707
71	0x3f8192bc	1.0122905
72	0x3f85a51e	1.0441015
73	0x3f870574	1.0548539
74	0x3f820c8e	1.0160081
75	0x3f85c8da	1.045192
76	0x3f8407c7	1.0314873
77	0x3f85bf9e	1.0449102
78	0x3f87fdd8	1.0624342
79	0x3f852282	1.0401156
80	0x3f877acb	1.0584348
81	0x3f87ebca	1.0618832
82	0x3f850407	1.0391854
83	0x3f83ae87	1.0287637
84	0x3f7f3f20	0.99705696
85	0x3f877101	1.0581361
86	0x3f87f9de	1.0623128
87	0x3f841b05	1.0320746
88	0x3f832d43	1.0248188
89	0x3f8546f5	1.0412279
90	0x3f8597a1	1.0436898
91	0x3f84d0d8	1.0376234
92	0x3f819891	1.0124685
93	0x3f86090a	1.0471509
94	0x3f8421f5	1.0322863
95	0x3f83d910	1.0300617
96	0x3f844396	1.0333126
97	0x3f875eed	1.0575844
98	0x3f87fea8	1.062459
99	0x3f86eed3	1.0541633
100	0x3f86a853	1.0520118
101	0x3f7fd1f0	0.99929714
102	0x3f863921	1.0486184
103	0x3f868970	1.0510693
104	0x3f875691	1.0573293
105	0x3f84c15c	1.0371509
106	0x3f852f0e	1.0404985
107	0x3f871b8f	1.0555285
108	0x3f846a0a	1.034486
109	0x3f880feb	1.0629858
110	0x3f85544b	1.0416349
111	0x3f85c40f	1.0450457
112	0x3f848427	1.035283
113	0x3f8560f7	1.0420216
114	0x3f854a50	1.0413303
115	0x3f83dc24	1.0301557
116	0x3f825d57	1.0184735
117	0x3f8195b7	1.0123814
118	0x3f835b86	1.0262306
119	0x3f837601	1.0270387
120	0x3f86189e	1.0476263
121	0x3f8031f9	1.001525
122	0x3f8097e0	1.0046349
123	0x3f86740d	1.0504166
124	0x3f85a3aa	1.0440571
125	0x3f84a72a	1.0363514
126	0x3f7f3057	0.99683136
127	0x3f8172ef	1.01132

bn3.bias f4 [128]
0	0x3cfd22a4	0.030900307
1	0x3b6c5029	0.0036058521
2	0x3d0ee107	0.03488257
3	0x3d6b1eac	0.057402298
4	0x3ca46218	0.020066306
5	0x3d3c9883	0.046043884
6	0x3d3821e8	0.04495421
7	0x3d188d60	0.0372442
8	0xba826f5c	-0.00099514
9	0x3cb31d28	0.021864489
10	0x3d4318a8	0.047630936
11	0x3c874196	0.016510766
12	0x3b41b43a	0.0029556886
13	0xb9eab5a1	-0.00044767282
14	0x3d29da16	0.04146775
15	0x3d7cb4f0	0.061695993
16	0xba434bdf	-0.00074499653
17	0xbbc6aa02	-0.006062747
18	0x3cd39df9	0.025832163
19	0x3d16dac1	0.036829714
20	0x3d424d74	0.047437146
21	0x3a93eb7e	0.0011285392
22	0x3c765688	0.015035279
23	0x3b69ecde	0.0035694162
24	0x3d86c688	0.065808356
25	0xbb06f6d1	-0.0020593891
26	0x3d012b2c	0.031535313
27	0x3c0ec965	0.008715008
28	0x3d337fa5	0.043822903
29	0x3d822814	0.063553005
30	0x3be527d9	0.0069932756
31	0x3bc0ea31	0.005887293
32	0x3c3fb1a6	0.0117000695
33	0x3c3f089b	0.011659767
34	0x3b0a5eff	0.002111375
35	0x3c08bd60	0.008345932
36	0xbbb4fc71	-0.0055232574
37	0x3d7f3c0d	0.06231313
38	0x3c992e80	0.01869893
39	0x3d028dc8	0.031873494
40	0x3d10d56e	0.035359792
41	0x3c8045e2	0.015658323
42	0x3d25cedb	0.040480476
43	0x3ca95fbb	0.02067553
44	0x3c9e21a5	0.019303152
45	0x3d250c23	0.040294778
46	0x3c54c323	0.012985977
47	0x3bdb6d2a	0.006696363
48	0x3c01f0fc	0.00793099
49	0xbb23cb24	-0.0024992907
50	0x3d0a05a1	0.033696774
51	0x3cb42a33	0.021992778
52	0x3d50635f	0.050876018
53	0x3b453301	0.0030090215
54	0xbc38e52e	-0.011285109
55	0x3ce97aa7	0.028500868
56	0x3d4eed5f	0.050519343
57	0xbcbaa998	-0.022785947
58	0x3d24142f	0.04005831
59	0x3b41344c	0.0029480634
60	0x3d338301	0.043826107
61	0xbb550403	-0.0032503612
62	0xbc4e0288	-0.012573846
63	0x3d5c111e	0.05372726
64	0xba0c209c	-0.00053454353
65	0x3c868867	0.016422464
66	0x3d546c9e	0.051861398
67	0x3d66c918	0.05634412
68	0x3d17d025	0.037063736
69	0x3cf6f2b9	0.030145036
70	0x3cb97b64	0.022641845
71	0x3c881ff3	0.016616797
72	0x3d498c44	0.049206033
73	0x3d5fc240	0.05462861
74	0x3c136f15	0.008998652
75	0x3d4454b1	0.04793233
76	0x3d22c885	0.03974201
77	0x3d0b5f17	0.03402623
78	0x3d8904a8	0.06690341
79	0x3d32a4f1	0.04361433
80	0x3d76cc16	0.060253225
81	0x3d70b85d	0.058769573
82	0xbb77c804	-0.0037808428
83	0x3d05f370	0.032702863
84	0xbc1695b0	-0.009190962
85	0x3d8b0990	0.06788933
86	0x3c46d8ff	0.012136697
87	0x3c0d9d34	0.008643437
88	0x3cd2b5df	0.025721489
89	0x3c98c297	0.018647475
90	0x3cf1cb78	0.029515967
91	0x3cdd2f8b	0.02700021
92	0xbbfe7906	-0.007765892
93	0x3d17de5d	0.037077297
94	0x3cc265bb	0.02373015
95	0xbc2c1ccd	-0.0105049135
96	0x3c9add5f	0.018904386
97	0x3d8c74cc	0.06858215
98	0x3c8be7a6	0.017078232
99	0x3cc59694	0.024119653
100	0x3c822840	0.015888333
101	0x3c291708	0.0103204325
102	0x3d44e6d4	0.048071697
103	0x3cbde83c	0.023182027
104	0x3d7372fa	0.059435822
105	0xba9229be	-0.0011151356
106	0x3ccdabee	0.025106397
107	0x3c9e277b	0.019305935
108	0x3d03418a	0.032044925
109	0x3d858db4	0.06521168
110	0x3d168d2d	0.03675573
111	0x3d50d93a	0.050988413
112	0x3c83faae	0.016110744
113	0x3d339b1f	0.043849107
114	0x3d2dc2c9	0.04242209
115	0x3d168bf6	0.03675457
116	0x3cc0665b	0.023486307
117	0xbbcb1e40	-0.0061986744
118	0xbb436b13	-0.002981846
119	0x3ca192a2	0.01972324
120	0x3d46e436	0.048557483
121	0x3b8150bf	0.0039463933
122	0xbc0e0124	-0.008667264
123	0x3d6175c5	0.055043954
124	0x3c089c5e	0.008338062
125	0x3d1c92d8	0.03822598
126	0x3b8f8280	0.0043795705
127	0x3c7b36af	0.015332862

bn3.running_mean f4 [128]
0	0xbf8aad0e	-1.0834062
1	0x3f18e2f5	0.5972131
2	0xbe7031f6	-0.23456559
3	0xbf934391	-1.1504995
4	0x3e6932bd	0.22773261
5	0xbf6c12c6	-0.92216146
6	0xbf4c2f48	-0.79759645
7	0x3ddbc541	0.107309826
8	0x3d4a4bc2	0.049388655
9	0xbf41d93f	-0.75722116
10	0xbf9950c3	-1.1977772
11	0xbdbcd4da	-0.09220286
12	0xbdcbc345	-0.09949354
13	0x3ea3ad58	0.31968188
14	0xbf8d5fb1	-1.1044828
15	0xbf93cda5	-1.1547133
16	0x3e6a7ea5	0.22899874
17	0xbe81aad3	-0.2532564
18	0x3d33b212	0.043870993
19	0xbf96f3cf	-1.1793154
20	0xbe9f5638	-0.31120467
21	0xbf151d60	-0.5824795
22	0x3e9ea16d	0.30982533
23	0x3ded838a	0.11597355
24	0xbf9114ae	-1.1334436
25	0xbec8125b	-0.39076504
26	0xbf1022d4	-0.56303144
27	0x3eb6c0f2	0.3569408
28	0xbf99e293	-1.202227
29	0xbfabd48a	-1.3424237
30	0xbf122929	-0.57094055
31	0x3e63d869	0.22250523
32	0x3e987a27	0.29780695
33	0x3e4ec898	0.20193708
34	0x3eecefad	0.46276608
35	0xbe94bb84	-0.29049313
36	0xbebc73ce	-0.36807102
37	0xbf9cf560	-1.2262383
38	0x3e42da2f	0.19028543
39	0xbf8a11a5	-1.0786635
40	0xbf6300b0	-0.88672924
41	0xbf75fa2c	-0.96084857
42	0xbf937b62	-1.1522028
43	0x3f25d5b9	0.6477924
44	0xbf080ba6	-0.53142774
45	0xbf73a4b4	-0.9517319
46	0xbf1e22ea	-0.61772025
47	0xbf14f0e8	-0.58180094
48	0x3f41c224	0.7568686
49	0x3e4c3e17	0.1994556
50	0xbe81923d	-0.25306883
51	0xbedb2f93	-0.42809734
52	0xbfb7c9a7	-1.4358414
53	0xbe0ce0d7	-0.13757645
54	0x3ef77b68	0.4833634
55	0x3db5f5e6	0.08884792
56	0xbf8df903	-1.1091617
57	0x3f48996b	0.783591
58	0x3e0a70a9	0.13519539
59	0x3e872a30	0.26399374
60	0xbf9483a2	-1.1602671
61	0x3f2781a2	0.6543218
62	0xbf06e7b7	-0.5269732
63	0xbfa0d171	-1.2563916
64	0x3ec97ece	0.39354557
65	0x3e745fea	0.23864713
66	0xbfbc2206	-1.4697883
67	0xbf97774c	-1.1833282
68	0xbf997e2f	-1.1991633
69	0xbf42519f	-0.75905794
70	0xbe971e62	-0.29515368
71	0xbf95a894	-1.1692071
72	0xbf8cb415	-1.0992457
73	0xbf4bc3f1	-0.7959586
74	0x3e9d48f7	0.3071973
75	0xbf6d674c	-0.92735744
76	0xbf55996a	-0.83437216
77	0xbe54a2cc	-0.20765227
78	0xbf7cc944	-0.98744607
79	0xbf66081a	-0.8985611
80	0xbf9c907a	-1.2231591
81	0xbf80aea1	-1.0053293
82	0xbf0eac38	-0.55731535
83	0xbf86e0cd	-1.0537354
84	0x3e58a011	0.2115481
85	0xbfa6a9e2	-1.3020594
86	0xbef5ee35	-0.480333
87	0x3f2653e0	0.64971733
88	0xbf5add4e	-0.85493934
89	0x3ec3b400	0.38223267
90	0xbe993024	-0.2991954
91	0x3e0d3db5	0.1379307
92	0xbef4f933	-0.47846374
93	0xbe032c67	-0.12809907
94	0xbe54b9d2	-0.2077401
95	0xbedf63a4	-0.43630707
96	0xbd3ba96f	-0.04581588
97	0xbf9fa138	-1.2471075
98	0x3e284bf9	0.16435231
99	0xbef8e462	-0.48611742
100	0x3ef48006	0.47753924
101	0x3f6dad05	0.9284213
102	0xbfa334ec	-1.2750525
103	0xbeaba563	-0.33524618
104	0xbf8be6d1	-1.0929815
105	0xbead66de	-0.33867544
106	0x3e1f5473	0.15559559
107	0x3ce617da	0.028087545
108	0x3eb63bd9	0.35592535
109	0xbf8c9e75	-1.0985857
110	0x3e7d1c07	0.24717723
111	0xbf8bd590	-1.0924549
112	0xbdc36239	-0.09540219
113	0xbf504b74	-0.8136513
114	0xbf83fc51	-1.0311376
115	0xbf918f52	-1.1371863
116	0xbf302164	-0.6880095
117	0xbd9fd98c	-0.07805166
118	0x3b4ab3cb	0.003092992
119	0x3f04878e	0.5176934
120	0xbf943a06	-1.1580207
121	0x3f53771b	0.82603616
122	0xbe1283d7	-0.14308105
123	0xbf9fdd94	-1.2489495
124	0xbe417127	-0.1889082
125	0xbfc59f39	-1.5439216
126	0xbc8abe4d	-0.016936446
127	0x3f1f10c5	0.62134963

bn3.running_var f4 [128]
0	0x3efa7f9a	0.48925477
1	0x3f8c94d9	1.0982925
2	0x3f0c135d	0.54717046
3	0x3f2f1814	0.68396115
4	0x3f1f8c61	0.62323576
5	0x3f0ffe52	0.56247437
6	0x3eb1278a	0.34600478
7	0x3eb89613	0.36051998
8	0x3ee81e90	0.45335817
9	0x3ed5c5f7	0.41752598
10	0x3f6b5d57	0.919393
11	0x3e256872	0.16153124
12	0x3ea29045	0.31750694
13	0x3f15a51d	0.5845507
14	0x3f1be628	0.60898066
15	0x3f6a9224	0.9162924
16	0x3f26882a	0.6505152
17	0x3e07528b	0.13215081
18	0x3e73c037	0.23803793
19	0x3f521711	0.82066447
20	0x3e272b2a	0.1632506
21	0x3e0daca4	0.13835388
22	0x3efa5899	0.4889572
23	0x3ee6a09c	0.4504441
24	0x3f55a94e	0.83461463
25	0x3f62b74e	0.8856095
26	0x3e24060d	0.16017933
27	0x3f1f36a1	0.6219273
28	0x3f446ca3	0.76728266
29	0x3f7f24f0	0.9966574
30	0x3e0fe5b6	0.14052472
31	0x3ecd3868	0.40082097
32	0x3ec412ce	0.38295597
33	0x3ea73d2e	0.32663864
34	0x3ebdfa7e	0.37105173
35	0x3e8292ac	0.25502527
36	0x3fe78cd9	1.8089858
37	0x3f0f66be	0.5601615
38	0x3f062456	0.52399194
39	0x3ecb6efe	0.39733118
40	0x3f084d39	0.5324283
41	0x3f57165a	0.8401848
42	0x3f31f978	0.69521284
43	0x3f49e9f4	0.7887261
44	0x3eb53cc6	0.3539793
45	0x3f126bf6	0.57195985
46	0x3ddeb7f6	0.108749315
47	0x3f0cfd88	0.5507436
48	0x3f96be7c	1.1776881
49	0x3f3c6c3e	0.73602664
50	0x3ecfebf1	0.40609697
51	0x3e1be84e	0.15225336
52	0x3f9af34d	1.21055
53	0x3e8d6aaa	0.2762044
54	0x3f608a2f	0.8771085
55	0x3e7401df	0.23828839
56	0x3f54167a	0.82846797
57	0x3fa3dadb	1.2801164
58	0x3e8ef9b2	0.27924877
59	0x3ec17f2e	0.37792343
60	0x3f05e787	0.5230641
61	0x3fda8bdb	1.707393
62	0x3e0432c4	0.1290999
63	0x3f03e9da	0.51528704
64	0x3f168380	0.58794403
65	0x3eeacaff	0.45858
66	0x3f75b42e	0.9597806
67	0x3f52ff38	0.8242068
68	0x3f323fb0	0.6962843
69	0x3ebc8aa4	0.36824524
70	0x3e8e019d	0.27735606
71	0x3f5d2311	0.8638163
72	0x3f5d1533	0.8636047
73	0x3f1ddf3b	0.6166875
74	0x3ee0d9b4	0.43916094
75	0x3f6d11e5	0.9260543
76	0x3f167053	0.58765143
77	0x3e56764f	0.20943569
78	0x3f13fca3	0.5780737
79	0x3f3923dc	0.7232034
80	0x3f39487d	0.72376233
81	0x3f00800d	0.5019539
82	0x3e7ae2e0	0.24500608
83	0x3f2359e8	0.6380906
84	0x3ef12a99	0.47102812
85	0x3f39187f	0.72303003
86	0x3de42f09	0.11141784
87	0x3fe550e7	1.7915314
88	0x3ef89db3	0.48557815
89	0x3f1f6ccd	0.6227539
90	0x3e773766	0.24142227
91	0x3e8db085	0.27673736
92	0x3e41c892	0.18924168
93	0x3e2a382a	0.16622987
94	0x3e461a8d	0.19346066
95	0x3ea343b0	0.3188758
96	0x3e812f1a	0.25231248
97	0x3f445e9f	0.7670688
98	0x3e6ef0ef	0.23334096
99	0x3e03db55	0.12876637
100	0x3eeac8ff	0.45856473
101	0x3f52773b	0.8221318
102	0x3ef87eaf	0.48534152
103	0x3e28cd2c	0.16484517
104	0x3f3679e8	0.71279764
105	0x3e18f1d6	0.14936003
106	0x3e85067b	0.25981507
107	0x3e44561b	0.19173472
108	0x3e3d03c4	0.18458468
109	0x3f0a901a	0.5412613
110	0x3eb9123c	0.36146724
111	0x3f32ded4	0.6987126
112	0x3e56f201	0.20990755
113	0x3f001cf9	0.5004421
114	0x3eef08d5	0.46686426
115	0x3f3cf11f	0.7380542
116	0x3f89a126	1.0752304
117	0x3edafb50	0.4276986
118	0x3ea18ed8	0.31554294
119	0x3f3fcbf5	0.7492059
120	0x3f0bf63a	0.54672587
121	0x3f97b215	1.1851221
122	0x3eadea1f	0.33967683
123	0x3f753ed3	0.9579899
124	0x3e2fc9e0	0.17166853
125	0x3fa6056f	1.2970408
126	0x3f13b2a6	0.5769447
127	0x3fa27d48	1.2694483
