results_10balls_contrast_5/simple_20250325_182259/best_model.pth (torch, 520034 bytes, 20 tensors)

conv1.weight f4 [32, 1, 5, 5]
0.29439142 0.25041434 -0.015616361 0.17221616 -0.027721658 0.052040137 -0.104212224 0.04537639
0.09716107 -0.15220904 0.13908985 -0.019727105 0.06896349 -0.05498188 0.05339665 -0.02960525
0.11286641 -0.021090947 -0.11973232 0.029314388 -0.09540157 -0.040866874 -0.11967668 0.09840701
-0.17030622 -0.053047128 -0.042752083 -0.099421345 0.021140771 -0.18270138 0.20390387 -0.12776889
0.14371966 0.030056618 -0.046407655 0.15989357 0.08652377 0.14981987 0.030790174 -0.049116105
0.07199673 0.020913562 0.09104566 0.15086553 0.10545748 -0.06396064 0.16465096 0.08273665
0.084322125 -0.10738059 -0.21699947 -0.10357014 -0.17924851 0.11548072 0.022048617 0.06129553
0.03450303 -0.034636658 0.12487585 -0.15550679 -0.011019517 -0.14631695 0.029862626 -0.09042738
0.047343463 -0.05324299 0.13513742 -0.13465695 -0.12325389 -0.1322579 0.20775242 0.05169566
0.15477014 -0.15051365 -0.18996286 -0.14293031 -0.13788113 0.07020261 0.076128505 0.20737542
-0.10065657 -0.13347942 0.07132202 -0.08515615 0.13384119 -0.04540042 0.09631496 -0.16488637
-0.10979824 0.06339449 0.017780982 -0.07012017 0.0947139 0.11270942 -0.1366862 -0.14353354
0.12593596 -0.08369447 -0.085644335 -0.18948871 -0.14122304 -0.0064136484 -0.010258854 -0.06437026
-0.08470908 -0.18388702 -0.06956865 -0.0030532302 -0.049312644 -0.041106757 0.17807576 -0.034400433
0.06398103 -0.05351726 -0.0346071 -0.06624999 0.028707229 -0.12949793 0.00042573785 -0.042206623
-0.0047089397 -0.058881115 -0.0039749034 -0.07165801 -0.10711687 -0.123166464 -0.05648335 -0.14696284
0.13314436 -0.08096908 0.16794991 0.06635135 -0.1464242 0.11755584 -0.074335895 -0.0795686
-0.17119482 -0.18839704 0.046918128 -0.06829149 0.079635076 -0.17215094 0.13182741 -0.16812626
-0.0396853 0.079242446 0.115531564 0.15743259 0.192908 -0.14229038 0.039375838 -0.097136565
-0.04434266 -0.17702805 0.16833332 -0.14047897 0.09873383 0.05618676 0.024080966 -0.12631595
0.16738243 0.028893959 0.023937307 -0.18762825 0.050035655 -0.045887295 -0.09737814 0.15122546
0.025344742 -0.12852947 -0.1105178 -0.025742633 0.09336183 -0.07767249 -0.13594349 -0.0599092
-0.13249375 0.06439634 0.12993595 -0.193082 0.056111623 0.10333981 0.051659208 -0.07586616
0.09212475 0.11470888 0.08025044 0.0110413125 -0.021212736 0.015502766 0.0015670966 -0.021321066
0.14324562 0.17509323 -0.005207699 0.008752513 0.0515562 0.04652119 0.07179653 0.07702148
-0.20651059 -0.09683483 0.13637015 0.08041995 -0.010853027 -0.12985735 -0.12677981 -0.15558825
-0.08309531 0.06262208 0.12132064 0.07432976 -0.14671431 -0.10622892 -0.033257246 0.178396
0.026088523 -0.061182994 0.066123694 -0.07092006 -0.11739812 0.13908766 -0.10758903 -0.068542734
-0.18005456 0.18921362 0.17530379 0.07411708 -0.14280227 -0.19279276 -0.14347003 0.12555306
0.072955005 0.14041542 0.08982693 0.0560973 -0.012830964 -0.15232022 -0.15929098 -0.18499577
0.067878045 -0.09687041 -0.05144153 -0.1087378 -0.024680832 -0.14570236 -0.13832079 0.04601854
-0.075930685 0.07120864 -0.054336913 -0.13921987 -0.04129733 -0.10536019 -0.100663066 -0.19652373
00000000: 79ba 963e 4f36 803e c4db 7fbc 6f59 303e
00000010: 8818 e3bc 0a28 553d 386d d5bd 98dc 393d
00000020: 62fc c63d b0dc 1bbe 926d 0e3e bd9a a1bc
00000030: bb3c 8d3d ae34 61bd 72b6 5a3d b686 f2bc
00000040: 8126 e73d ecc6 acbc 3836 f5bd ba24 f03c
00000050: e661 c3bd 0664 27bd 0c19 f5bd 9d89 c93d
00000060: c164 2ebe f247 59bd cf1c 2fbd 6b9d cbbd
00000070: 692f ad3c 1216 3bbe 2dcc 503e d9d5 02be
00000080: 3f2b 133e 4c39 f63c f415 3ebd 24bb 233e
00000090: 6033 b13d 616a 193e ad3b fc3c f82d 49bd
000000a0: 0673 933d eb52 ab3c 2676 ba3d 7e7c 1a3e
000000b0: 17fa d73d ccfd 82bd 439a 283e d571 a93d
000000c0: 14b1 ac3d 5bea dbbd 1c35 5ebe 951c d4bd
000000d0: ec8c 37be 2881 ec3d 4d9f b43c 0611 7b3d
000000e0: 0d53 0d3d 2bdf 0dbd e9be ff3d 2c3d 1fbe
000000f0: 348b 34bc 1cd4 15be 77a2 f43c fd31 b9bd
00000100: 38eb 413d 5215 5abd 7761 0a3e 83e3 09be
00000110: 896c fcbd 9d6e 07be 0dbd 543e d4be 533d
00000120: 107c 1e3e 4020 1abe a085 42be 535c 12be
00000130: b630 0dbe 63c6 8f3d 43e9 9b3d 395a 543e
00000140: 0825 cebd d4ae 08be 4711 923d 5966 aebd
00000150: aa0d 093e caf5 39bd c740 c53d f9d7 28be
00000160: e6dd e0bd f8d4 813d 6ca9 913c 2a9b 8fbd
00000170: 5cf9 c13d 32d4 e63d 78f7 0bbe 75fa 12be
00000180: 5bf5 003e 0268 abbd 4c66 afbd 5409 42be
00000190: c69c 10be 9529 d2bb c114 28bc 8ed4 83bd
000001a0: f47b adbd e14c 3cbe 027a 8ebd b418 48bb
000001b0: 0efc 49bd 8f5f 28bd 7e59 363e 78e7 0cbd
000001c0: 7c08 833d ea34 5bbd 2dc0 0dbd 13ae 87bd
000001d0: 6c2b eb3c 1b9b 04be 9135 df39 dae0 2cbd
000001e0: 734d 9abb 532d 71bd e83f 82bb 6fc1 92bd
000001f0: 1760 dbbd b33e fcbd 165b 67bd 6d7d 16be
00000200: ff56 083e 1ed3 a5bd 10fb 2b3e 37e3 873d
00000210: 3af0 15be 1ec1 f03d 6b3d 98bd ddf4 a2bd
00000220: b24d 2fbe 27eb 40be 392d 403d 69dc 8bbd
00000230: b717 a33d 5648 30be c4fd 063e 4a29 2cbe
00000240: 0e8d 22bd dd49 a23d d09b ec3d 0236 213e
00000250: ad89 453e 92b4 11be 8f48 213d 89ef c6bd
00000260: a6a0 35bd d746 35be 925f 2c3e b8d9 0fbe
00000270: f634 ca3d 1724 663d 7245 c53c f858 01be
00000280: 4d66 2b3e 06b3 ec3c 2c18 c43c 9f21 40be
00000290: 30f2 4c3d 51f4 3bbd 316e c7bd d9da 1a3e
000002a0: c79f cf3c 3b9d 03be 2857 e2bd 37e2 d2bc
000002b0: 7d34 bf3d c112 9fbd c534 0bbe 5963 75bd
000002c0: 71ac 07be 3ae2 833d ee0d 053e 4ab7 45be
000002d0: 4dd5 653d d3a3 d33d 9b98 533d b85f 9bbd
000002e0: e7ab bc3d 7dec ea3d 585a a43d 9fe6 343c
000002f0: 55c6 adbc 50ff 7d3c 0967 cd3a 84a9 aebc
00000300: fbae 123e a44b 333e 58a5 aabb b366 0f3c
00000310: 982c 533d 018d 3e3d 0f0a 933d 70bd 9d3d
00000320: 8377 53be 5751 c6bd 9ea4 0b3e 37b3 a43d
00000330: e5d0 31bc 53f9 04be 91d2 01be 8752 1fbe
00000340: e02d aabd 0140 803d f576 f83d 343a 983d
00000350: 473c 16be 8c8e d9bd c038 08bd 71ad 363e
00000360: 99b7 d53c 059b 7abd dc6b 873d 893e 91bd
00000370: 6d6e f0bd ff6c 0e3e a357 dcbd 2260 8cbd
00000380: 3960 38be 37c1 413e d682 333e b2ca 973d
00000390: c23a 12be 776b 45be cfe9 12be fb90 003e
000003a0: 6f69 953d 0fc9 0f3e 2ef7 b73d 48c6 653d
000003b0: f738 52bc d5f9 1bbe 2d1d 23be 886f 3dbe
000003c0: a503 8b3d fe63 c6bd 5bb4 52bd ecb1 debd
000003d0: 752f cabc 0033 15be f7a3 0dbe f07d 3c3d
000003e0: 8c81 9bbd d6d5 913d 6290 5ebd a78f 0ebe
000003f0: 6427 29bd 15c7 d7bd 7028 cebd 843d 49be

conv1.bias f4 [32]
0.0009629796 -0.00056883786 -0.00048489927 -0.00030149927 -0.0010429744 0.00014122491 -0.0006585993 6.0304123e-05
0.00020643124 -2.4404717e-05 -0.0019982688 -0.0027194887 -0.00060476374 -0.0037174162 -0.00014225474 0.0012128771
-0.00021307186 -9.7400785e-05 -0.00044178125 0.0002501493 -0.00023387969 4.4662887e-05 -3.3573633e-05 0.00044927295
-0.00026290797 0.0030728308 -2.0577838e-05 0.00028136992 0.00016549828 0.00047116596 0.00042958668 0.0021965934
00000000: 7870 7c3a 101e 15ba 143a feb9 8c12 9eb9
00000010: 6ab4 88ba c615 1439 daa5 2cba 0fef 7c38
00000020: 7775 5839 bbb8 ccb7 63f5 02bb 7339 32bb
00000030: 0289 1eba e59f 73bb 372a 15b9 67f9 9e3a
00000040: 0b6c 5fb9 a643 ccb8 e09e e7b9 7926 8339
00000050: 9a3d 75b9 6954 3b38 6ad1 0cb8 658c eb39
00000060: e9d6 89b9 8c61 493b 929e acb7 d584 9339
00000070: 9b89 2d39 d306 f739 263a e139 b9f4 0f3b

bn1.weight f4 [32]
0.88720876 0.87754315 0.9002676 0.96564615 1.0439426 0.9602047 0.8545063 0.8856701
0.9210195 0.9356913 0.9487785 1.0796317 0.86064696 1.0380665 0.96179175 0.92531186
0.9496776 0.88875496 0.9189565 0.8926053 0.949654 0.9026613 0.8755984 0.88185537
0.99214154 1.044573 0.86729443 0.9186101 0.90742105 0.944418 0.937773 0.97061646
00000000: 1d20 633f aba6 603f f077 663f 9634 773f
00000010: e99f 853f facf 753f edc0 5a3f 47bb 623f
00000020: efc7 6b3f 7789 6f3f 26e3 723f 5f31 8a3f
00000030: 5c53 5c3f 5ddf 843f fc37 763f 3de1 6c3f
00000040: 121e 733f 7285 633f bc40 6b3f c881 643f
00000050: 861c 733f d014 673f 3727 603f 46c1 613f
00000060: fdfc 7d3f 91b4 853f 0207 5e3f 082a 6b3f
00000070: bf4c 683f 61c5 713f e411 703f 527a 783f

bn1.bias f4 [32]
0.10851433 0.08573681 -0.00043790316 0.09139854 0.15328586 0.07048399 0.048124507 -0.10625614
0.08932853 0.039008573 0.06541573 0.16331849 0.082859114 0.14984554 -0.026073815 0.08620545
0.099982664 0.054264374 0.037139025 0.059015367 -0.014356693 0.07454557 0.0853773 0.081548676
0.099927686 0.15749468 0.105758704 0.08154841 0.05256926 0.061471593 0.010157442 0.076671824
00000000: c33c de3d c896 af3d 5e96 e5b9 282f bb3d
00000010: f8f6 1c3e e959 903d 341e 453d d29c d9bd
00000020: e0f1 b63d 74c7 1f3d aff8 853d f63c 273e
00000030: 0ab2 a93d 1c71 193e c198 d5bc 7c8c b03d
00000040: b6c3 cc3d 5244 5e3d 171f 183d 19ba 713d
00000050: 5638 6bbc 59ab 983d 4bda ae3d fe02 a73d
00000060: e3a6 cc3d 4946 213e 0598 d83d da02 a73d
00000070: dd52 573d a3c9 7b3d 666b 263c 1e06 9d3d

bn1.running_mean f4 [32]
0.0022838605 0.0029655949 -0.0036218439 -0.0021847598 -0.0038989144 -0.0017704878 -0.0025389139 0.0032590688
-0.0032178187 -0.0021424838 -0.003526254 -0.0048727253 0.002723833 -0.006709682 -0.0015679537 -0.0016601603
-0.0018120318 -0.0032000262 -0.0019682148 -0.001426013 -0.0023678443 -0.0020944476 -0.0036854 -0.0021905648
-0.0009728077 -0.0024275729 0.0041188844 -0.00054433785 -0.0025530814 -0.0014125936 -0.0016184909 -0.00018116257
00000000: d2ac 153b 6d5a 423b 755c 6dbb 302e 0fbb
00000010: ee84 7fbb b60f e8ba e863 26bb 1a96 553b
00000020: 0ae2 52bb ea68 0cbb ba18 67bb 62ab 9fbb
00000030: 5682 323b e4dc dbbb cc83 cdba bc99 d9ba
00000040: b381 edba 88b7 51bb 2afd 00bb 0ee9 baba
00000050: d62d 1bbb 0043 09bb c086 71bb 948f 0fbb
00000060: 0504 7fba ea17 1fbb b5f7 863b e5b1 0eba
00000070: 9951 27bb c726 b9ba 8b23 d4ba 75f6 3db9

bn1.running_var f4 [32]
0.0007865457 0.0015800778 0.0011438901 0.0006562674 0.0015631069 0.0004710733 0.00041697518 0.0011726952
0.0012872207 0.0007250201 0.00047725352 0.0007246943 0.0013725453 0.0019395304 0.00067894376 0.0005317368
0.0005856373 0.00088903314 0.0005708853 0.0005288096 0.0007404321 0.0009974769 0.0017606092 0.000582304
0.0005669502 0.0010169909 0.00153171 0.0007473802 0.0008535393 0.0005474556 0.00070366776 0.00043691456
00000000: 3030 4e3a 9d1a cf3a 95ee 953a 5c09 2c3a
00000010: 2ae1 cc3a 63fa f639 769d da39 1fb5 993a
00000020: f6b7 a83a 460f 3e3a e237 fa39 69f9 3d3a
00000030: fae6 b33a d737 fe3a 25fb 313a 4164 0b3a
00000040: 7485 193a 010e 693a 77a7 153a d09f 0a3a
00000050: 8f19 423a c5bd 823a 3ec4 e63a c3a5 183a
00000060: 629f 143a 8d4c 853a a9c3 c83a d6eb 433a
00000070: 0ec0 5f3a 2083 0f3a 5876 383a ae11 e539

conv2.weight f4 [64, 32, 5, 5]
-0.006598511 0.00212938 -0.021627508 0.017993797 -0.010713397 -0.01319826 0.0153717585 -0.023893759
-0.0078083044 -0.060082868 -0.02857863 -0.041019984 -0.048920855 -0.05180757 -0.020373847 -0.017690852
-0.0016453253 0.0023943647 -0.021542652 -0.026750142 -0.040736265 -0.014490313 -0.037468564 -0.001744972
0.0119998725 0.0038380083 0.02907773 0.016494175 -0.015409199 -0.043859404 0.018136226 -0.026272083
-0.04914368 -0.010110989 0.014317962 -0.0020012027 -0.017782137 -0.05443321 -0.03599869 0.03049825
0.0075816894 -0.019990547 -0.02842225 -0.031320564 4.0110528e-05 -0.006903422 0.0067315777 -0.015254951
0.009617125 0.005176892 0.016190574 -0.0093432395 -0.0070941695 0.0023278045 0.04560272 -0.008373713
-5.9911577e-05 -0.014589253 -0.027931612 -0.030368758 -0.021166332 0.004019223 0.0032445467 -0.0022697703
-0.022022897 -0.0052567376 -0.012905995 -0.02785142 0.0215031 0.03354571 0.025845362 0.0049537853
-0.013594164 -0.005308016 -0.046627488 0.024927136 -0.027634947 -0.015269203 -0.0026753522 0.10329216
0.057618544 0.036804467 0.019559283 -0.016098542 0.017028607 -0.012176534 -0.039291054 -0.03525603
-0.04925827 0.039549723 -0.04222114 -0.026852075 -0.0042354367 -0.026999999 0.05761845 0.00018777112
-0.032096278 -0.0163706 0.023364207 0.013240622 -0.0696907 -0.08764815 -0.07197774 -0.06479382
-0.09278907 -0.018397639 -0.030896055 -0.035486743 -0.05149977 -0.07631799 -0.043175597 0.010517516
-0.0035940409 -0.02300692 -0.110155486 -0.0027607277 -0.01786458 0.0015676602 -0.038185142 -0.060022924
0.02427658 0.028082518 -0.010778499 -0.06881888 -0.08230207 -0.03466149 -0.00059313216 -0.036256548
-0.05881956 0.014220882 -0.013175481 0.0048519257 -0.039601095 -0.0026783815 0.00047987825 -0.019729441
0.015651995 -0.017547159 0.010232739 -0.0042880205 0.0069300784 -0.018166622 0.018264474 0.008548944
0.003715225 0.006393893 0.019327547 0.013035216 0.0048357104 -0.015685365 0.033397682 0.02627335
-0.009885702 0.03867926 0.02459805 0.038619824 0.025455978 0.0040649194 0.0010192589 0.021933345
-0.004458142 -0.026345188 0.016085982 -0.030484421 0.018678766 -0.013167872 -0.00850887 -0.0386799
0.0029911736 0.029491542 -0.0041165245 0.002748593 -0.039257992 -0.024051119 0.008280633 -0.0134930145
-0.016919473 -0.024939423 -0.014249282 -0.028295057 -0.02952975 -0.018221712 -0.032009 -0.019663194
-0.030732684 -0.0024021366 -0.0042521753 -0.013846766 -0.06634328 -0.009543566 -0.03672673 -0.043411907
-0.0017091379 -0.026235 0.0055575883 -0.02752117 -0.008739692 -0.024416115 0.010146259 -0.030289115
0.017084759 -0.03870265 -0.016095035 0.042241216 0.05885181 0.013180898 0.04938989 0.0026728157
-0.023992809 0.026573371 -0.02799842 0.0115016885 -0.02895916 -0.039364215 -0.008905696 0.022987952
0.013474802 -0.026113857 0.023600085 0.020047052 -0.013787325 -0.010533466 -0.012846604 -0.002770831
-0.0018505196 0.024760714 0.0030446746 -0.036630772 -0.002211026 0.043536734 0.00859273 0.055106293
-0.0012386582 0.033789545 -0.025105495 0.017512437 0.047859132 -0.0006455136 -0.01900499 -0.023579326
-0.0020505276 0.019993652 -0.04524511 -0.03715591 -0.065508015 -0.0055847554 -0.041971434 -0.034498088
-0.049050394 -0.0331795 -0.02091628 -0.06803947 -0.03292445 -0.013323146 0.037312705 0.021761173
00000000: 5238 d8bb 118d 0b3b 2c2c b1bc ba67 933c
00000010: 3e87 2fbc 843d 58bc d4d9 7b3c d8bc c3bc
00000020: cedc ffbb 7419 76bd bb1d eabc 9204 28bd
00000030: 3c61 48bd 2d34 54bd 0ee7 a6bc 68ec 90bc
00000040: f5a7 d7ba c6ea 1c3b 377a b0bc 1d23 dbbc
00000050: 12db 26bd c768 6dbc a378 19bd 8bb7 e4ba
00000060: 1d9b 443c 1887 7b3b 6b34 ee3c cb1e 873c
00000070: dd76 7cbc eba5 33bd 6c92 943c 8d38 d7bc
00000080: e24a 49bd 90a8 25bc e395 6a3c 9c26 03bb
00000090: d8ab 91bc 5cf5 5ebd 5d73 13bd 77d7 f93c
000000a0: d26f f83b 37c3 a3bc c7d5 e8bc fe49 00bd
000000b0: 5a3c 2838 1a36 e2bb 9194 dc3b e7ef 79bc
000000c0: 2591 1d3c eba2 a93b 18a2 843c 6314 19bc
000000d0: 3576 e8bb 148e 183b ebc9 3a3d e631 09bc
000000e0: 9149 7bb8 c307 6fbc d6d0 e4bc e7c7 f8bc
000000f0: 0465 adbc b0b3 833b 76a2 543b 6dc0 14bb
00000100: 5d69 b4bc b640 acbb ab73 53bc a928 e4bc
00000110: 4527 b03c 3a67 093d a7b9 d33c 5d53 a23b
00000120: 0eba 5ebc deee adbb 77fc 3ebd fe33 cc3c
00000130: af62 e2bc ae2b 7abc f654 2fbb d78a d33d
00000140: 6c01 6c3d 48c0 163d ca3a a03c 17e1 83bc
00000150: 947f 8b3c 1680 47bc a8ef 20bd a068 10bd
00000160: 0ac3 49bd e4fe 213d 13f0 2cbd e2f8 dbbc
00000170: 6bc9 8abb 1a2f ddbc 5301 6c3d 6de4 4439
00000180: 6377 03bd a31b 86bc 4b66 bf3c 32ef 583c
00000190: ffb9 8ebd e080 b3bd 1169 93bd 9fb2 84bd
000001a0: 3208 bebd a5b6 96bc b919 fdbc 8c5a 11bd
000001b0: 6cf1 52bd 9b4c 9cbd e5d8 30bd a951 2c3c
000001c0: 008a 6bbb 0279 bcbc 3399 e1bd 53ed 34bb
000001d0: bd58 92bc f379 cd3a 0668 1cbd 99da 75bd
000001e0: aedf c63c 4f0d e63c 4d98 30bc eaf0 8cbd
000001f0: fd8d a8bd 35f9 0dbd 6d7c 1bba bf81 14bd
00000200: c7ec 70bd b4fe 683c f9dd 57bc e7fc 9e3b
00000210: c234 22bd c987 2fbb 2b98 fb39 a39f a1bc
00000220: 9d38 803c 0fbf 8fbc 38a7 273c 8682 8cbb
00000230: b615 e33b 2bd2 94bc 619f 953c df10 0c3c
00000240: 227b 733b dd83 d13b ce54 9e3c a991 553c
00000250: e174 9e3b 987e 80bc 02cc 083d 353b d73c
00000260: a4f7 21bc 256e 1e3d da81 c93c d22f 1e3d
00000270: 0e89 d03c 0433 853b a798 853a 8fad b33c
00000280: 9b15 92bb ddd1 d7bc c0c6 833c 77ba f9bc
00000290: 3604 993c 0fbe 57bc ca68 0bbc d16e 1ebd
000002a0: 9107 443b 3f98 f13c e9e3 86bb bd21 343b
000002b0: fdcc 20bd da06 c5bc 7eab 073c ce11 5dbc
000002c0: b59a 8abc c34d ccbc d275 69bc 09cb e7bc
000002d0: 60e8 f1bc b345 95bc df1b 03bd b514 a1bc
000002e0: 1cc3 fbbc 2a6d 1dbb d555 8bbb 8cdd 62bc
000002f0: fcde 87bd 9e5c 1cbc c56e 16bd afd0 31bd
00000300: 2705 e0ba c8ea d6bc 6e1c b63b 1474 e1bc
00000310: ed30 0fbc 4e04 c8bc 7f3c 263c e120 f8bc
00000320: 56f5 8b3c ac86 1ebd bcd9 83bc 2005 2d3d
00000330: 980e 713d b1f4 573c 0e4d 4a3d 682a 2f3b
00000340: 918c c4bc 66b0 d93c f15c e5bc 9471 3c3c
00000350: c33b edbc 5f3c 21bd 32e9 11bc 3b51 bc3c
00000360: 6ac5 5c3c baec d5bc f754 c13c b739 a43c
00000370: 3be4 61bc 8f94 2cbc 907a 52bc d596 35bb
00000380: 228d f2ba fbd6 ca3c 2a89 473b 260a 16bd
00000390: dce6 10bb 9353 323d 86c8 0c3c 23b7 613d
000003a0: 795a a2ba e866 0a3d 0aaa cdbc 3e76 8f3c
000003b0: f007 443d af37 29ba 5ab0 9bbc 6e29 c1bc
000003c0: 2562 06bb bac9 a33c f052 39bd cc30 18bd
000003d0: 1129 86bd 5300 b7bb 3dea 2bbd de4d 0dbd
000003e0: 11e9 48bd 3ae7 07bd 9e58 abbc 4758 8bbd
000003f0: cadb 06bd 5349 5abc 35d5 183d 7d44 b23c

conv2.bias f4 [64]
1.1090085e-05 7.0661017e-06 1.6815125e-05 4.1566826e-05 -4.4232775e-06 -4.39801e-05 3.401332e-05 -8.525287e-07
-2.7965407e-05 1.1461655e-05 2.9733317e-05 5.304704e-05 -2.5805122e-05 8.371404e-07 2.5904075e-05 -5.0580813e-05
8.888753e-06 3.0261157e-05 5.7779485e-05 2.2368135e-05 -1.690622e-05 -1.7631031e-05 -7.521034e-05 8.304885e-06
2.0030755e-05 -9.808572e-05 1.1429692e-05 -4.0534946e-05 3.573998e-05 2.5793431e-06 -8.886442e-06 -6.3179873e-06
2.3857697e-06 -6.082023e-06 -4.0173323e-05 8.123796e-06 -8.0654725e-05 1.307089e-05 -4.5579847e-05 -5.896093e-05
1.4962652e-05 -2.6097352e-05 1.4950241e-05 7.800028e-06 -1.0404194e-05 -7.973184e-06 -0.00014552557 2.3890234e-05
-9.6785e-06 6.711878e-05 8.9750265e-06 -7.885844e-06 6.262629e-05 4.540144e-05 8.542292e-05 3.0103613e-05
2.5341067e-05 4.293583e-06 1.3845989e-05 -1.8650666e-05 3.6857953e-05 -6.020887e-07 4.662506e-05 2.206441e-05
00000000: 8d0f 3a37 5a19 ed36 350e 8d37 0a58 2e38
00000010: aa6b 94b6 4677 38b8 86a9 0e38 53d9 64b5
00000020: 4197 eab7 6f4b 4037 d06b f937 d37e 5e38
00000030: 1478 d8b7 dab7 6035 944c d937 bc26 54b8
00000040: e720 1537 57d9 fd37 4058 7238 34a3 bb37
00000050: d5d1 8db7 5ae6 93b7 3eba 9db8 3655 0b37
00000060: b807 a837 5fb3 cdb8 27c2 3f37 1104 2ab8
00000070: 83e7 1538 c718 2d36 fa16 15b7 19ff d3b6
00000080: 361b 2036 2e14 ccb6 c77f 28b8 704b 0837
00000090: 2d25 a9b8 0c4b 5b37 fd2c 3fb8 d14c 77b8
000000a0: 1a08 7b37 a3eb dab7 ccd2 7a37 dddc 0237
000000b0: ac8d 2eb7 91c4 05b7 3998 18b9 e367 c837
000000c0: d760 22b7 1fc2 8c38 7293 1637 714d 04b7
000000d0: 3c56 8338 6d6d 3e38 1525 b338 0487 fc37
000000e0: 8793 d437 9911 9036 124c 6837 0074 9cb7
000000f0: ed97 1a38 389f 21b5 478f 4338 f616 b937

bn2.weight f4 [64]
0.9421204 0.8227773 0.9496123 0.9685856 0.9258927 0.9278386 1.0224688 0.9182824
0.9976859 0.9245252 0.9861038 0.9309725 1.0042944 0.7676845 0.88640606 1.0122865
0.8875651 0.96201026 0.99790204 0.9529172 0.91183764 0.9848581 1.1042343 0.99470645
0.9380905 0.96427447 0.90189445 0.92229587 1.0397835 0.9298363 0.9331559 0.93132377
0.9963594 0.96474963 1.0579945 0.913791 1.0138468 1.0521289 0.9494428 0.88403857
1.0156987 0.9251827 0.91782933 0.8960603 0.94088566 0.90587944 0.9300539 0.9618136
0.9162633 0.9544758 1.0370839 1.0011982 0.94598407 0.99332446 0.93124026 0.95082515
0.9513748 0.9085555 1.0702455 0.9253433 0.9220561 0.8917319 0.8455074 0.8972548
00000000: cd2e 713f 88a1 523f cb19 733f 3af5 773f
00000010: 4e07 6d3f d586 6d3f 42e0 823f 8e14 6b3f
00000020: 5868 7f3f afad 6c3f 4c71 7c3f 3754 6e3f
00000030: b88c 803f f986 443f 82eb 623f 9b92 813f
00000040: 7737 633f 4e46 763f 8276 7f3f 62f2 733f
00000050: 316e 693f a91f 7c3f 8d57 8d3f 15a5 7e3f
00000060: b326 703f b1da 763f 8ee2 663f 951b 6c3f
00000070: a017 853f c009 6e3f 4ee3 6e3f 3c6b 6e3f
00000080: 6911 7f3f d5f9 763f 5d6c 873f 35ee 693f
00000090: bbc5 813f 29ac 863f af0e 733f 5a50 623f
000000a0: 6a02 823f c6d8 6c3f ddf6 6a3f 3564 653f
000000b0: e2dd 703f b7e7 673f 0318 6e3f 6b39 763f
000000c0: 3b90 6a3f 8758 743f 2abf 843f 4327 803f
000000d0: 032c 723f 834a 7e3f c365 6e3f 4769 733f
000000e0: 4d8d 733f 1897 683f cefd 883f 4ce3 6c3f
000000f0: de0b 6c3f 8b48 643f 2c73 583f 7eb2 653f

bn2.bias f4 [64]
0.06361051 -0.17962962 0.09865024 0.06259647 0.01018306 0.051977653 0.19264561 0.08852606
0.04943186 0.097385906 0.050101843 0.1333187 0.08542619 -0.28013644 0.14499153 0.16774277
0.025988793 0.14328381 0.09550501 0.10621873 0.039992657 0.14895879 0.12769528 0.05025899
0.08672139 0.056622382 0.107546665 0.04753087 0.04165374 0.09775781 0.08557126 0.08797204
0.042225577 0.12670979 0.1483358 0.09438709 0.1454603 0.10856966 0.07960115 0.0732768
0.054604683 0.09705956 0.07086585 0.08233044 0.097087525 0.041136015 0.0647782 0.08253689
0.050361466 0.06600577 0.04362042 0.09273274 0.076939 0.049899947 0.030679256 0.13832933
0.04369013 0.09567425 0.1370754 0.03478903 0.072620474 0.07817388 0.17137805 0.11246517
00000000: 3a46 823d d4f0 37be 2309 ca3d 9432 803d
00000010: d9d6 263c 85e6 543d e444 453e 274d b53d
00000020: 1079 4a3d 4372 c73d 9737 4d3d b384 083e
00000030: edf3 ae3d 0b6e 8fbe a978 143e c3c4 2b3e
00000040: 73e6 d43c feb8 123e 2198 c33d 3589 d93d
00000050: 57cf 233d a788 183e 8dc2 023e 5fdc 4d3d
00000060: fc9a b13d dfec 673d 6d41 dc3d bbaf 423d
00000070: 1d9d 2a3d 3f35 c83d fc3f af3d af2a b43d
00000080: baf4 2c3d 36c0 013e 57e5 173e 054e c13d
00000090: 8bf3 143e c559 de3d ed05 a33d 2612 963d
000000a0: 29a9 5f3d 2ac7 c63d 1d22 913d dd9c a83d
000000b0: d3d5 c63d 3d7e 283d 6faa 843d 1a09 a93d
000000c0: d347 4e3d 082e 873d 53ab 323d aaea bd3d
000000d0: 3292 9d3d e363 4c3d 1053 fb3c 34a6 0d3e
000000e0: 6cf4 323d dcf0 c33d 7e5d 0c3e f17e 0e3d
000000f0: 0bba 943d a119 a03d ba7d 2f3e 2454 e63d

bn2.running_mean f4 [64]
-1.4215587 -0.4596903 -1.6247047 -1.0782278 -0.9225271 -3.4275107 -2.4514854 -1.4224615
-1.7208837 -1.359471 -0.8927747 -1.2478858 -1.4532197 0.25908002 -2.4413908 -1.6195639
-0.7194274 -2.2488894 -1.7551644 -1.7706051 -1.3846313 -1.7745868 -0.267703 -2.906867
-2.1487546 -4.11371 -1.1431209 -3.054772 -2.1006258 -2.104001 -1.0091876 -1.3285482
-1.250731 -1.6280174 -1.5725956 -1.2165381 -2.7575562 -1.1174337 -1.8554217 -1.3551939
-1.5026679 -1.4993564 -2.808656 -1.086663 -1.1286438 -1.639784 -1.4487995 -1.4454432
-1.6802217 -2.157605 -0.38848826 -1.089363 -2.141827 -0.7536702 -2.3679826 -2.0811586
-2.0537488 -1.1107981 -2.0568273 -2.1605322 -2.540089 -1.3873593 -2.2547262 -1.9361024
00000000: a3f5 b5bf 875c ebbe 53f6 cfbf 5e03 8abf
00000010: bc2a 6cbf 565c 5bc0 23e5 1cc0 3813 b6bf
00000020: eb45 dcbf 2503 aebf e28c 64bf b9ba 9fbf
00000030: 1a03 babf 23a6 843e bf3f 1cc0 df4d cfbf
00000040: 652c 38bf ceed 0fc0 3aa9 e0bf 30a3 e2bf
00000050: 993b b1bf a925 e3bf 5e10 89be 1c0a 3ac0
00000060: 3285 09c0 83a3 83c0 c951 92bf 6281 43c0
00000070: a770 06c0 f4a7 06c0 0f2d 81bf de0d aabf
00000080: f417 a0bf e062 d0bf d04a c9bf 85b7 9bbf
00000090: cd7b 30c0 1108 8fbf 757e edbf fe76 adbf
000000a0: 6c57 c0bf e9ea bfbf 05c1 33c0 c617 8bbf
000000b0: 6677 90bf 71e4 d1bf 4372 b9bf 4804 b9bf
000000c0: 8111 d7bf 3316 0ac0 efe7 c6be 3f70 8bbf
000000d0: b213 09c0 88f0 40bf 078d 17c0 b431 05c0
000000e0: 9f70 03c0 a22e 8ebf 0fa3 03c0 2946 0ac0
000000f0: d190 22c0 fd94 b1bf 6f4d 10c0 34d2 f7bf

bn2.running_var f4 [64]
4.676514 4.6863046 6.831468 5.310298 2.897761 2.93875 5.890786 7.6434417
4.7079415 6.9942527 4.830298 2.1131382 4.4407887 5.659405 2.800352 5.9341593
5.7408543 4.489323 2.1960409 4.3867264 7.272574 5.5977774 3.430998 4.639599
2.9237869 1.6303293 5.3255534 3.8365805 4.1089587 7.054304 8.510062 7.495459
5.5300927 5.6665535 5.037834 5.264336 5.8067226 3.7381809 5.7752423 5.2720475
4.2826586 7.0972233 2.798334 4.1762447 7.3550415 6.2146997 4.9678955 5.3841825
8.201952 3.0240428 3.1885753 3.5221913 3.0824764 3.7203083 3.0387487 5.3490343
4.182884 7.3125777 5.555379 3.9809098 5.5621843 6.8372455 3.0998385 3.7922673
00000000: 01a6 9540 35f6 9540 639b da40 f6ed a940
00000010: eb74 3940 7b14 3c40 5281 bc40 1397 f440
00000020: 75a7 9640 ebd0 df40 cd91 9a40 a83d 0740
00000030: f11a 8e40 d919 b540 f838 3340 a2e4 bd40
00000040: 14b5 b740 89a8 8f40 ef8b 0c40 1060 8c40
00000050: edb8 e840 fe20 b340 7995 5b40 9877 9440
00000060: 531f 3b40 a1ae d03f ef6a aa40 898a 7540
00000070: 977c 8340 dcbc e140 3729 0841 cdda ef40
00000080: 85f6 b040 6854 b540 f035 a140 7175 a840
00000090: acd0 b940 5b3e 6f40 c9ce b840 9db4 a840
000000a0: 8a0b 8940 741c e340 e717 3340 cca3 8540
000000b0: 805c eb40 d2de c640 00f9 9e40 394b ac40
000000c0: 323b 0341 eb89 4140 9e11 4c40 956b 6140
000000d0: 4b47 4540 8819 6e40 dc7a 4240 4a2b ab40
000000e0: 30da 8540 a300 ea40 aac5 b140 3ac7 7e40
000000f0: 6afd b140 b7ca da40 c163 4640 82b4 7240

conv3.weight f4 [128, 64, 3, 3]
-0.00025995035 -0.0061253784 -0.02632437 0.007541082 -0.024187293 -0.019520806 -0.011014326 -0.009708186
-0.006096999 -0.005345462 0.0029828919 0.017334396 0.015204277 0.017797299 -0.022626814 0.020915413
-0.01162681 0.0106105935 -0.05529204 0.0075571355 -0.016108222 -0.0053344783 0.016526634 0.012525931
0.0149685275 -0.016491413 -0.029209798 -0.030767325 -0.026722707 -0.0060590464 -0.018137792 0.019941367
0.0036315452 0.01678744 -0.0070238905 -0.017987788 -0.0035846592 -0.0183512 -0.05950633 0.0043586073
0.02954141 -0.03284543 -0.029389186 0.0008622464 0.00936799 -0.013938902 -0.024369132 -0.05500159
0.010248404 0.00076619623 -0.0055531412 -0.050203763 -0.031645082 -0.03665103 -0.023380743 0.021188587
-0.0018034503 0.042022344 0.05770091 0.044914722 0.010994526 -0.0003413844 -0.016431157 -0.02935714
0.036835626 0.010713546 -0.013601166 0.010563006 -0.0346256 0.024055865 -0.0070708618 -0.022352647
-0.0066860183 -0.014933891 -0.048906438 -0.011496108 0.050868634 0.020955376 -0.040026795 0.019737976
-0.017837929 -0.0042559835 0.020944113 0.01347896 -0.0251411 -0.008383356 0.009917812 0.007965442
8.4506646e-05 -0.022113377 0.009043784 -0.002834302 -0.013405913 0.012430905 -0.0010940708 0.024780082
-0.0037717088 -0.013911898 -0.006206915 0.015463609 -0.027838329 -0.028927814 0.005974601 0.013484714
0.0009595611 -0.0038977049 -0.024154102 -0.0005062214 -0.01135483 0.015690604 0.012488878 -0.0037780092
0.0077579943 0.011821286 -0.038861617 0.029216621 -0.008551361 0.020691138 0.01896507 0.012656322
0.030019663 0.027807798 -0.024029449 -0.026080254 0.016955158 0.04386203 -0.03291266 0.014000962
-0.03475253 0.018035993 -0.0014974871 0.009542606 -0.040037174 0.0054811663 -0.00024121618 -0.012205245
0.0575275 0.009835077 0.046792544 0.032642145 0.018947942 0.014341366 0.04228088 -0.0074428525
0.011902906 0.0097680865 0.018162023 0.012638284 0.01671781 0.032915983 -0.00958031 0.0012993258
-0.012835234 -0.0054255566 0.029221702 -0.030808093 -0.004177805 -0.007529492 0.013819839 -0.037495703
-0.0063833883 -0.055820778 -0.0008517731 -0.015104711 0.015393262 -0.010269861 -0.019823616 -0.0113153905
-0.0071917404 -0.017479649 0.0018628167 0.002900833 0.008062669 0.015041977 -0.016133126 0.043560486
-0.0027656562 -0.053638987 -0.004567097 0.008258897 0.0022114944 0.012103767 -0.008478077 0.003607949
0.021923458 -0.02278137 -0.020430373 -0.012960304 -0.020374373 0.010250807 0.025085872 -0.009156866
-0.00019501917 0.041854843 0.026315985 0.0203125 0.05161539 -0.014767856 0.02539999 -0.020665681
0.008108564 0.0016168383 0.0044287043 0.027679812 0.004073516 -0.009978534 -0.0063411896 -0.042030543
-0.021791562 -0.058405492 0.02076054 0.025143916 -0.0087213265 -0.02940222 -0.023263333 -0.071590446
-0.05996372 0.01573914 -0.028443106 -0.044152036 0.004654658 -0.030923286 -0.005491812 0.028898783
-0.013844724 -0.066970326 -0.015648583 -0.048312336 -0.00081520015 0.00824892 -0.0071135256 -0.042532258
-0.03157565 -0.078724965 0.021416068 0.0006978505 0.015002116 -0.02517516 -0.0032256914 -0.03987661
0.015564558 0.0015141141 -0.004312639 -0.06609933 -0.037516527 -0.05172088 -0.0006177293 -0.021778235
-0.005569565 -0.033299208 0.00030172715 -0.035138734 -0.06964037 -0.00080829556 -0.03613853 -0.025068302
00000000: f249 88b9 66b7 c8bb 35a6 d7bc 2e1b f73b
00000010: 6e24 c6bc 19ea 9fbc 6e75 34bc 150f 1fbc
00000020: 56c9 c7bb fc28 afbb 9f7c 433b dd00 8e3c
00000030: 5c1b 793c a4cb 913c de5b b9bc cd56 ab3c
00000040: 607e 3ebc 0ed8 2d3c e879 62bd d9a1 f73b
00000050: 64f5 83bc d9cc aebb dd62 873c 9039 4d3c
00000060: 8e3e 753c 0019 87bc 6349 efbc c20b fcbc
00000070: 94e9 dabc f78a c6bb b595 94bc 145c a33c
00000080: 38ff 6d3b d085 893c aa28 e6bb 205b 93bc
00000090: 9aec 6abb 4155 96bc e9bc 73bd a6d2 8e3b
000000a0: d400 f23c ee88 06bd 97c1 f0bc 6008 623a
000000b0: 337c 193c fe5f 64bc c6a1 c7bc 5949 61bd
000000c0: ece8 273c 8fda 483a 20f7 b5bb 76a2 4dbd
000000d0: 469e 01bd 641f 16bd f988 bfbc b093 ad3c
000000e0: c061 ecba 9f1f 2c3d ca57 6c3d 80f8 373d
000000f0: 6222 343c d7fb b2b9 a29a 86bc 637e f0bc
00000100: f4e0 163d de87 2f3c 6dd7 5ebc 7510 2d3c
00000110: 93d3 0dbd ce10 c53c b0b2 e7bb e61c b7bc
00000120: 6316 dbbb 47ad 74bc 1e52 48bd 2c5a 3cbc
00000130: a15b 503d 9caa ab3c 23f3 23bd 89b1 a13c
00000140: d920 92bc c775 8bbb fd92 ab3c dbd6 5c3c
00000150: b5f4 cdbc 585a 09bc 527e 223c 7c81 023c
00000160: 2939 b138 1d27 b5bc 612c 143c b2bf 39bb
00000170: 79a4 5bbc ffaa 4b3c ed66 8fba 99ff ca3c
00000180: c62e 77bb bbee 63bc 6063 cbbb 145b 7d3c
00000190: 350d e4bc 06fa ecbc 96c6 c33b fdee 5c3c
000001a0: 0e8b 7b3a a370 7fbb d3de c5bc f1b3 04ba
000001b0: 9c09 3abc 9589 803c 279e 4c3c 7a98 77bb
000001c0: c636 fe3b 11ae 413c 5c2d 1fbd b257 ef3c
000001d0: 021b 0cbc 7680 a93c a25c 9b3c 765c 4f3c
000001e0: cceb f53c 2ecd e33c 68d9 c4bc 42a6 d5bc
000001f0: 8be5 8a3c aca8 333d 6dcf 06bd 4a64 653c
00000200: ab58 0ebd 38c0 933c 5447 c4ba 9758 1c3c
00000210: 05fe 23bd 5b9b b33b faee 7cb9 82f8 47bc
00000220: f5a1 6b3d 4e23 213c 8aa9 3f3d c5b3 053d
00000230: b738 9b3c 0cf8 6a3c b72e 2d3d 2ce3 f3bb
00000240: 6804 433c 530a 203c 86c8 943c ce10 4f3c
00000250: caf3 883c e9d2 063d bcf6 1cbc 244e aa3a
00000260: e04a 52bc dec8 b1bb 5a62 ef3c 4161 fcbc
00000270: f8e5 88bb f5b9 f6bb 9b6c 623c 1895 19bd
00000280: be2b d1bb 54a4 64bd 8649 5fba c079 77bc
00000290: 0534 7c3c eb42 28bc 2365 a2bc 3064 39bc
000002a0: b1a8 ebbb 7b31 8fbc c229 f43a e71b 3e3b
000002b0: 4919 043c a072 763c 9e29 84bc 7b6c 323d
000002c0: 0340 35bb 8eb4 5bbd 96a7 95bb 5350 073c
000002d0: b8ee 103b e14e 463c a2e7 0abc 5773 6c3b
000002e0: d398 b33c ff9f babc 995d a7bc 7457 54bc
000002f0: 28e8 a6bc 00f3 273c e380 cd3c ae06 16bc
00000300: 0f7e 4cb9 fc6f 2b3d 9f94 d73c 6666 a63c
00000310: a96a 533d e1f4 71bc a413 d03c 134b a9bc
00000320: c8d9 043c 17ec d33a aa1e 913b c6c0 e23c
00000330: 217b 853b 017d 23bc c1c9 cfbb 3828 2cbd
00000340: 3884 b2bc 993a 6fbd 0212 aa3c 9dfa cd3c
00000350: e5e3 0ebc eddc f0bc bf92 bebc 039e 92bd
00000360: 859c 75bd 5eef 803c 8401 e9bc c4d8 34bd
00000370: 1a86 983b d552 fdbc a8f4 b3bb 24bd ec3c
00000380: fbd4 62bc bd27 89bd 7531 80bc 28e3 45bd
00000390: 28b3 55ba 7a26 073c 9418 e9bb 4e36 2ebd
000003a0: 7855 01bd 8e3a a1bd c070 af3c f4ef 363a
000003b0: 6fcb 753c 233c cebc 1f66 53bb a855 23bd
000003c0: 7d02 7f3c 3d75 c63a 0a51 8dbb 165f 87bd
000003d0: eeaa 19bd 46d9 53bd 1def 21ba 4568 b2bc
000003e0: e680 b6bb c064 08bd 2231 9e39 a2ed 0fbd
000003f0: 9c9f 8ebd cce3 53ba ff05 14bd 0a5c cdbc

conv3.bias f4 [128]
-1.7272444e-06 -3.8469e-05 -2.365962e-05 -1.1540768e-05 -3.313876e-05 -2.1777405e-06 -2.3400149e-05 -2.8473523e-05
6.641742e-05 -9.038591e-05 2.1448275e-05 7.3979296e-05 3.6195976e-05 -1.9642966e-05 1.7424069e-06 -6.961048e-06
2.3618497e-06 -2.0002646e-05 8.6709115e-05 -1.4033709e-06 -4.189575e-06 -2.1692442e-05 0.00014500096 0.000110175606
7.99919e-07 4.260028e-05 -6.642826e-05 3.1651425e-06 7.2667217e-06 2.4067078e-05 -1.7613273e-05 -5.652018e-06
-5.6257362e-05 -2.745668e-06 6.9860007e-06 -2.2830496e-05 1.588735e-05 -1.5422766e-05 6.283901e-05 -1.6584711e-06
-3.4929074e-06 1.8323757e-05 1.4986445e-07 2.9492705e-05 -7.510906e-06 1.8926241e-05 8.9882094e-05 -6.8321874e-06
5.719183e-05 6.021642e-06 -2.9746698e-05 -1.86525e-05 2.0573203e-05 -0.00013696133 -4.06492e-06 3.5860267e-05
3.0850038e-06 1.8422648e-05 8.6663044e-07 -2.0914631e-05 6.0495886e-06 -6.0454986e-05 0.0002967256 7.5814196e-06
0.00024904782 -5.5792054e-05 2.495823e-05 -2.7543547e-07 -9.125706e-06 -0.00011886034 0.00048190317 -1.1913908e-05
1.2703695e-05 9.4485995e-06 3.6070694e-05 6.962373e-06 1.1681559e-05 -2.496308e-05 4.6446576e-06 -7.497372e-05
8.629915e-06 -2.8336892e-05 3.885664e-06 -1.3161257e-05 5.9741183e-06 1.5034899e-05 -3.9088354e-05 8.716249e-06
2.9036477e-05 -3.0974617e-05 -2.5466728e-05 2.0876461e-05 -0.00010068158 -9.3064016e-05 -2.3210669e-06 -0.00012643408
-7.0633294e-05 -1.0623454e-05 -4.3013265e-06 -5.0414583e-05 1.0764549e-05 -3.3520364e-06 1.4846543e-06 -6.06765e-06
-4.3718933e-06 -7.2566116e-05 -1.2468304e-05 5.5685094e-05 -2.1883312e-05 1.4070887e-05 -2.8786524e-05 1.0961968e-05
-4.806941e-05 -1.3997391e-05 -5.9872593e-05 -1.3979284e-05 3.0700228e-06 -2.0158723e-05 -5.781192e-06 4.5373034e-07
2.7431895e-05 1.4197625e-05 -1.3833207e-05 8.984993e-06 -1.0486221e-05 -6.500493e-05 2.092351e-05 -1.8093434e-06
00000000: aad3 e7b5 c659 21b8 a678 c6b7 399f 41b7
00000010: 79fe 0ab8 4c25 12b6 704b c4b7 6dda eeb7
00000020: 9549 8b38 918d bdb8 d2eb b337 5525 9b38
00000030: 22d1 1738 f3c6 a4b7 a5dc e935 f292 e9b6
00000040: 4580 1e36 5bcb a7b7 9ad7 b538 755b bcb5
00000050: 2d94 8cb6 2af8 b5b7 660b 1839 140e e738
00000060: 04ba 5635 b4ad 3238 674f 8bb8 bc68 5436
00000070: aad4 f336 a8e3 c937 37c0 93b7 77a6 bdb6
00000080: e2f5 6bb8 3842 38b6 4a69 ea36 1e84 bfb7
00000090: d345 8537 2360 81b7 70c8 8338 a298 deb5
000000a0: b167 6ab6 f8b5 9937 6dea 2034 1a67 f737
000000b0: 3106 fcb6 cbc3 9e37 157f bc38 0b40 e5b6
000000c0: 43e1 6f38 830d ca36 8c88 f9b7 f077 9cb7
000000d0: 9e94 ac37 479d 0fb9 6665 88b6 ab68 1638
000000e0: f607 4f36 568a 9a37 64a2 6835 d471 afb7
000000f0: 92fd ca36 0c91 7db8 d691 9b39 e663 fe36
00000100: a292 8239 4302 6ab8 645d d137 90df 93b4
00000110: 9c1a 19b7 a944 f9b8 f3a7 fc39 d8e1 47b7
00000120: f421 5537 6d85 1e37 9d4a 1738 549e e936
00000130: eafb 4337 ce67 d1b7 4ed9 9b36 363b 9db8
00000140: 34c9 1037 03b5 edb7 9961 8236 2bcf 5cb7
00000150: 4975 c836 663e 7c37 cdf2 23b8 013c 1237
00000160: 5c93 f337 beea 01b8 62a1 d5b7 dc1f af37
00000170: 0325 d3b8 5d2b c3b8 a0c3 1bb6 6493 04b9
00000180: f620 94b8 633b 32b7 1d54 90b6 3f74 53b8
00000190: 6399 3437 8cf3 60b6 5544 c735 b798 cbb6
000001a0: 47b2 92b6 a32e 98b8 f52e 51b7 6a8f 6938
000001b0: 0e92 b7b7 0012 6c37 977a f1b7 4be9 3737
000001c0: 239e 49b8 56d6 6ab7 b51f 7bb8 9188 6ab7
000001d0: 9706 4e36 871a a9b7 10fc c1b6 3998 f334
000001e0: 8c1d e637 5632 6e37 2c15 68b7 40be 1637
000001f0: faed 2fb7 4253 88b8 e584 af37 91d8 f2b5

bn3.weight f4 [128]
1.1450613 1.149265 1.3109299 1.1738068 1.2900189 1.1655223 1.165144 1.2513219
1.2429734 1.1584466 1.1610583 1.310859 1.2197728 1.2290993 1.1634164 1.1897788
1.2002735 1.2264478 1.2680262 1.1371782 1.2618736 1.2462605 1.2131054 1.1621647
1.1955944 1.0783495 1.3119109 1.2192955 1.1737871 1.1806191 1.2423966 1.2259495
1.0386028 1.2304926 1.1738266 1.2623875 1.037036 1.2108284 1.3030539 1.1506171
1.1529874 1.113278 1.1822368 1.2054573 1.1121789 1.143276 1.2865608 1.1036642
1.189068 1.2517412 1.1473244 1.3155636 1.164661 1.2228817 1.1442024 1.2208467
1.1742382 1.1569202 1.2760359 1.2644407 1.1644353 1.0923903 1.2463086 1.1918701
1.199736 1.1709902 1.1683024 1.1634 1.1538012 1.1368705 1.2936928 1.1225691
1.1809801 1.1946045 1.1824272 1.1890355 1.1407881 1.23223 1.2289165 1.1676922
1.1852597 1.1745559 1.269694 1.1444252 1.1331481 1.1902931 1.3064255 1.2271261
1.1401811 1.2694671 1.2348363 1.2867178 1.210252 1.2370759 1.2338368 1.2507933
1.228763 1.1845165 1.2967483 1.2771633 1.2665217 1.1546422 1.1513056 1.2820679
1.1726593 1.2608708 1.2234339 1.2524656 1.2477884 1.2036498 1.2342802 1.1634743
1.2167307 1.1575063 1.1641984 1.1376725 1.1134148 1.2175289 1.2461069 1.2198025
1.1801853 1.094376 1.1812632 1.1911387 1.2462002 1.1489981 1.1740973 1.1969028
00000000: 5e91 923f 1e1b 933f 8dcc a73f 4d3f 963f
00000010: 571f a53f d62f 953f 7023 953f 512b a03f
00000020: c119 9f3f fa47 943f 8f9d 943f 3aca a73f
00000030: 8421 9c3f 2053 9d3f d4ea 943f ac4a 983f
00000040: 90a2 993f 3efc 9c3f af4e a23f 0e8f 913f
00000050: 1385 a13f 7785 9f3f 0a47 9b3f d0c1 943f
00000060: 3d09 993f 5b07 8a3f b2ec a73f e011 9c3f
00000070: a83e 963f 871e 973f da06 9f3f eaeb 9c3f
00000080: f0f0 843f c880 9d3f f33f 963f ea95 a13f
00000090: 98bd 843f 6dfc 9a3f 78ca a63f 6c47 933f
000000a0: 1795 933f e57f 8e3f 8953 973f 6d4c 9a3f
000000b0: e15b 8e3f de56 923f 06ae a43f de44 8d3f
000000c0: 6133 983f 0e39 a03f 87db 923f 6364 a83f
000000d0: 9d13 953f 6387 9c3f 3975 923f b444 9c3f
000000e0: 704d 963f f615 943f 2555 a33f 31d9 a13f
000000f0: 370c 953f 72d3 8b3f 0a87 9f3f 338f 983f
00000100: f390 993f 02e3 953f ef8a 953f 4bea 943f
00000110: c2af 933f f984 913f ba97 a53f 58b0 8f3f
00000120: 5b2a 973f cde8 983f c659 973f 5132 983f
00000130: 5805 923f b6b9 9d3f 234d 9d3f f076 953f
00000140: 97b6 973f d957 963f 5585 a23f 867c 923f
00000150: ff0a 913f 865b 983f f338 a73f 7812 9d3f
00000160: 74f1 913f e67d a23f 1e0f 9e3f 2bb3 a43f
00000170: 8ae9 9a3f 8158 9e3f 5dee 9d3f ff19 a03f
00000180: 1b48 9d3f 3d9e 973f d9fb a53f 167a a33f
00000190: 621d a23f 51cb 933f fb5d 933f cd1a a43f
000001a0: b319 963f 3764 a13f 7b99 9c3f cb50 a03f
000001b0: 88b7 9f3f 3211 9a3f e5fc 9d3f baec 943f
000001c0: d5bd 9b3f 2b29 943f 7404 953f 419f 913f
000001d0: 6084 8e3f fdd7 9b3f 6e80 9f3f 7d22 9c3f
000001e0: 5010 973f 8314 8c3f a233 973f 3c77 983f
000001f0: 7d83 9f3f 5f12 933f d248 963f 1c34 993f

bn3.bias f4 [128]
0.15924585 0.086865135 0.033649128 0.19283958 0.05929733 0.1824611 0.17590807 0.06697851
0.001619795 0.15796204 0.1686813 0.021256905 0.031207886 0.07877677 0.17352036 0.19487941
0.07069499 -0.011445922 0.08772429 0.15155277 0.10853001 -0.038450494 0.07468795 0.016407592
0.20668437 0.09068766 0.054374043 0.0451826 0.19611233 0.20055069 -0.012691806 0.084503174
0.05169618 0.04562178 0.079013646 -0.012400241 0.07608585 0.2075165 0.10017022 0.16855514
0.15441044 0.12866579 0.1905315 0.09182093 0.12442762 0.15531172 -0.0072991466 0.11874556
0.05795192 -0.012491715 0.15361701 0.04778306 0.1758108 -0.0016158284 0.026483182 0.109892234
0.1728283 -0.027551766 0.09940359 0.06743894 0.17074871 0.024608595 -0.03402437 0.19282094
0.052516542 0.07935451 0.17736456 0.18054676 0.15726586 0.14171937 0.03799394 0.13150805
0.18812059 0.18167335 0.051139817 0.18661849 0.16002233 0.05568734 0.2259967 0.1777295
0.2004974 0.18385416 -0.007022986 0.1623565 0.010090657 0.20555855 0.008258142 0.060253903
0.15159221 0.09821937 0.02503215 0.09319596 -0.0137991 0.09348255 0.054769706 -0.037423532
0.05788891 0.2021773 0.10191087 0.019426452 0.13165098 0.059651874 0.15959895 0.02932392
0.18097712 -0.037077755 0.094107985 0.08198371 0.12773892 0.20847006 0.09944937 0.18011387
0.08154929 0.16058269 0.17688915 0.1513225 0.11719865 0.0030029153 -0.010456821 0.103616275
0.18806544 0.05113209 -0.0362838 0.19685926 -0.0031159976 0.1550874 0.004903323 0.104761995
00000000: 5811 233e 59e6 b13d abd3 093d bd77 453e
00000010: c2e1 723d 15d7 3a3e 3f21 343e 072c 893d
00000020: 4d4f d43a cdc0 213e caba 2c3e f622 ae3c
00000030: aea7 ff3c b755 a13d 52af 313e 788e 473e
00000040: 89c8 903d ad87 3bbc cba8 b33d a630 1b3e
00000050: fb44 de3d 447e 1dbd fff5 983d 3769 863c
00000060: 11a5 533e 74ba b93d 51b7 5e3d 6411 393d
00000070: acd1 483e 295d 4d3e 4bf1 4fbc 0010 ad3d
00000080: 60bf 533d e7dd 3a3d e8d1 a13d 612a 4bbc
00000090: e6d2 9b3d 357f 543e 0b26 cd3d b899 2c3e
000000a0: c51d 1e3e f7c0 033e b11a 433e 9d0c bc3d
000000b0: e8d3 fe3d 090a 1f3e ae2d efbb df30 f33d
000000c0: fe5e 6d3d 0daa 4cbc c74d 1d3e 2cb8 433d
000000d0: bf07 343e 34ca d3ba 42f3 d83c 2e0f e13d
000000e0: e7f9 303e 3eb4 e1bc 1c94 cb3d 6d1d 8a3d
000000f0: c0d8 2e3e f797 c93c 235d 0bbd da72 453e
00000100: 961b 573d 9e84 a23d 0e9f 353e 40e1 383e
00000110: 4d0a 213e e21e 113e 899f 1b3d 0caa 063e
00000120: afa2 403e 9408 3a3e fc77 513d eb18 3f3e
00000130: e5dc 233e 6918 643d ae6b 673e b9fe 353e
00000140: 314f 4d3e 4444 3c3e 1421 e6bb c840 263e
00000150: 4853 253c f17d 523e 284d 073c cccc 763d
00000160: fd3a 1b3e 3d27 c93d 3910 cd3c 86dd be3d
00000170: 9f15 62bc c773 bf3d 3356 603d 6b49 19bd
00000180: ec1c 6d3d 9107 4f3e a5b6 d03d 3924 9f3c
00000190: 84cf 063e 8655 743d e86d 233e b838 f03c
000001a0: 1152 393e d8de 17bd b0bb c03d 13e7 a73d
000001b0: fecd 023e 2d79 553e 1cac cb3d c56f 383e
000001c0: 5003 a73d ca6f 243e 6e22 353e 49f4 1a3e
000001d0: d905 f03d 8fcc 443b 1653 2bbc c534 d43d
000001e0: 3a94 403e e26f 513d 529e 14bd 7995 493e
000001f0: c435 4cbb 3bcf 1e3e 0eac a03b 758d d63d

bn3.running_mean f4 [128]
-0.8156556 -0.26889092 -1.3785032 -0.7646671 -0.64568543 -0.88457584 -0.858505 -1.0562439
-1.5386506 -0.59132963 -0.42828763 -1.0896829 -1.2318219 -0.7075553 -0.6696179 -0.8158403
-0.8577562 -1.239806 -0.89195037 -1.089603 -0.78366643 -1.5826668 -0.738811 -1.2663352
-0.77263945 1.0219849 -1.2048805 -0.9866221 -0.89099133 -0.8895949 -1.5370613 -0.8495634
1.1196855 -1.0035698 -0.31130674 -1.3240218 -0.36802012 -0.8206797 -0.91726273 -0.67841333
-0.47674537 -0.8441344 -0.54803854 -0.17517382 0.07377348 -0.8877679 -1.4820725 -0.03061887
0.48175257 -1.5890965 0.12297897 -1.3433895 -0.82471323 -1.5951419 -1.635806 -0.44785485
-0.47681645 -1.5738397 -0.68743294 -0.60979426 -0.9865525 -1.0039053 -1.5254756 -0.9349418
-1.2799271 -0.7732183 -0.94992024 -0.8660394 -0.8735374 -0.41891032 -1.3345383 -0.84580755
-0.6667099 -0.581399 -0.9972117 -0.1256155 -0.75357825 -1.3420371 -0.49275467 -0.43522158
-0.89749134 -0.8246 -1.5400375 -0.9817702 0.9015091 -0.86813027 -1.4317487 -0.85341644
-0.94785166 -0.95967335 -1.1862276 -0.76855564 -1.5535454 -0.99284714 -1.1671604 -1.2465961
-0.80295265 -0.84394944 -0.6841795 -1.5607578 -0.6020108 -0.24193314 -0.96846396 -1.50256
-0.85128814 -1.3404015 -0.570669 -0.70630395 -0.19167379 -0.75425375 -0.4484191 -0.7030412
-0.9979823 -0.5849534 -0.76075673 -0.76765543 -0.3219473 -1.4969375 -1.5263243 -0.3975773
-0.74481976 -0.34973004 -1.3481956 -0.83274126 -1.333092 -0.933205 -1.4645741 -0.13091323
00000000: cece 50bf 12ac 89be cb72 b0bf 39c1 43bf
00000010: a44b 25bf 9073 62bf fcc6 5bbf 0033 87bf
00000020: 81f2 c4bf 6161 17bf 8448 dbbe bb7a 8bbf
00000030: 57ac 9dbf 5822 35bf 146c 2bbf e9da 50bf
00000040: e995 5bbf f7b1 9ebf dc56 64bf 1c78 8bbf
00000050: 5d9e 48bf d394 cabf b822 3dbf 4617 a2bf
00000060: b3cb 45bf 67d0 823f 8639 9abf 4493 7cbf
00000070: 0218 64bf 7ebc 63bf 6dbe c4bf fd7c 59bf
00000080: db51 8f3f fa74 80bf 9963 9fbe 8c79 a9bf
00000090: 226d bcbe 1118 52bf bbd1 6abf 7fac 2dbf
000000a0: f817 f4be 3119 58bf 414c 0cbf c460 33be
000000b0: 8d16 973d c244 63bf 8db4 bdbf 6dd4 fabc
000000c0: 46a8 f63e 8467 cbbf 66dc fb3d 30f4 abbf
000000d0: 6820 53bf 9c2d ccbf 1762 d1bf 3b4d e5be
000000e0: 4921 f4be 9473 c9bf 9bfb 2fbf 7a1b 1cbf
000000f0: b48e 7cbf f87f 80bf c942 c3bf 5958 6fbf
00000100: a7d4 a3bf a2f1 45bf f92d 73bf c2b4 5dbf
00000110: 26a0 5fbf 6a7b d6be 27d2 aabf d886 58bf
00000120: 80ad 2abf 91d6 14bf 4449 7fbf 5aa1 00be
00000130: 81ea 40bf dfc7 abbf 574a fcbe 5dd5 debe
00000140: fec1 65bf fc18 53bf f31f c5bf 4b55 7bbf
00000150: 4dc9 663f c93d 5ebf 8b43 b7bf 8079 5abf
00000160: 68a6 72bf 27ad 75bf 4ed6 97bf 10c0 44bf
00000170: 93da c6bf 3b2b 7ebf 8365 95bf 7690 9fbf
00000180: 4e8e 4dbf 120d 58bf 6326 2fbf e9c6 c7bf
00000190: 611d 1abf 52bd 77be 41ed 77bf e353 c0bf
000001a0: 05ee 59bf 4792 abbf 5d17 12bf 56d0 34bf
000001b0: 2246 44be c616 41bf 3097 e5be 82fa 33bf
000001c0: c57b 7fbf 82bf 15bf f4c0 42bf 1185 44bf
000001d0: 47d6 a4be a69b bfbf 985e c3bf 408f cbbe
000001e0: 82ac 3ebf d10f b3be ac91 acbf 882e 55bf
000001f0: c2a2 aabf 86e6 6ebf 2a77 bbbf 1e0e 06be

bn3.running_var f4 [128]
0.17786051 0.058652934 0.11910346 0.1914995 0.08206624 0.21114312 0.20839027 0.0985886
0.11088471 0.179629 0.118244916 0.077606134 0.10186274 0.091948725 0.18352386 0.1966363
0.0810806 0.07107064 0.10450213 0.2657908 0.09309611 0.089367986 0.059680197 0.087156534
0.21229984 0.15465654 0.07920488 0.15682112 0.24169491 0.21037467 0.07975977 0.081683226
0.08334759 0.08253529 0.071276754 0.076960765 0.18907873 0.20088646 0.08892668 0.19981793
0.17927237 0.17927991 0.16375133 0.074374616 0.12613928 0.22142513 0.07983182 0.15422398
0.052685767 0.102160595 0.116979636 0.09369594 0.23419237 0.09654489 0.123305984 0.075620584
0.2058647 0.09496345 0.10334771 0.08492009 0.24874875 0.12368444 0.07704459 0.2589571
0.092611596 0.06851447 0.22775608 0.2255723 0.18790899 0.14654633 0.107660554 0.20297493
0.2009292 0.14869721 0.08459131 0.14315073 0.19791418 0.1062352 0.15344797 0.19026783
0.26127955 0.21212855 0.0958849 0.2180882 0.052825965 0.20869288 0.07923616 0.089361355
0.26712823 0.113988645 0.08801154 0.091924444 0.11614067 0.07251877 0.09278979 0.069537655
0.08879276 0.23604588 0.060460065 0.088381805 0.08077017 0.087582484 0.24254309 0.07829213
0.24095803 0.06841985 0.06701238 0.07822641 0.07139114 0.17473699 0.07355186 0.21288346
0.07501792 0.16948201 0.21957774 0.20910461 0.1817819 0.12267215 0.08607979 0.08367651
0.22151059 0.09247604 0.09426354 0.18677549 0.07929419 0.26124352 0.10260788 0.068197176
00000000: 1121 363e 0f3e 703d 84ec f33d 7218 443e
00000010: 5812 a83d e735 583e 4264 553e d2e8 c93d
00000020: 8617 e33d aaf0 373e 642a f23d f7ef 9e3d
00000030: 6a9d d03d 9d4f bc3d aeed 3b3e 075b 493e
00000040: 960d a63d 7c8d 913d 3605 d63d bb15 883e
00000050: 2ca9 be3d 9006 b73d 3973 743d 207f b23d
00000060: 2165 593e 495e 1e3e 2b36 a23d b795 203e
00000070: df7e 773e 756c 573e 1759 a33d 8949 a73d
00000080: 24b2 aa3d 4308 a93d 8cf9 913d 9b9d 9d3d
00000090: db9d 413e 2eb5 4d3e 311f b63d 129d 4c3e
000000a0: 2d93 373e 2795 373e 6eae 273e b851 983d
000000b0: a82a 013e 45bd 623e de7e a33d e4ec 1d3e
000000c0: 08cd 573d 9339 d13d 0593 ef3d a8e3 bf3d
000000d0: 20d0 6f3e 54b9 c53d d987 fc3d f7de 9a3d
000000e0: 32ce 523e 337c c23d f7a7 d33d 96ea ad3d
000000f0: feb7 7e3e 454e fd3d 8ec9 9d3d 0696 843e
00000100: 26ab bd3d 5051 8c3d e438 693e 6dfc 663e
00000110: 376b 403e 3e10 163e 237d dc3d a9d8 4f3e
00000120: 62c0 4d3e 1544 183e 353e ad3d 1b96 123e
00000130: 04aa 4a3e d791 d93d 7721 1d3e 92d5 423e
00000140: 6fc6 853e 3a38 593e 4d5f c43d 8352 5f3e
00000150: 0a60 583d 96b3 553e 9146 a23d 1603 b73d
00000160: 08c5 883e e172 e93d 653f b43d e242 bc3d
00000170: 29db ed3d b984 943d 9308 be3d c269 8e3d
00000180: fbd8 b53d 03b6 713e f9a4 773d 8501 b53d
00000190: d56a a53d 725e b33d 375d 783e a057 a03d
000001a0: b4bd 763e b51f 8c3d c93d 893d 2b35 a03d
000001b0: 8535 923d 41ee 323e 5ca2 963d 1ffe 593e
000001c0: ffa2 993d b18c 2d3e fdd8 603e 851f 563e
000001d0: 0925 3a3e 893b fb3d 9a4a b03d 975e ab3d
000001e0: acd3 623e 1464 bd3d 3e0d c13d 1342 3f3e
000001f0: fe64 a23d b6c1 853e 1524 d23d f6aa 8b3d
