results_10balls_2/simple_20250325_153109/best_model.pth (torch, 520034 bytes, 20 tensors)

conv1.weight f4 [32, 1, 5, 5]
0.23718572 0.21794868 -0.0359071 0.1748229 -0.02448619 0.043937065 -0.11532118 0.04138563
0.10832351 -0.14967248 0.14970766 -0.003307871 0.073258996 -0.036821883 0.07524835 -0.027245808
0.11740468 -0.014467958 -0.11760688 0.03296482 -0.09423525 -0.041749325 -0.11867817 0.09107615
-0.17052758 -0.055603176 -0.038150303 -0.096821435 0.030984284 -0.17540935 0.20371112 -0.13569269
0.149686 0.043407287 -0.052665498 0.15578844 0.05393922 0.1652315 0.018366888 -0.0466932
0.08205492 -0.032585494 0.08734199 0.17143016 0.12616268 -0.06502329 0.14857715 0.053235356
0.108446695 -0.10298271 -0.208922 -0.09088905 -0.16633098 0.14110291 0.045373034 0.059246514
0.04107593 -0.021098705 0.13596112 -0.1533105 -0.009108475 -0.1530221 0.042991187 -0.08251259
0.045598455 -0.047134366 0.13826974 -0.12915999 -0.120111585 -0.119782984 0.20055228 0.060120035
0.17610341 -0.15559094 -0.18465404 -0.13743661 -0.12732975 0.07454702 0.07947211 0.20281382
-0.101652846 -0.13973588 0.08850148 -0.07676493 0.1338559 -0.043860827 0.09618579 -0.16329238
-0.10215264 0.065612175 0.03265113 -0.069729194 0.098999575 0.12657657 -0.12928915 -0.11715405
0.152308 -0.07751276 -0.07904982 -0.17607509 -0.09981606 0.044707872 -0.007891456 -0.06585543
-0.013075924 -0.12392204 -0.09032593 -0.024092788 -0.07122528 -0.04140932 0.2073105 0.0057084537
0.06441376 -0.07826227 -0.038819768 -0.045922797 0.047724277 -0.11377789 -0.0039643315 -0.0369087
0.017895171 -0.04864001 0.0071724057 -0.07649256 -0.07823722 -0.11426188 -0.060899064 -0.15960173
0.15613309 -0.055120166 0.17197214 0.058581125 -0.163624 0.13264573 -0.062058214 -0.07753514
-0.17302662 -0.19765206 0.055949494 -0.044546105 0.079609394 -0.17167908 0.1338831 -0.14789239
-0.030023767 0.06876459 0.10107021 0.15625577 0.18235819 -0.15138167 0.043267053 -0.10105556
-0.05035313 -0.15796618 0.16372745 -0.14829418 0.0932585 0.047124993 0.03527108 -0.1318355
0.16258551 0.028647354 0.012107448 -0.19591089 0.0608685 -0.037707876 -0.104852326 0.14807561
0.021367854 -0.13338867 -0.11454288 -0.028868482 0.08835374 -0.08625316 -0.13229318 -0.06376065
-0.14285052 0.06390809 0.15169452 -0.15891719 0.04136237 0.10157748 0.031349897 -0.073278286
0.12355454 0.100953475 0.074954346 -0.016944887 -0.018218743 0.0626629 -0.025733443 -0.05947473
0.13523883 0.18277062 0.030033177 -0.035830617 0.028561505 0.008470874 0.08278359 0.08777062
-0.16397132 -0.06909231 0.15350193 0.06989368 -0.020309774 -0.09948191 -0.12065065 -0.16035983
-0.07297857 0.048271555 0.13351871 0.08340257 -0.15452959 -0.10357117 -0.041473668 0.19469306
0.022177134 -0.057478532 0.065759376 -0.067644596 -0.12077664 0.13296992 -0.09347583 -0.053513315
-0.18524747 0.17734848 0.17030655 0.07610055 -0.13575418 -0.19227357 -0.16128005 0.1296509
0.07266533 0.14773034 0.09346741 0.0470274 -0.01194646 -0.15093842 -0.167632 -0.19754729
0.07808272 -0.07872286 -0.042318843 -0.1081575 -0.046661925 -0.12224995 -0.122340254 0.05308187
-0.07850153 0.07300545 -0.059152957 -0.13876176 -0.030103741 -0.08898962 -0.055586617 -0.19690189
00000000: d0e0 723e f02d 5f3e 5313 13bd c604 333e
00000010: 4397 c8bc 5af7 333d 832d ecbd fa83 293d
00000020: b7d8 dd3d be43 19be f74c 193e dec8 58bb
00000030: d008 963d 8bd2 16bd cf1b 9a3d 9a32 dfbc
00000040: dd71 f03d 040b 6dbc e0db f0bd 1e06 073d
00000050: 69fe c0bd 5701 2bbd 8a0d f3bd 2286 ba3d
00000060: c89e 2ebe 28c0 63bd 7e43 1cbd 514a c6bd
00000070: c1d2 fd3c 829e 33be a699 503e 06f3 0abe
00000080: 4947 193e d7cb 313d c7b7 57bd 0187 1f3e
00000090: 5fef 5c3d 7232 293e 2876 963c 5e41 3fbd
000000a0: 690c a83d 5e78 05bd 5be0 b23d 638b 2f3e
000000b0: ca30 013e ee2a 85bd 9c24 183e 510d 5a3d
000000c0: 4d19 de3d 99e8 d2bd a6ef 55be 0a24 babd
000000d0: ab52 2abe 487d 103e 13d9 393d 79ac 723d
000000e0: 3c3f 283d 31d7 acbc 6439 0b3e 6dfd 1cbe
000000f0: b73b 15bc d3b1 1cbe 8717 303d 5cfc a8bd
00000100: 72c5 3a3d f70f 41bd 9596 0d3e 8442 04be
00000110: 10fd f5bd c850 f5bd 945d 4d3e 6d40 763d
00000120: 7454 343e 3b53 1fbe f315 3dbe 2fbc 0cbe
00000130: bb62 02be 1cac 983d 46c2 a23d 6dae 4f3e
00000140: 5e2f d0bd ec16 0fbe 4440 b53d ee36 9dbd
00000150: 8511 093e 69a7 33bd 0efd c43d 1e36 27be
00000160: 6735 d1bd ad5f 863d 31bd 053d 2ece 8ebd
00000170: 4ac0 ca3d 4a9d 013e 6064 04be 76ee efbd
00000180: a1f6 1b3e 03bf 9ebd dfe4 a1bd 074d 34be
00000190: 5d6c ccbd 9a1f 373d 2a4b 01bc 36df 86bd
000001a0: 663c 56bc d7ca fdbd cdfc b8bd 3d5e c5bc
000001b0: 8fde 91bd d29c 29bd 3449 543e fb0d bb3b
000001c0: 5deb 833d f847 a0bd 7a01 1fbd 8b19 3cbd
000001d0: 887a 433d 6204 e9bd 39e7 81bb 942d 17bd
000001e0: e598 923c bf3a 47bd 8006 eb3b 22a8 9cbd
000001f0: d63a a0bd 2202 eabd 4c71 79bd a36e 23be
00000200: 5ae1 1f3e afc5 61bd 7719 303e c3f2 6f3d
00000210: 0d8d 27be 48d4 073e c130 7ebd beca 9ebd
00000220: e42d 31be 4d65 4abe 4c2b 653d fa75 36bd
00000230: 400a a33d a4cc 2fbe a718 093e 1a71 17be
00000240: 67f4 f5bc 73d4 8c3d e6fd ce3d 8301 203e
00000250: 1bbc 3a3e cc03 1bbe cb38 313d 38f6 cebd
00000260: 153f 4ebd e3c1 21be 2ba8 273e 6eda 17be
00000270: 50fe be3d 2306 413d 6878 103d e3ff 06be
00000280: d17c 263e dbad ea3c 515e 463c dd9c 48be
00000290: 4051 793d 9373 1abd d1bc d6bd 22a1 173e
000002a0: a30b af3c 0a97 08be 7595 eabd 987d ecbc
000002b0: cef2 b43d 7fa5 b0bd dd77 07be f294 82bd
000002c0: 6847 12be 3fe2 823d cf55 1b3e 30bb 22be
000002d0: 976b 293d db07 d03d c068 003d ed12 96bd
000002e0: 2a0a fd3d b2c0 ce3d aa81 993d 01d0 8abc
000002f0: 793f 95bc 6855 803d f1ce d2bc c69b 73bd
00000300: 0c7c 0a3e 3928 3b3e 2308 f63c 20c3 12bd
00000310: d1f9 e93c 6cc9 0a3c 718a a93d 15c1 b33d
00000320: 19e8 27be 4580 8dbd 9c2f 1d3e 6b24 8f3d
00000330: af60 a6bc 2cbd cbbd b017 f7bd 5e35 24be
00000340: ca75 95bd 65b8 453d 21b9 083e f7ce aa3d
00000350: 013d 1ebe 1f1d d4bd 4be0 29bd 9e5d 473e
00000360: d2ac b53c 9c6e 6bbd daac 863d 4089 8abd
00000370: be59 f7bd 4429 083e 4270 bfbd c730 5bbd
00000380: 83b1 3dbe d79a 353e d764 2e3e 9bda 9b3d
00000390: 2503 0bbe 5de3 44be 9926 25be 35c3 043e
000003a0: 8fd1 943d 9f46 173e d76b bf3d ce9f 403d
000003b0: 16bb 43bc 9a8f 1abe b9a7 2bbe d649 4abe
000003c0: d5e9 9f3d 7339 a1bd 8656 2dbd ae81 ddbd
000003d0: 9320 3fbd 2f5e fabd 878d fabd 606c 593d
000003e0: 69c5 a0bd e283 953d 5f4a 72bd 9017 0ebe
000003f0: 1f9c f6bc 3140 b6bd cbae 63bd a6a0 49be

conv1.bias f4 [32]
2.4418896e-05 1.7901371e-05 -0.027942749 0.0029013024 -0.001121436 -0.014628825 0.0005534022 0.00054635276
0.024983888 -0.00411661 -0.0007232483 -0.001968309 -7.4366164e-07 -0.0003139338 0.0019184077 -0.0006848556
0.0026830507 0.012463737 -0.00012645501 0.010655774 0.0006007901 0.026903898 -0.002459543 -0.0009944543
-0.00019393773 -0.0011620958 0.0037969386 -0.0025607203 0.00061613455 0.00043849857 0.0043145954 -0.00053537876
00000000: 2ed7 cc37 e72a 9637 31e8 e4bc c723 3e3b
00000010: 26fd 92ba bdad 6fbc 3112 113a 1d39 0f3a
00000020: 03ab cc3c a1e4 86bb 5f98 3dba bffe 00bb
00000030: 0aa0 47b5 7b97 a4b9 1573 fb3a e287 33ba
00000040: 1fd6 2f3b b434 4c3c 0299 04b9 8e95 2e3c
00000050: 577e 1d3a 9065 dc3c 4930 21bb 5958 82ba
00000060: c35b 4bb9 7751 98ba 0fd6 783b c2d1 27bb
00000070: 1784 213a 48e6 e539 7361 8d3b a958 0cba

bn1.weight f4 [32]
0.9202033 0.91735744 0.9561404 0.9739383 0.9950187 0.9757644 0.9253576 0.9426695
0.9559979 0.96021485 0.9601828 0.99910384 0.9133166 0.99443436 0.982971 0.94974405
0.9645905 0.9483686 0.9453274 0.93238175 0.9787226 0.96139 0.9173813 0.93546903
1.0020846 0.9870345 0.9233892 0.951879 0.9509804 0.9715509 0.97236514 0.99241483
00000000: 7292 6b3f f0d7 6a3f 9ec5 743f 0554 793f
00000010: 8cb9 7e3f b2cb 793f 3ce4 6c3f ca52 713f
00000020: 47bc 743f a4d0 753f 8ace 753f 45c5 7f3f
00000030: 1ecf 693f 4093 7e3f fda3 7b3f 6d22 733f
00000040: 67ef 763f 49c8 723f fa00 723f 92b0 6e3f
00000050: 908d 7a3f a81d 763f 80d9 6a3f e67a 6f3f
00000060: 4f44 803f 4bae 7c3f 3c63 6c3f 58ae 733f
00000070: 7473 733f 8fb7 783f ecec 783f e60e 7e3f

bn1.bias f4 [32]
-0.016850216 -0.038535304 0.0537007 0.09094697 0.11282704 0.10233196 0.07350636 -0.0265571
0.092431635 0.05859255 -0.008349692 0.10456245 -0.039498642 0.11526501 -0.027279228 0.04039628
0.108011104 0.072551265 0.029769097 -0.010425037 -0.040656805 0.026292723 0.10280315 0.1000691
0.10634484 0.11421114 -0.023823548 -0.003702195 0.058919605 0.04562603 0.056128465 0.11345689
00000000: 7709 8abc 32d7 1dbd 44f5 5b3d 6842 ba3d
00000010: dd11 e73d 6b93 d13d 818a 963d 468e d9bc
00000020: cc4c bd3d befe 6f3d 26cd 08bc d624 d63d
00000030: 54c9 21bd 1010 ec3d b078 dfbc 9276 253d
00000040: ed34 dd3d c295 943d 52de f33c c6cd 2abc
00000050: c087 26bd d663 d73c 758a d23d 07f1 cc3d
00000060: 53cb d93d 88e7 e93d 9a29 c3bc 86a0 72bb
00000070: af55 713d 5ce2 3a3d f6e6 653d 165c e83d

bn1.running_mean f4 [32]
0.0033553317 0.006904304 -0.036194183 0.00037260228 -0.0069457158 -0.019496126 -0.004006215 0.00674456
0.022361785 -0.009423205 -0.0025037627 -0.0059654075 0.0059136674 -0.0072449604 0.002161951 -0.0036394675
-0.0012554158 0.0104027325 -0.002359051 0.01086729 -0.0008962687 0.02845293 -0.010237822 -0.006235765
-0.0023009079 -0.00785385 0.010659469 -0.0043811807 -0.0029788874 -0.0025863147 0.0033462846 -0.0020518387
00000000: 20e5 5b3b 803d e23b 5a40 14bd d559 c339
00000010: e398 e3bb 57b6 9fbc 9146 83bb 7801 dd3b
00000020: 1030 b73c c963 1abc 2b16 24bb 7779 c3bb
00000030: 70c7 c13b 2267 edbb 85af 0d3b 2284 6ebb
00000040: c48c a4ba 3970 2a3c 4f9a 1abb b80c 323c
00000050: 93f3 6aba 1e16 e93c 8abc 27bc 6355 ccbb
00000060: d4ca 16bb 6fad 00bc 0ea5 2e3c 0290 8fbb
00000070: 7039 43bb 297f 29bb 574d 5b3b 2478 06bb

bn1.running_var f4 [32]
0.0023276992 0.005518933 0.0027149194 0.001774551 0.0033400364 0.0012424113 0.0017882505 0.0036094002
0.0036109209 0.0026131473 0.0012519767 0.0027712185 0.0043267794 0.0042667403 0.001442249 0.0015418666
0.002770087 0.0020898827 0.0011767104 0.001177278 0.0011054242 0.0019311917 0.005624566 0.0021591126
0.0016338504 0.0028348258 0.0029543298 0.0025186043 0.0022359751 0.0015572289 0.0011776976 0.0013138967
00000000: 508c 183b 2ad8 b43b caec 313b 0d98 e83a
00000010: 83e4 5a3b 68d8 a23a bb63 ea3a b08b 6c3b
00000020: 33a5 6c3b 5641 2b3b 5e19 a43a 559d 353b
00000030: a8c7 8d3b 03d0 8b3b d909 bd3a 7518 ca3a
00000040: 598a 353b 6af6 083b d93b 9a3a e54e 9a3a
00000050: e2e3 903a 0a20 fd3a 484e b83b e67f 0d3b
00000060: ec26 d63a 7cc8 393b 6e9d 413b 2b0f 253b
00000070: 7089 123b ee1b cc3a f95c 9a3a 0f37 ac3a

conv2.weight f4 [64, 32, 5, 5]
-0.01639371 -0.021151183 -0.03349307 0.0032791642 -0.018730924 -0.011265067 -0.00090425403 -0.031851586
-0.0020140843 -0.038741827 -0.02818132 -0.042849995 -0.022803165 -0.025141032 -0.0033657034 -0.008931776
0.0117764855 0.021186583 -0.00018443605 -0.028279226 -0.033903673 0.0061244112 -0.029969225 0.00042750183
0.00421941 0.010756868 0.021650134 0.017726362 -0.006329249 -0.029972753 0.020208742 -0.026732078
-0.03005822 0.016052615 0.018900305 0.012950914 -0.005973931 -0.03940656 -0.017093958 0.02070468
0.007983389 -0.008018559 -0.020405326 -0.027802758 0.00049460714 -0.00511671 0.013625067 -0.022836778
-0.0016305252 0.00082262367 0.007114791 0.020723496 0.020905672 0.014070635 0.031383883 -0.0136822155
-0.04196807 -0.0008708045 -0.009638059 -0.011896824 -0.0081943115 0.0045916643 0.01564036 0.00026375678
-0.01981286 -0.01995824 -0.014520295 -0.023190988 0.012929305 0.0135016665 0.033686243 -0.0041110683
-0.0021338656 -0.000417666 -0.026104497 -0.004688255 -0.0114413025 -0.023238236 -0.025303656 0.06669678
0.019634183 -0.00029355806 0.026193703 -0.028468678 0.01025506 -0.0049100295 -0.024295053 -0.01520637
-0.036440186 0.030645207 -0.02892066 -0.01425809 0.023038983 -0.017909348 0.004910045 0.008919713
-0.02661462 -0.0057644937 0.021426825 -0.01837886 -0.070277974 -0.077793 -0.0569398 -0.08841653
-0.09633095 -0.028069837 -0.058205344 -0.04867461 -0.087267734 -0.0802515 -0.038346518 -0.029503286
-0.007593326 -0.036651038 -0.058591854 -0.05099001 -0.059144378 -0.012042935 -0.07069729 -0.062386356
-0.019530922 -0.032790568 -0.007383463 -0.07478223 -0.0717264 -0.023970466 0.021287521 -0.0075093242
-0.040539972 0.0008264857 -0.027766075 -0.019758677 -0.015883962 0.014967078 0.0017417873 0.004677678
0.0042821574 -0.017902734 -0.003924447 -0.010606828 0.004290327 -0.021997673 0.018875146 -0.016161058
-0.026535405 0.018626336 0.013694644 0.029967394 0.003813252 0.008362908 0.025349835 0.027792128
-0.032076586 -0.00422318 -0.005628811 0.011015801 0.011542851 -0.00431416 -0.0092239175 0.030883396
-0.0003773428 -0.032066785 0.030027106 -0.021684213 0.0098894965 -0.0029283315 -0.006870601 -0.031174893
0.0066017816 -0.007531472 -0.024229364 0.00020289514 -0.026719399 -0.030316826 -0.009263633 -0.010705657
-0.024904141 -0.024141805 -0.004968604 -0.021163363 -0.029319149 -0.013327346 -0.009832613 0.00845335
-0.024557605 0.010787698 0.009902564 0.0064735767 -0.044499416 -0.020689253 -0.030946042 -0.030614395
0.0061386423 -0.01979261 -0.0035602998 -0.032251123 -0.002092519 -0.037792124 0.0017162267 -0.033296887
-0.018932872 -0.033574294 -0.010759844 0.006363331 0.01699273 -0.025206814 -0.025661094 -0.009839319
-0.048366897 0.01698745 -0.0022642997 0.004452925 -0.013741949 -0.02987357 -0.0025680726 -0.0012330477
0.0023408737 -0.013452159 0.004365725 -0.01104942 -0.02175388 -0.029514683 0.024102444 -0.013499096
-0.016944418 0.008185181 0.00045861013 -0.025925692 -0.036020607 0.014263158 0.025017692 0.024684954
-0.036523234 0.0006212286 -0.032542672 0.013695572 0.005818156 0.0136727905 0.0046081566 0.00885972
-0.011999436 0.0073750652 -0.02381486 -0.0021156596 -0.018034283 -0.019998698 -0.028199855 -0.008792299
-0.021906054 -0.017852614 -0.025078496 -0.041026987 -0.01057906 0.010068198 0.036949184 0.023685344
00000000: 1a4c 86bc 3f45 adbc 0830 09bd 3fe7 563b
00000010: 9871 99bc 1e91 38bc 760b 6dba cf76 02bd
00000020: bafe 03bb c0af 1ebd 83dc e6bc 7a83 2fbd
00000030: b4cd babc 91f4 cdbc 2293 5cbb 9556 12bc
00000040: 29f2 403c 7c8f ad3c 2d65 41b9 d6a9 e7bc
00000050: 94de 0abd 49af c83b 0582 f5bc 5322 e039
00000060: fa42 8a3b 933d 303c 9f5b b13c e036 913c
00000070: 9765 cfbb 6b89 f5bc ce8c a53c 3bfd dabc
00000080: a83c f6bc c680 833c d0d4 9a3c 1230 543c
00000090: f7c0 c3bb c668 21bd a108 8cbc dc9c a93c
000000a0: c3cc 023c 4660 03bc 1229 a7bc 9cc2 e3bc
000000b0: 86a8 013a 13aa a7bb ac3b 5f3c 3214 bbbc
000000c0: 59b7 d5ba 57a5 573a 3123 e93b 52c4 a93c
000000d0: 5f42 ab3c 8588 663c 638c 003d 5f2b 60bc
000000e0: b6e6 2bbd b346 64ba f3e8 1dbc e6ea 42bc
000000f0: 6f41 06bc ac75 963b 3620 803c d648 8a39
00000100: 944e a2bc 777f a3bc 88e6 6dbc 07fb bdbc
00000110: 70d5 533c 1836 5d3c 96fa 093d 24b6 86bb
00000120: 53d8 0bbb 2efa dab9 19d9 d5bc ef9f 99bb
00000130: 4d74 3bbc 1d5e bebc 9d49 cfbc 5298 883d
00000140: ded7 a03c b2e8 99b9 2d94 d63c 2537 e9bc
00000150: d704 283c 50e4 a0bb 6b06 c7bc 2324 79bc
00000160: 4e42 15bd a80b fb3c 05eb ecbc c49a 69bc
00000170: 40bc bc3c a0b6 92bc 71e4 a03b fd23 123c
00000180: e706 dabc 14e4 bcbb 4f87 af3c 438f 96bc
00000190: e6ed 8fbd f051 9fbd b539 69bd ba13 b5bd
000001a0: 2949 c5bd b7f2 e5bc ba68 6ebd 075f 47bd
000001b0: 6db9 b2bd e65a a4bd 3d11 1dbd e0b0 f1bc
000001c0: 6fd1 f8bb 661f 16bd 03fe 6fbd e7da 50bd
000001d0: 6041 72bd bb4f 45bc bec9 90bd d688 7fbd
000001e0: 50ff 9fbc 674f 06bd faf0 f1bb 6d27 99bd
000001f0: 4ae5 92bd b65d c4bc 2b63 ae3c c710 f6bb
00000200: 3e0d 26bd 84a8 583a ae75 e3bc f3dc a1bc
00000210: 151f 82bc 7a38 753c af4c e43a 3547 993b
00000220: 5751 8c3b c1a8 92bc a698 80bb 43c8 2dbc
00000230: df95 8c3b 7734 b4bc 0da0 9a3c 3264 84bc
00000240: c760 d9bc 4296 983c 805f 603c 2e7e f53c
00000250: c1e7 793b 9404 093c 75aa cf3c 51ac e33c
00000260: bd62 03bd 9a62 8abb e471 b8bb 9e7b 343c
00000270: 3a1e 3d3c cc5d 8dbb ea1f 17bc 2dff fc3c
00000280: 18d6 c5b9 7658 03bd 68fb f53c 17a3 b1bc
00000290: 8e07 223c 40e9 3fbb c722 e1bb 7d62 ffbc
000002a0: c253 d83b 91ca f6bb a97c c6bc 40c0 5439
000002b0: a4e2 dabc fe5a f8bc 7ec6 17bc c866 2fbc
000002c0: c503 ccbc 09c5 c5bc accf a2bb ca5e adbc
000002d0: b62e f0bc f15a 5abc f818 21bc eb7f 0a3c
000002e0: 082d c9bc e3be 303c 5d3e 223c 4c20 d43b
000002f0: 0545 36bd 827c a9bc 8e82 fdbc 0acb fabc
00000300: aa26 c93b 1d24 a2bc eb53 69bb c119 04bd
00000310: a522 09bb eacb 1abd 03f3 e03a 5162 08bd
00000320: 1c19 9bbc 3385 09bd 0f4a 30bc 7d83 d03b
00000330: 5634 8b3c 857e cebc 3737 d2bc 1835 21bc
00000340: 5e1c 46bd 4429 8b3c a564 14bb d8e9 913b
00000350: e925 61bc 6bb9 f4bc 1c4d 28bb 379e a1ba
00000360: 5869 193b 7266 5cbc 5b0e 8f3b a008 35bc
00000370: 3135 b2bc c7c8 f1bc 7d72 c53c 502b 5dbc
00000380: 05cf 8abc 231b 063c 9c71 f039 1e62 d4bc
00000390: 588a 13bd 05b0 693c e7f1 cc3c 1a38 ca3c
000003a0: 6399 15bd f2d9 223a 774b 05bd 6463 603c
000003b0: 3ba6 be3b d703 603c 0500 973b 5c28 113c
000003c0: 4899 44bc 88aa f13b 6217 c3bc e1a6 0abb
000003d0: a2bc 93bc 4fd4 a3bc 6203 e7bc 930d 10bc
000003e0: 5374 b3bc a53f 92bc 6b71 cdbc ea0b 28bd
000003f0: cb53 2dbc 15f5 243c 0758 173d c407 c23c

conv2.bias f4 [64]
-5.3847043e-06 -3.8989424e-07 1.9854684e-05 -1.4152627e-05 -8.823566e-07 -7.2679986e-06 3.7307668e-06 -1.0873142e-05
5.1633142e-05 8.130318e-06 -1.1771365e-05 -1.261817e-06 -8.784789e-06 2.9977016e-06 4.1845296e-06 -6.9247003e-06
-8.108e-06 -4.3051557e-05 -9.566767e-06 -1.492134e-05 4.0372808e-05 1.5700323e-05 -6.301697e-05 -6.8399386e-05
1.3861326e-05 -4.892694e-07 1.8535986e-06 -1.4548071e-05 4.133818e-06 -6.0567186e-06 -6.08889e-06 2.0607153e-05
7.717592e-07 -5.871857e-06 -5.458253e-06 5.570783e-07 9.81819e-05 -1.251792e-05 -2.3830304e-05 4.328624e-05
1.0223766e-05 -7.051915e-07 9.48987e-07 4.2954825e-06 -1.9878812e-06 1.8538225e-05 2.8553464e-05 -8.735867e-06
-2.4591489e-05 -1.6000526e-05 -1.9032348e-05 7.007808e-06 4.722956e-06 3.8345206e-06 -8.941815e-05 -1.2017117e-05
1.4999374e-05 1.155942e-06 -2.7912181e-05 -1.5801755e-06 9.2614955e-06 -7.645317e-06 -7.0993415e-06 -2.1167311e-06
00000000: 42ae b4b6 a852 d1b4 9c8d a637 1271 6db7
00000010: 15db 6cb5 a2df f3b6 165e 7a36 ca6b 36b7
00000020: aa90 5838 7367 0837 a17d 45b7 b45b a9b5
00000030: 6262 13b7 1f2c 4936 d668 8c36 b95a e8b6
00000040: 9807 08b7 4292 34b8 f480 20b7 ab56 7ab7
00000050: f955 2938 30b4 8337 fa27 84b8 a471 8fb8
00000060: f18d 6837 5656 03b5 2ac9 f835 7d13 74b7
00000070: 3ab5 8a36 d13a cbb6 2b4f ccb6 86dd ac37
00000080: e32a 4f35 de06 c5b6 0926 b7b6 218a 1535
00000090: 02e7 cd38 0f04 52b7 30e7 c7b7 3f8e 3538
000000a0: be86 2b37 644c 3db5 e4bd 7e35 ea21 9036
000000b0: 8a67 05b6 8982 9b37 1986 ef37 4390 12b7
000000c0: d249 ceb7 de38 86b7 a8a7 9fb7 9d24 eb36
000000d0: e279 9e36 48aa 8036 0186 bbb8 209d 49b7
000000e0: d2a5 7b37 dd25 9b35 f424 eab7 6b16 d4b5
000000f0: d261 1b37 6344 00b7 e136 eeb6 2a0d 0eb6

bn2.weight f4 [64]
0.9848754 0.8775092 0.98529863 0.9845948 0.9608742 0.9465179 1.012335 0.95858413
1.0022811 0.9536749 1.0264902 0.8690956 0.9924298 0.86045426 0.93909496 0.98316103
0.93529934 0.9908869 0.98540646 0.96525943 0.999951 0.97168124 1.0680208 1.0242281
0.9502016 0.92714787 0.95385605 0.9777299 1.0533563 0.9426166 0.98657936 0.9774235
0.976988 0.9488674 1.0008553 0.9544685 1.0121349 1.0397688 0.9374212 0.95465213
1.0032676 0.9537843 0.94778675 0.9282726 0.96633536 0.9510145 0.9778457 0.97266006
0.97999775 0.94789004 1.0283496 0.9998363 0.94148535 1.0644596 0.9873992 0.9745284
1.0102481 0.974239 1.027844 0.95713425 1.0045701 0.9553194 0.8854884 0.9460907
00000000: cb20 7c3f 71a4 603f 883c 7c3f 680e 7c3f
00000010: dafb 753f ff4e 723f 3194 813f c565 753f
00000020: bf4a 803f 0a24 743f 0864 833f 0d7d 5e3f
00000030: e10f 7e3f bb46 5c3f 8768 703f 71b0 7b3f
00000040: c76f 6f3f c4aa 7d3f 9943 7c3f 3e1b 773f
00000050: cafc 7f3f 1ac0 783f e8b4 883f e819 833f
00000060: 6940 733f 9059 6d3f e92f 743f 824c 7a3f
00000070: 61d4 863f 524f 713f 7790 7c3f 6d38 7a3f
00000080: e31b 7a3f f9e8 723f 071c 803f 0c58 743f
00000090: a38d 813f 2517 853f d6fa 6f3f 1564 743f
000000a0: 136b 803f 352b 743f 27a2 723f 46a3 6d3f
000000b0: c161 773f b075 733f 1954 7a3f 4000 793f
000000c0: 22e1 7a3f eca8 723f f6a0 833f 46f5 7f3f
000000d0: 2f05 713f 3640 883f 32c6 7c3f b17a 793f
000000e0: cf4f 813f ba67 793f 6490 833f c006 753f
000000f0: c195 803f d08f 743f 5eaf 623f 0033 723f

bn2.bias f4 [64]
0.0647431 -0.10313652 0.054858472 0.0617335 0.007424309 -0.008766005 0.07790457 -0.005643252
0.06992518 -0.1106533 0.05730852 -0.078998506 0.076199345 -0.07966577 0.0062720627 0.07069996
-0.0041154213 0.07552188 0.04766471 0.06780077 0.08079951 0.07230681 0.053431075 0.06648361
0.047404647 -0.06918263 0.04488707 0.06438172 0.06517898 0.055103853 0.005330316 0.05820058
0.058455642 -0.10347829 0.07829304 0.025366845 0.06569495 0.054263644 0.025304863 0.049023326
0.059422553 -0.13210373 0.034769095 -0.029703833 -0.09014921 0.007391455 0.06568076 -0.1085237
0.07117607 0.022202974 0.039108258 0.055019945 0.027976945 0.052568633 0.06575349 0.07105947
0.062563874 0.017408784 0.07355573 0.0410031 0.072342545 0.064166434 -0.08787858 -0.008111318
00000000: 0898 843d 3d39 d3bd 47b3 603d 44dc 7c3d
00000010: 9e47 f33b 4a9f 0fbc 6e8c 9f3d 07eb b8bb
00000020: ef34 8f3d 339e e2bd 57bc 6a3d f8c9 a1bd
00000030: 670e 9c3d cf27 a3bd e085 cd3b 24cb 903d
00000040: a8da 86bb 37ab 9a3d 123c 433d 21db 8a3d
00000050: 377a a53d 9815 943d 8bda 5a3d 8f28 883d
00000060: 602b 423d 9faf 8dbd 81db 373d 90da 833d
00000070: 8f7c 853d 94b4 613d eea9 ae3b bb63 6e3d
00000080: 2f6f 6f3d 6dec d3bd 1a58 a03d 21ce cf3c
00000090: 138b 863d 8e43 5e3d 254c cf3c afcc 483d
000000a0: 1065 733d 3346 07be 0a6a 0e3d 7455 f3bc
000000b0: 26a0 b8bd 0534 f23b a283 863d ac41 debd
000000c0: c2c4 913d 03e3 b53c fb2f 203d 985c 613d
000000d0: e82f e53c 3552 573d c4a9 863d a187 913d
000000e0: 7d21 803d de9c 8e3c 63a4 963d def2 273d
000000f0: 5428 943d b169 833d aff9 b3bd 55e5 04bc

bn2.running_mean f4 [64]
-1.7624242 0.04490211 -1.4213076 -0.64935213 -0.8567307 -1.8385572 -3.0307434 -0.83660096
-1.9322821 0.32847878 -0.09892995 0.7333521 -1.2024205 1.1933153 -0.8316327 -2.5275898
-0.94901544 -2.8822317 -1.0219632 -1.5706649 -1.6548067 -1.4163897 -0.5686388 -3.041192
-1.1234889 -0.10734425 -0.28756523 -1.9086277 -1.5119826 -1.7471464 -0.57378906 -1.6054503
-1.0192976 0.21376617 -2.5753124 -1.3139658 -2.2799692 -0.87007505 -1.5976771 -1.2571691
-0.64223504 0.12892468 -1.5306576 -0.008190486 -0.0011136349 -1.1088917 -1.8781406 -0.1734483
-1.9473393 -1.3727744 0.11633551 -0.6995339 -1.3445945 -0.4037256 -2.146255 -1.7132919
-1.7553236 -1.3561814 -1.8216572 -1.8598862 -1.4873617 -1.3547529 0.79811 -1.3937107
00000000: 1e97 e1bf 46eb 373d 68ed b5bf f13b 26bf
00000010: b452 5bbf d855 ebbf b3f7 41c0 7b2b 56bf
00000020: 0555 f7bf 5f2e a83e c99b cabd f7bc 3b3f
00000030: eae8 99bf 8ebe 983f e1e5 54bf 08c4 21c0
00000040: adf2 72bf 7c76 38c0 b1cf 82bf 8c0b c9bf
00000050: b5d0 d3bf 424c b5bf 5092 11bf e4a2 42c0
00000060: 7cce 8fbf 4dd7 dbbd c03b 93be ea4d f4bf
00000070: a588 c1bf 7ea2 dfbf d7e3 12bf 657f cdbf
00000080: 5878 82bf 85e5 5a3e ebd1 24c0 0830 a8bf
00000090: 04eb 11c0 3dbd 5ebf af80 ccbf ebea a0bf
000000a0: 8469 24bf d504 043e 97ec c3bf 6331 06bc
000000b0: 63f7 91ba 2af0 8dbf e966 f0bf 6e9c 31be
000000c0: 6a42 f9bf 12b7 afbf 5041 ee3d a714 33bf
000000d0: ac1b acbf 1fb5 cebe 3e5c 09c0 264d dbbf
000000e0: 72ae e0bf 5a97 adbf 102c e9bf c010 eebf
000000f0: de61 bebf 8b68 adbf f050 4c3f 1d65 b2bf

bn2.running_var f4 [64]
3.059055 2.07694 4.0731206 2.1728761 1.4913756 3.1761866 1.5553421 4.089402
1.9030429 1.5728333 1.2437238 2.967239 1.6026924 3.8364365 3.0669565 1.7017399
3.292313 1.8362494 1.7123343 3.2896955 2.1280766 2.030429 1.4166702 1.1946172
4.128107 2.7999902 2.5291579 1.7734332 1.290138 4.57412 3.0332909 3.1559625
2.826853 2.3796709 2.365099 5.1435347 1.5030018 1.1724974 4.916116 3.7186897
1.566796 1.4780072 2.066051 1.6837071 2.6321313 3.298009 5.109512 1.7500643
2.238612 4.0832696 1.1718155 1.1672701 3.5423737 1.5703921 1.4004835 1.9162185
3.055607 3.9078543 1.7069525 2.5947623 1.2937257 4.5004983 3.6588042 3.2400625
00000000: 8fc7 4340 96ec 0440 0157 8240 6710 0b40
00000010: 65e5 be3f a446 4b40 7315 c73f 62dc 8240
00000020: e996 f33f 9a52 c93f 5732 9f3f 3ee7 3d40
00000030: 0625 cd3f 2d88 7540 0449 4440 9dd2 d93f
00000040: 42b5 5240 380a eb3f c52d db3f 5f8a 5240
00000050: 6832 0840 8cf2 0140 7355 b53f 37e9 983f
00000060: 7419 8440 0a33 3340 b9dd 2140 dcff e23f
00000070: 3e23 a53f 315f 9240 7021 4240 4afb 4940
00000080: 29eb 3440 874c 1840 c85d 1740 d697 a440
00000090: 5d62 c03f 6514 963f d350 9d40 03ff 6d40
000000a0: c58c c83f 572f bd3f 2e3a 0440 b783 d73f
000000b0: d774 2840 9412 5340 1f81 a340 1b02 e03f
000000c0: 6b45 0f40 25aa 8240 0dfe 953f 1b69 953f
000000d0: 40b6 6240 9c02 c93f 0b43 b33f a646 f53f
000000e0: 118f 4340 491a 7a40 6b7d da3f 9610 2640
000000f0: ce98 a53f 1504 9040 d929 6a40 2f5d 4f40

conv3.weight f4 [128, 64, 3, 3]
-0.004406092 0.0013774666 -0.016530018 -0.003093107 -0.03605325 -0.030822475 -0.016964551 -0.022548905
-0.010481212 -0.02188409 -0.003692505 0.019827073 0.0067622676 0.016732758 -0.02559384 0.013149053
-0.025403013 0.016848275 -0.04652782 0.015417491 -0.003486025 -0.0012390717 0.004868735 0.005949358
0.024339935 -0.02973568 -0.033373866 -0.025379207 -0.041936852 -0.01937567 -0.02887601 0.0074813114
0.0034413347 0.02472854 -0.02495943 -0.039629187 -0.0031536012 0.009626028 -0.045358706 0.0021793304
0.03765348 -0.034440372 -0.037983246 -0.0062475945 0.010217265 0.013061414 -0.027506482 -0.05264974
0.0055309236 -0.017289022 -0.011869979 -0.03554924 -0.020966843 -0.015787749 -0.06549833 -0.010036753
-0.051442534 0.01702911 0.049149156 0.008110398 -0.017155632 -0.036954895 -0.058060326 -0.018580517
0.036981486 0.028700143 -0.0069850874 -0.0024890562 -0.03079638 0.019812765 -0.016315948 -0.021405544
-0.0035867272 -0.013509916 -0.049520425 -0.015547053 0.046426974 0.018609973 -0.05239464 0.020163422
-0.03504729 0.010611429 0.01735796 0.027457207 -0.021030743 -0.024776777 0.015702551 0.036957208
0.001985291 -0.014007171 0.017259674 -0.012894918 -0.028937845 0.008234027 -0.019995905 0.024173943
-0.0019125798 -0.027583694 -0.00560814 0.008027768 -0.04604825 -0.011102202 0.01835429 0.014532762
0.00026681306 -0.00563143 -0.014134552 0.017472448 -0.02252046 0.008651753 -0.0058657806 -0.0016029874
-0.0016784793 -0.0011355401 -0.05769952 0.022246389 -0.032352332 0.008573404 0.015202064 0.012183364
0.024694797 0.022109363 -0.033885084 -0.030279044 0.007518122 0.03388716 -0.029570697 0.029916698
-0.009077338 0.029771514 0.004465082 0.021508625 -0.03627262 0.019163277 0.014665244 -0.065582454
0.024864579 -0.031816058 0.018915225 0.017617632 -0.03738543 -0.0125688035 -0.014210456 -0.059426665
0.013788814 0.011306609 0.018210758 0.0130373305 0.013324009 0.029161 -0.0058544357 -0.005459194
-0.026013747 -0.03082016 0.035715442 -0.05469567 -0.0017777114 -0.00016177562 0.026378287 -0.04916225
-0.015004504 -0.072529174 -0.0005155159 -0.024388094 0.023509178 0.008169868 -0.019738026 -0.00956151
0.016633462 0.013483781 0.015398702 -0.02271986 -0.0027043293 0.020738395 -0.010529989 0.052079327
0.0013565652 -0.046856344 0.0052318946 0.010817844 -0.0029618675 0.0062573664 -0.020524744 0.002060505
0.021061152 -0.032038867 -0.049236182 -0.036926646 -0.047769945 -0.017623754 -0.011493312 -0.047205094
-0.03275868 0.03074865 -0.00080480095 -0.008101178 0.041216116 -0.044520102 -0.017682733 -0.022072894
-0.026375063 -0.0031786985 0.039281987 -0.01679726 -0.04262595 -0.036357027 -0.042398818 -0.048183326
-0.024757443 -0.07282515 0.026278535 0.028614106 -0.0055879494 -0.03043459 -0.012815999 -0.07384497
-0.048487738 0.029910726 -0.00075007795 -0.047036454 -0.007906096 -0.03376054 0.009526722 0.035330806
-0.020661244 -0.03134896 -0.008156828 0.025495963 0.009294097 -0.01373302 0.0026701987 0.011845067
-0.021881683 -0.0070183133 0.02403639 0.015646316 0.03579342 -0.023125492 -0.0012690859 -0.031943996
0.012852414 -0.0039448305 0.0012666148 -0.047827773 -0.041905325 -0.043337267 -0.00093156565 -0.03210944
-0.0068754284 -0.02536008 0.002517787 -0.022484591 -0.07052794 0.01497544 -0.04336877 -0.018784156
00000000: fb60 90bb 1c8c b43a f669 87bc b9b5 4abb
00000010: 93ac 13bd 6a7f fcbc 3ef9 8abc 7bb8 b8bc
00000020: 64b9 2bbc 4346 b3bc f4fd 71bb 636c a23c
00000030: 0396 dd3b 2313 893c 2caa d1bc 206f 573c
00000040: fb19 d0bc 6505 8a3c f593 3ebd a599 7c3c
00000050: cb75 64bb 5968 a2ba e989 9f3b d5f2 c23b
00000060: 8b64 c73c 3e98 f3bc 09b3 08bd 0ee8 cfbc
00000070: fac5 2bbd bab9 9ebc 628d ecbc ca25 f53b
00000080: 0488 613b 8293 ca3c b877 ccbc 3752 22bd
00000090: a6ac 4ebb 7db6 1d3c 0dca 39bd 19d3 0e3b
000000a0: 893a 1a3d 5911 0dbd 5294 1bbd 9fb8 ccbb
000000b0: 5166 273c 8aff 553c 4655 e1bc 41a7 57bd
000000c0: c03c b53b b5a1 8dbc 4d7a 42bc 149c 11bd
000000d0: a8c2 abbc 4f55 81bc fd23 86bd 3171 24bc
000000e0: 68b5 52bd a280 8b3c a050 493d 7ae1 043c
000000f0: f889 8cbc 045e 17bd aad0 6dbd 2b36 98bc
00000100: e679 173d 901c eb3c 29e3 e4bb 6f1f 23bb
00000110: b148 fcbc 614e a23c 06a9 85bc ae5a afbc
00000120: 4c0f 6bbb b258 5dbc eed5 4abd 11b9 7ebc
00000130: 362a 3e3d f173 983c c39b 56bd c32d a53c
00000140: bf8d 0fbd 8fdb 2d3c 4832 8e3c f0ed e03c
00000150: aa48 acbc abf8 cabc a3a2 803c 7160 173d
00000160: a81b 023b 557e 65bc 2964 8d3c 3545 53bc
00000170: 0f0f edbc 03e8 063c 74ce a3bc 6f08 c63c
00000180: 87af faba 33f7 e1bc 7dc4 b7bb e686 033c
00000190: 179d 3cbd 03e6 35bc bc5b 963c d21a 6e3c
000001a0: 0be3 8b39 dc87 b8bb 9c94 67bc 6122 8f3c
000001b0: d47c b8bc 15c0 0d3c bc35 c0bb 551b d2ba
000001c0: 6b00 dcba 67d6 94ba 5556 6cbd 0f3e b63c
000001d0: e183 04bd 7677 0c3c 1412 793c bb9c 473c
000001e0: be4c ca3c b21e b53c 16cb 0abd c20b f8bc
000001f0: 945a f63b 43cd 0a3d 3f3e f2bc dd13 f53c
00000200: 1db9 14bc 64e3 f33c d34f 923b db32 b03c
00000210: 9992 14bd 4efc 9c3c 7e46 703c 1850 86bd
00000220: cdb0 cb3c 8e51 02bd 1af4 9a3c da52 903c
00000230: 7721 19bd 62ed 4dbc f9d2 68bc 6069 73bd
00000240: 7aea 613c 5b3f 393c ba2e 953c 879a 553c
00000250: f24c 5a3c 0de3 ee3c 91d6 bfbb 0ae3 b2bb
00000260: c81a d5bc 8f7a fcbc 5b4a 123d 9108 60bd
00000270: 1902 e9ba 50a2 29b9 4717 d83c 5b5e 49bd
00000280: 73d5 75bc 2d8a 94bd b023 07ba 8ac9 c7bc
00000290: 5296 c03c e9da 053c a4b1 a1bc e1a7 1cbc
000002a0: e642 883c 14eb 5c3c d64a 7c3c 001f babc
000002b0: 1e3b 31bb 91e3 a93c fa85 2cbc 2251 553d
000002c0: c6ce b13a 70ec 3fbd 5070 ab3b 543d 313c
000002d0: e41b 42bb 980a cd3b 8223 a8bc 8a09 073b
000002e0: 7088 ac3c 303b 03bd e1ab 49bd 6540 17bd
000002f0: 6baa 43bd b15f 90bc 724e 3cbc 215a 41bd
00000300: f72d 06bd 98e4 fb3c 47f9 52ba ceba 04bc
00000310: 3bd2 283d b65a 36bd 61db 90bc 37d2 b4bc
00000320: 8410 d8bc b651 50bb 26e6 203d 689a 89bc
00000330: 8c98 2ebd 1beb 14bd 62aa 2dbd e15b 45bd
00000340: 1fd0 cabc 5a25 95bd 1546 d73c 2168 ea3c
00000350: 1e1b b7bb f651 f9bc 32fa 51bc 083c 97bd
00000360: 149b 46bd 5707 f53c e1a0 44ba 4ca9 40bd
00000370: 9288 01bc 7e48 0abd f815 1c3c 09b7 103d
00000380: c541 a9bc c467 00bd 37a4 05bc e9dc d03c
00000390: 4546 183c 7600 61bc 80fe 2e3b d011 423c
000003a0: 3741 b3bc e1f9 e5bb f7e7 c43c b42c 803c
000003b0: 1f9c 123d ac71 bdbc 7557 a6ba b5d7 02bd
000003c0: ee92 523c a343 81bb 8a04 a63a 0ee7 43bd
000003d0: eba4 2bbd 6b82 31bd 5034 74ba 3085 03bd
000003e0: 464b e1bb f1bf cfbc 7501 253b 9b31 b8bc
000003f0: f470 90bd 8c5b 753c 74a3 31bd 3be1 99bc

conv3.bias f4 [128]
-9.432606e-06 1.9818158e-06 -6.524583e-06 -1.0511159e-05 1.6610699e-07 -9.8930905e-06 -3.3806305e-06 -4.0742516e-06
-5.3763456e-06 1.2547339e-05 -6.259327e-05 -2.3064715e-06 2.2888075e-06 4.7340018e-07 1.2491725e-05 -1.6869792e-05
1.6047259e-06 -7.724963e-07 8.35789e-06 -3.2918451e-06 2.8261957e-06 -2.6146186e-05 1.0536596e-05 -5.7864013e-06
-1.974153e-06 -1.3273539e-06 -1.0175422e-05 -4.1676058e-06 1.319681e-06 6.2088003e-07 -3.1368243e-06 -2.0904308e-06
-1.5163379e-05 2.0888062e-06 -1.5654958e-06 3.8938997e-06 5.598875e-08 -1.2332388e-05 -5.5309656e-06 -4.3401195e-07
1.6126871e-06 6.0066286e-06 -6.833516e-06 -1.935118e-06 -7.739238e-06 -9.50531e-07 1.3281022e-05 -7.952605e-06
4.6245154e-06 -5.598457e-06 2.1193914e-06 -2.6175915e-06 5.973418e-07 1.31483375e-05 -1.2458878e-06 2.525904e-07
-2.8742623e-05 -1.1286392e-05 3.2445723e-07 2.1177266e-06 1.7306701e-06 -9.132573e-07 2.058146e-05 -2.4950273e-06
1.0997198e-05 2.1157093e-06 2.7206223e-05 5.412166e-06 -8.278851e-06 -3.0710293e-05 4.5919332e-06 -7.6236654e-07
4.1663418e-07 -1.349503e-05 -8.3671375e-06 -4.593575e-06 4.663586e-06 5.816055e-07 -4.4401877e-06 1.8619663e-05
-1.1231961e-05 -1.5026598e-05 2.3624934e-06 7.849426e-06 2.8105592e-06 -7.2886796e-06 -1.0380382e-05 2.1664819e-06
-2.0411608e-05 1.3871904e-06 -9.028218e-06 1.1259551e-06 -2.2768686e-06 3.7106245e-06 -9.978788e-07 -7.9647425e-06
-4.4169523e-05 1.41449755e-05 -1.1072086e-06 4.4670783e-06 -3.6962283e-06 3.339668e-06 -1.9646345e-06 9.6419735e-06
-7.71627e-06 -4.4578871e-07 3.0634035e-07 4.727771e-06 2.2659644e-05 -1.5152211e-05 -5.0740073e-06 2.6364025e-06
2.2498195e-07 -4.736137e-06 4.3715386e-06 -4.3476284e-06 -4.3132595e-06 1.969641e-06 1.40491065e-05 -7.4643606e-07
-5.695654e-06 -2.514144e-06 2.9184996e-06 5.2566165e-06 -8.688249e-06 -1.1497015e-05 -4.807655e-06 -3.4197587e-06
00000000: bc40 1eb7 56ff 0436 beed dab6 1659 30b7
00000010: 245b 3234 80fa 25b7 cade 62b6 8eb5 88b6
00000020: 7566 b4b6 6982 5237 8244 83b8 e1c8 1ab6
00000030: 6a99 1936 a027 fe34 8d93 5137 9a83 8db7
00000040: f661 d735 8b5d 4fb5 dd38 0c37 78e9 5cb6
00000050: aca9 3d36 8254 dbb7 56c6 3037 cf28 c2b6
00000060: b17b 04b6 8827 b2b5 1bb7 2ab7 76d7 8bb6
00000070: e51f b135 8daa 2635 3b82 52b6 5449 0cb6
00000080: 3866 7eb7 6b2d 0c36 071e d2b5 58a8 8236
00000090: 4878 7033 34e7 4eb7 a296 b9b6 2602 e9b4
000000a0: 8273 d835 8c8c c936 754b e5b6 13dd 01b6
000000b0: c6d7 01b7 fe27 7fb5 8ed1 5e37 2e6c 05b7
000000c0: 492c 9b36 61da bbb6 de3a 0e36 e1a9 2fb6
000000d0: 0459 2035 ae97 5c37 6138 a7b5 c39b 8734
000000e0: 501c f1b7 af5a 3db7 1031 ae34 441e 0e36
000000f0: 5f49 e835 9026 75b5 59a6 ac37 3e70 27b6
00000100: 9b80 3837 9cfb 0d36 eb38 e437 279a b536
00000110: 65e5 0ab7 edce 00b8 6814 9a36 6ea5 4cb5
00000120: c4ad df34 b668 62b7 9560 0cb7 8222 9ab6
00000130: e67b 9c36 a01f 1c35 ecfc 94b6 6c31 9c37
00000140: e870 3cb7 bf1a 7cb7 548b 1e36 07b1 0337
00000150: 0a9d 3c36 4891 f4b6 6727 2eb7 e063 1136
00000160: 9839 abb7 802f ba35 e777 17b7 861f 9735
00000170: 4ecc 18b6 0b04 7936 dbee 85b5 4fa0 05b7
00000180: aa42 39b8 3550 6d37 669b 94b5 e9e3 9536
00000190: b80c 78b6 0f1f 6036 2ad8 03b6 f6c3 2137
000001a0: 2175 01b7 bc54 efb4 1977 a434 3ea3 9e36
000001b0: 3715 be37 4036 7eb7 6441 aab6 0ded 3036
000001c0: 9192 7134 1beb 9eb6 3baf 9236 d8e1 91b6
000001d0: 9eba 90b6 2d2e 0436 74b4 6b37 b25e 48b5
000001e0: 4c1d bfb6 aab8 28b6 71db 4336 fe61 b036
000001f0: bfc3 11b7 4ee3 40b7 7151 a1b6 027f 65b6

bn3.weight f4 [128]
1.0590094 1.0344466 1.1442845 1.0847986 1.1334506 1.0807238 1.0795492 1.1069986
1.0893517 1.0650189 1.0777378 1.1429986 1.0698771 1.0738995 1.0839119 1.1040517
1.0604076 1.0871385 1.1078441 1.061557 1.1152426 1.1153618 1.0809323 1.0549824
1.1055952 1.0047169 1.1504664 1.0825428 1.0823987 1.0893813 1.1079314 1.1034787
1.0258006 1.0923611 1.050385 1.11281 0.9789012 1.1113416 1.1358428 1.0680948
1.0728998 1.0445691 1.0835849 1.0655768 1.036701 1.071024 1.1323814 1.0235475
1.045662 1.1035908 1.0704951 1.1395681 1.083032 1.0872288 1.0285671 1.088302
1.0864301 1.0327414 1.1058048 1.1044527 1.0839621 1.0142497 1.1032251 1.097005
1.0767444 1.0558856 1.0873582 1.0864962 1.0728403 1.0622873 1.130817 1.0475819
1.0873696 1.0956955 1.0608528 1.0869515 1.0638669 1.1010007 1.1177651 1.0743474
1.0951796 1.0944637 1.1092708 1.0600417 1.0251259 1.101998 1.1442614 1.085784
1.0569096 1.11115 1.1007179 1.116048 1.0748111 1.106406 1.0926911 1.1041191
1.099137 1.0980874 1.131911 1.130818 1.1209381 1.0410327 1.0786036 1.1253119
1.0962797 1.1233735 1.0942651 1.1148505 1.0977117 1.1098562 1.091601 1.0885592
1.0846267 1.0766985 1.0788308 1.0614209 1.0449216 1.0693299 1.0994333 1.0847753
1.0947139 1.0227554 1.0347064 1.0987873 1.1074113 1.0769029 1.0887531 1.0610893
00000000: 9f8d 873f bf68 843f ea77 923f aeda 8a3f
00000010: e914 913f 2855 8a3f ab2e 8a3f 21b2 8d3f
00000020: e06f 8b3f 8a52 883f 50f3 893f c74d 923f
00000030: bcf1 883f 8a75 893f a0bd 8a3f 9151 8d3f
00000040: 70bb 873f 5b27 8b3f d6cd 8d3f 1ae1 873f
00000050: 45c0 8e3f 2dc4 8e3f fd5b 8a3f aa09 873f
00000060: 2584 8d3f 909a 803f 7c42 933f c390 8a3f
00000070: 0a8c 8a3f d970 8b3f b2d0 8d3f ca3e 8d3f
00000080: 6f4d 833f 7dd2 8b3f 0473 863f 8f70 8e3f
00000090: 4599 7a3f 7140 8e3f 4c63 913f 55b7 883f
000000a0: c854 893f 71b4 853f e9b2 8a3f d264 883f
000000b0: 9eb2 843f 5017 893f e0f1 903f 9b03 833f
000000c0: 41d8 853f 7742 8d3f fc05 893f 5edd 913f
000000d0: cba0 8a3f 502a 8b3f 16a8 833f 7b4d 8b3f
000000e0: 2410 8b3f df30 843f 038b 8d3f b55e 8d3f
000000f0: 45bf 8a3f efd2 813f 7b36 8d3f a96a 8c3f
00000100: c3d2 893f 4227 873f 8e2e 8b3f 4f12 8b3f
00000110: d552 893f 08f9 873f 9dbe 903f 2a17 863f
00000120: ed2e 8b3f c03f 8c3f 06ca 873f 3a21 8b3f
00000130: ca2c 883f 97ed 8c3f ed12 8f3f 3784 893f
00000140: d82e 8c3f 6317 8c3f 96fc 8d3f 72af 873f
00000150: 5337 833f 450e 8d3f 2877 923f f8fa 8a3f
00000160: d048 873f 2a3a 8e3f 53e4 8c3f a9da 8e3f
00000170: 6993 893f b69e 8d3f 4ddd 8b3f c653 8d3f
00000180: 85b0 8c3f 218e 8c3f 76e2 903f a5be 903f
00000190: e67a 8f3f 8f40 853f af0f 8a3f 380a 903f
000001a0: e552 8c3f b4ca 8f3f e110 8c3f 6cb3 8e3f
000001b0: d181 8c3f c50f 8e3f 95b9 8b3f e855 8b3f
000001c0: 0cd5 8a3f 42d1 893f 2117 8a3f a4dc 873f
000001d0: febf 853f cddf 883f 3bba 8c3f ebd9 8a3f
000001e0: 961f 8c3f a6e9 823f 4271 843f 10a5 8c3f
000001f0: a7bf 8d3f f4d7 893f 435c 8b3f c6d1 873f

bn3.bias f4 [128]
0.06347476 0.027276386 0.059609983 0.094352566 0.055018216 0.0843818 0.08042138 0.07528224
0.016667945 0.06365357 0.08321288 0.033065367 0.02673296 0.0300802 0.08567885 0.10212172
0.020088226 -0.00012642118 0.063702054 0.069091044 0.07682129 -0.0066226716 0.045693316 0.017737605
0.107478514 -0.011451113 0.06516421 0.04561897 0.09110068 0.10604232 0.0014481388 0.08217226
0.0055126897 0.027064055 0.024891661 0.017298942 -0.019952578 0.10429474 0.052954823 0.07389036
0.07165594 0.049575042 0.08792519 0.044409543 0.041072484 0.07603538 0.019462619 0.027197031
0.006895278 0.012289314 0.0716609 0.03035384 0.086392604 0.0062491074 0.009553298 0.063311756
0.086061925 -0.022295434 0.08699054 0.06793361 0.083131604 0.007909925 -0.015258483 0.09348008
0.03505724 0.051422443 0.08681143 0.09253677 0.073066324 0.061091535 0.044467334 0.049431052
0.09063306 0.09203291 0.039664906 0.089060776 0.07101848 0.05191746 0.11709782 0.07664928
0.09938539 0.09282882 0.0034596438 0.066950716 -0.00969565 0.109628804 0.014950828 0.049667183
0.05932391 0.06604617 0.046130046 0.08325364 -0.008277143 0.07270816 0.056168534 -0.015390352
0.05689555 0.10718897 0.061972037 0.025376381 0.0638072 0.039923534 0.07844866 0.044092126
0.09277554 -0.011082319 0.045257695 0.055758137 0.080735415 0.10772084 0.0627486 0.09420539
0.037605897 0.07862127 0.08093818 0.06663012 0.048903428 0.012874105 0.0051526274 0.055434886
0.092332415 0.010279885 0.04312577 0.09736779 0.00881359 0.07516292 0.026754899 0.05636456
00000000: 0eff 813d ba72 df3c 9929 743d eb3b c13d
00000010: c85a 613d 5dd0 ac3d f7b3 a43d 932d 9a3d
00000020: 378b 883c ce5c 823d 846b aa3d 8d6f 073d
00000030: 15ff da3c c06a f63c 6578 af3d 3125 d13d
00000040: 1090 a43c ed8f 04b9 3976 823d 9b7f 8d3d
00000050: 7b54 9d3d ff02 d9bb ea28 3b3d 744e 913c
00000060: b21d dc3d 739d 3bbc d074 853d f5da 3a3d
00000070: fe92 ba3d b72c d93d 7acf bd3a ee49 a83d
00000080: cba3 b43b 70b5 dd3c 99e9 cb3c 83b6 8d3c
00000090: 9773 a3bc 7b98 d53d 28e7 583d d453 973d
000000a0: 59c0 923d 330f 4b3d 1f12 b43d c8e6 353d
000000b0: 9f3b 283d 70b8 9b3d 1270 9f3c 4fcc de3c
000000c0: c9f1 e13b 1e59 493c f3c2 923d 9ea8 f83c
000000d0: 9bee b03d 50c5 cc3b 7085 1c3c 98a9 813d
000000e0: 3c41 b03d eaa4 b6bc 1928 b23d c720 8b3d
000000f0: e740 aa3d a198 013c b7fe 79bc 7c72 bf3d
00000100: 2e98 0f3d 57a0 523d 31ca b13d eb83 bd3d
00000110: cca3 953d 1e3b 7a3d 6123 363d 3778 4a3d
00000120: d39d b93d c07b bc3d ab77 223d 7f65 b63d
00000130: 2372 913d 67a7 543d fbd0 ef3d 4cfa 9c3d
00000140: 918a cb3d 091d be3d 31bb 623b 751d 893d
00000150: 81da 1ebc 1185 e03d 51f4 743c d16f 4b3d
00000160: a1fd 723d 3743 873d dcf2 3c3d e280 aa3d
00000170: db9c 07bc 04e8 943d fa10 663d d127 7cbc
00000180: 4f0b 693d e485 db3d 64d6 7d3d 21e2 cf3c
00000190: 59ad 823d dc86 233d b1a9 a03d f299 343d
000001a0: 1a01 be3d 9d92 35bc 2260 393d a562 643d
000001b0: 9c58 a53d be9c dc3d 5782 803d c1ee c03d
000001c0: a408 1a3d 3004 a13d ebc2 a53d 5f75 883d
000001d0: f64e 483d e9ed 523c 5fd7 a83b b10f 633d
000001e0: c718 bd3d f66c 283c a6a4 303d c468 c73d
000001f0: e066 103c 04ef 993d 172d db3c 86de 663d

bn3.running_mean f4 [128]
-1.3853506 0.72305477 -0.34654728 -1.4119856 -0.119372286 -1.4606394 -1.3714752 -0.06174582
-0.23112774 -1.3290273 -1.2340167 -0.2471312 -0.042111833 0.32452607 -1.4541028 -1.4279795
0.32009536 -0.54619586 0.048056792 -1.9300163 0.18510482 -0.7908596 -0.06181108 -0.27260324
-1.3184419 0.83677584 -0.2588678 -0.060852468 -1.6085699 -1.7649823 -0.48249313 0.086987674
1.1293467 0.0021025562 0.7279705 -0.66705376 1.1394794 -1.5859209 0.059475098 -1.3622451
-1.4666351 -1.3178395 -1.504745 0.7688187 -0.59381837 -1.4391267 -0.6847743 -0.8610773
0.9444798 -0.64955056 -0.7963944 -0.32120907 -1.4128137 -0.6579602 -0.19231659 0.55960685
-1.8984824 -0.2896852 0.55714023 0.5530054 -1.7122244 0.457216 -0.8134151 -1.919251
-0.18463334 0.3972147 -1.7516936 -1.444378 -1.5855697 -1.0113783 -0.47157377 -1.4892879
-1.3882354 -1.1920769 0.332729 -1.8452426 -1.2208151 -0.042613886 -1.6072942 -1.29593
-1.6265138 -1.4147247 -0.5999824 -1.7484795 0.39356974 -1.5860964 -0.6340519 0.24877878
-1.8124269 0.37231693 -0.40592983 -0.012772337 -0.8158667 0.15687923 -0.1738549 -0.7445516
-0.17087169 -1.6073374 0.16146226 -0.45738587 0.47312322 0.8423551 -1.768828 -0.5904381
-1.2173471 -0.83516324 0.26882192 0.009922727 0.54229873 -1.3667122 0.64244646 -1.4518124
0.048972715 -1.7628523 -1.8096484 -1.3635031 -0.887442 -0.44482625 -0.591693 0.7895869
-1.7318156 0.6840151 -1.4766965 -1.4581356 -0.46315032 -1.4083309 -0.3611881 0.9256491
00000000: 2b53 b1bf 1e1a 393f a56e b1be f2bb b4bf
00000010: 7579 f4bd 3bf6 babf 808c afbf 2fe9 7cbd
00000020: c0ac 6cbe 911d aabf 42f4 9dbf f60f 7dbe
00000030: 757d 2cbd 4828 a63e 0a20 babf 08c8 b6bf
00000040: 8ae3 a33e 7ed3 0bbf 33d7 443d c60a f7bf
00000050: 1e8c 3d3e c675 4abf 9d2d 7dbd a792 8bbe
00000060: b4c2 a8bf f136 563f 528a 84be 7040 79bd
00000070: 9ee5 cdbf f1ea e1bf 5709 f7be 9826 b23d
00000080: 6f8e 903f 0acb 093b 465c 3a3f 09c4 2abf
00000090: 76da 913f 75ff cabf 299c 733d 0c5e aebf
000000a0: b3ba bbbf f7ae a8bf 7c9b c0bf 4dd1 443f
000000b0: 7b04 18bf 4e35 b8bf 5e4d 2fbf 906f 5cbf
000000c0: 6ec9 713f f248 26bf 81e0 4bbf 8475 a4be
000000d0: 14d7 b4bf 1470 28bf a4ee 44be 6542 0f3f
000000e0: 7901 f3bf 9e51 94be bea0 0e3f c391 0d3f
000000f0: 2b2a dbbf 3718 ea3e f93b 50bf 04aa f5bf
00000100: 8610 3dbe ba5f cb3e 7f37 e0bf 61e1 b8bf
00000110: f3f3 cabf d874 81bf 1e72 f1be fca0 bebf
00000120: b3b1 b1bf fa95 98bf 755b aa3e e930 ecbf
00000130: ab43 9cbf e68b 2ebd d1bb cdbf 09e1 a5bf
00000140: 9b31 d0bf b315 b5bf 7298 19bf 2dce dfbf
00000150: f981 c93e 3505 cbbf 3a51 22bf ddbf 7e3e
00000160: 9bfd e7bf 53a0 be3e 09d6 cfbe 1043 51bc
00000170: a4dc 50bf f3a4 203e 0507 32be ef9a 3ebf
00000180: fdf8 2ebe 3bbd cdbf 5d56 253e 7b2e eabe
00000190: 353d f23e 95a4 573f f568 e2bf f426 17bf
000001a0: 08d2 9bbf 42cd 55bf 07a3 893e ef92 223c
000001b0: 17d4 0a3f 6df0 aebf 5f77 243f fdd4 b9bf
000001c0: 9d97 483d 25a5 e1bf 8fa2 e7bf 4587 aebf
000001d0: 662f 63bf 44c0 e3be 3179 17bf 5e22 4a3f
000001e0: 22ac ddbf 9d1b 2f3f 6404 bdbf 30a4 babf
000001f0: 0a22 edbe 3044 b4bf a6ed b8be 57f7 6c3f

bn3.running_var f4 [128]
0.36930776 0.24877341 0.13429944 0.42807874 0.11446944 0.41101396 0.43826252 0.15685011
0.19980265 0.36767182 0.34677917 0.11149546 0.25521177 0.30110955 0.38389662 0.41944712
0.40876904 0.10586387 0.14494233 0.7213525 0.1970883 0.123745516 0.164312 0.11448467
0.40494967 0.33928123 0.14302275 0.2735964 0.48437443 0.5688543 0.10309542 0.17455113
0.33411446 0.1733542 0.2975677 0.117454015 1.0398896 0.48236668 0.1700135 0.38221362
0.41773298 0.33153507 0.4063608 0.2853499 0.2805529 0.37578443 0.13110243 0.2568294
0.19389796 0.12579657 0.48920128 0.14644131 0.42368963 0.2220853 0.2592384 0.31436732
0.65171015 0.3844867 0.23909648 0.27098706 0.50288475 0.6864402 0.11679942 0.62348413
0.2938032 0.35167927 0.5471223 0.4452287 0.41290763 0.38855422 0.1544005 0.48237103
0.484552 0.31279618 0.39521807 0.5968446 0.33064392 0.14089228 0.4563493 0.41434473
0.5320176 0.44299313 0.14946344 0.45681652 0.58433324 0.43570772 0.12446576 0.3197674
0.59400797 0.30246195 0.120620936 0.24171463 0.13551226 0.10528843 0.1452573 0.19264007
0.13035047 0.51063174 0.13062122 0.13241854 0.22260326 0.28781193 0.56541955 0.16914098
0.4641372 0.11298188 0.15798342 0.19219519 0.11219202 0.31927326 0.3748536 0.3953561
0.20306362 0.4734267 0.58896416 0.48211223 0.3279431 0.16413999 0.11484215 0.29146624
0.5589709 0.92451006 0.37560475 0.42686707 0.12391605 0.40809664 0.15895851 0.2862156
00000000: e815 bd3e 75be 7e3e cb85 093e 232d db3e
00000010: f46e ea3d 6c70 d23e f263 e03e 519d 203e
00000020: 1199 4c3e 7b3f bc3e 0a8d b13e bb57 e43d
00000030: 1eab 823e 082b 9a3e 198e c43e c6c1 d63e
00000040: 2d4a d13e 28cf d83d c36b 143e 8faa 383f
00000050: 84d1 493e 4a6e fd3d 6841 283e f076 ea3d
00000060: 9055 cf3e 45b6 ad3e 8e74 123e d414 8c3e
00000070: edff f73e 6fa0 113f b123 d33d 88bd 323e
00000080: 0d11 ab3e c383 313e cb5a 983e bb8b f03d
00000090: 1a1b 853f c4f8 f63e 0518 2e3e 81b1 c33e
000000a0: 19e1 d53e f7be a93e 860e d03e 6219 923e
000000b0: a1a4 8f3e d166 c03e b73f 063e 257f 833e
000000c0: 308d 463e d1d0 003e 9778 fa3e b6f4 153e
000000d0: d9ed d83e 546a 633e e5ba 843e c1f4 a03e
000000e0: 7ad6 263f 71db c43e b5d5 743e d1be 8a3e
000000f0: 0ebd 003f 8cba 2f3f 8934 ef3d a89c 1f3f
00000100: 5f6d 963e 4e0f b43e 3510 0c3f 04f5 e33e
00000110: a168 d33e 94f0 c63e 2a1b 1e3e 56f9 f63e
00000120: 3317 f83e d226 a03e 065a ca3e cfca 183f
00000130: 294a a93e 1146 103e 9ea6 e93e fe24 d43e
00000140: 4e32 083f ffcf e23e f20c 193e dbe3 e93e
00000150: dd96 153f 1515 df3e e8e7 fe3d 8db8 a33e
00000160: e810 183f 4bdc 9a3e 1c08 f73d 0a84 773e
00000170: bac3 0a3e 76a1 d73d 54be 143e 7043 453e
00000180: 987a 053e c3b8 023f 92c1 053e ba98 073e
00000190: 1cf2 633e 165c 933e 56bf 103f 4b33 2d3e
000001a0: 64a3 ed3e 0b63 e73d 68c6 213e d1ce 443e
000001b0: eec4 e53d c977 a33e d0ec bf3e 1d6c ca3e
000001c0: e9ef 4f3e fc64 f23e 5bc6 163f 6ad7 f63e
000001d0: 28e8 a73e 5014 283e 5c32 eb3d 103b 953e
000001e0: b818 0f3f b1ac 6c3f 444f c03e 528e da3e
000001f0: b3c7 fd3d 0bf2 d03e 05c6 223e da8a 923e
