results_10balls_1/simple_20250325_153029/best_model.pth (torch, 520034 bytes, 20 tensors)

conv1.weight f4 [32, 1, 5, 5]
0.18854952 0.19197571 -0.04250392 0.18626218 -0.02995717 0.05293726 -0.09540966 0.078517936
0.14276767 -0.14396684 0.1642181 0.019697346 0.10682884 -0.005427636 0.087026365 -0.022617402
0.12966245 -0.0069787814 -0.1105566 0.042070772 -0.09480923 -0.032496914 -0.11626841 0.105344966
-0.16557474 -0.06862864 -0.040859893 -0.1034852 0.026970122 -0.18661481 0.1968371 -0.15226476
0.15237825 0.044134066 -0.051713765 0.13832062 0.041714042 0.17101033 0.022536421 -0.049364932
0.06385563 -0.0421102 0.0883877 0.18113135 0.13055569 -0.08508332 0.12863792 0.037633453
0.105672374 -0.11068477 -0.2097543 -0.092386715 -0.1680521 0.14601637 0.048577625 0.064380355
0.04474872 -0.023984833 0.13767634 -0.15448081 -0.0051846476 -0.15036586 0.042444076 -0.08748372
0.043816715 -0.0532158 0.146086 -0.13334417 -0.12801951 -0.13058317 0.17509238 0.05422323
0.17862874 -0.16922393 -0.2019273 -0.1498752 -0.1301292 0.07369034 0.07665734 0.18747103
-0.10780944 -0.14545551 0.09693646 -0.07565968 0.12648329 -0.050856825 0.09618286 -0.16436301
-0.100510076 0.058947906 0.03569414 -0.07045195 0.0985497 0.12734765 -0.13876139 -0.111175284
0.16221489 -0.08186684 -0.08381944 -0.18759763 -0.102613986 0.040263996 -0.012687257 -0.07512863
-0.009877375 -0.121205166 -0.09822055 -0.033533007 -0.08460521 -0.051774647 0.2035192 0.012424506
0.056963626 -0.09275061 -0.05011574 -0.05047161 0.042281043 -0.11452964 -0.01443017 -0.04678009
0.0141223995 -0.054470245 0.0067397617 -0.07214228 -0.0853234 -0.11947458 -0.070513695 -0.16445866
0.15890194 -0.048853397 0.16631603 0.055523783 -0.17178236 0.13265653 -0.060467634 -0.08211052
-0.17391053 -0.2048101 0.054272436 -0.0467233 0.072204314 -0.17084037 0.137726 -0.14638695
-0.035140563 0.050980832 0.09780607 0.15511174 0.17496367 -0.15995197 0.044040706 -0.09747025
-0.039142855 -0.15290172 0.17283295 -0.15223932 0.09470246 0.056431722 0.050685804 -0.12408602
0.16505101 0.028325297 0.013810147 -0.19031668 0.07013329 -0.042571686 -0.10347005 0.15138777
0.02777672 -0.12673107 -0.11291987 -0.02690457 0.089969754 -0.0744435 -0.12677963 -0.06498069
-0.14251171 0.07171162 0.15682863 -0.16939941 0.050147593 0.107249044 0.032806456 -0.07322176
0.119044416 0.11034711 0.0751261 -0.028869718 -0.03901322 0.04810152 -0.02363252 -0.059726477
0.1276786 0.17731902 0.004010303 -0.03397235 0.017388778 -0.0070466367 0.06101273 0.06960495
-0.17018482 -0.07079579 0.15182765 0.064089075 -0.024758063 -0.10755715 -0.12458827 -0.16747735
-0.077454925 0.047263216 0.12515208 0.07920404 -0.16575743 -0.11564775 -0.04300757 0.18799962
0.016596055 -0.060248356 0.059401546 -0.07473157 -0.12886226 0.13217133 -0.096102685 -0.05410024
-0.19381708 0.15213552 0.15931936 0.073756054 -0.13977636 -0.19894706 -0.16047458 0.14228475
0.08223836 0.15641205 0.09530296 0.0482852 -0.007988782 -0.15580922 -0.17020708 -0.19300583
0.076693475 -0.087625355 -0.045437403 -0.113809 -0.0475776 -0.1295533 -0.12845498 0.053101636
-0.069843434 0.0967175 -0.06486677 -0.14044608 -0.029006256 -0.08472844 -0.0504295 -0.19785932
00000000: 2013 413e 4895 443e 9718 2ebd 83bb 3e3e
00000010: bd68 f5bc bed4 583d 2466 c3bd 03ce a03d
00000020: b031 123e 0b6c 13be ca28 283e 545c a13c
00000030: 14c9 da3d 50da b1bb e13a b23d 2148 b9bc
00000040: 3cc6 043e 43ae e4bb 806b e2bd 6752 2c3d
00000050: 572b c2bd 7c1b 05bd 221e eebd 1abf d73d
00000060: 6d8c 29be 2c8d 8cbd b45c 27bd 0cf0 d3bd
00000070: 72f0 dc3c f417 3fbe aa8f 493e 4beb 1bbe
00000080: 0b09 1c3e ecc5 343d d0d1 53bd eca3 0d3e
00000090: 58dc 2a3d 551d 2f3e 4d9e b83c e232 4abd
000000a0: bec6 823d bf7b 2cbd 9c04 b53d 7f7a 393e
000000b0: 64b0 053e 2a40 aebd a9b9 033e 8925 1a3d
000000c0: c26a d83d b2ae e2bd d5c9 56be 3f35 bdbd
000000d0: da15 2cbe 5185 153e 55f9 463d d9d9 833d
000000e0: 6f4a 373d d77b c4bc 07fb 0c3e 3830 1ebe
000000f0: fae3 a9bb 82f9 19be d7d9 2d3d aa2a b3bd
00000100: 2879 333d d0f8 59bd 9297 153e 608b 08be
00000110: 8c17 03be 98b7 05be 6b4b 333e 2d19 5e3d
00000120: 74ea 363e 0a49 2dbe 08c6 4ebe e278 19be
00000130: 9740 05be f6ea 963d 86fe 9c3d 68f8 3f3e
00000140: 32cb dcbd 4af2 14be 9f86 c63d 76f3 9abd
00000150: d684 013e 3f4f 50bd 85fb c43d c74e 28be
00000160: 3ad8 cdbd 5c73 713d 0534 123d 1d49 90bd
00000170: 6dd4 c93d 6c67 023e 7717 0ebe deaf e3bd
00000180: a91b 263e cda9 a7bd 87a9 abbd 9819 40be
00000190: 4827 d2bd dceb 243d 36de 4fbc 0add 99bd
000001a0: b7d4 21bc 6a3a f8bd db27 c9bd e859 09bd
000001b0: 7f45 adbd a711 54bd 5667 503e 2890 4b3c
000001c0: b152 693d 08f4 bdbd 2a46 4dbd 52bb 4ebd
000001d0: e32e 2d3d 848e eabd 856c 6cbc 7b9c 3fbd
000001e0: a361 673c 311c 5fbd 38d9 dc3b 55bf 93bd
000001f0: 09be aebd 17af f4bd 7c69 90bd da67 28be
00000200: 31b7 223e 801a 48bd c04e 2a3e e86c 633d
00000210: b7e7 2fbe 1dd7 073e e9ac 77bd 8f29 a8bd
00000220: 9a15 32be bdb9 51be c64c 5e3d ee60 3fbd
00000230: dbdf 933d c7f0 2ebe 0b08 0d3e 76e6 15be
00000240: 8def 0fbd 47d1 503d 8d4e c83d 9dd5 1e3e
00000250: ad29 333e 73ca 23be 0764 343d 7c9e c7bd
00000260: 4254 20bd 4592 1cbe 1ffb 303e a0e4 1bbe
00000270: 5df3 c13d f324 673d eb9b 4f3d d020 febd
00000280: 2203 293e 740a e83c f443 623c 60e2 42be
00000290: 0ba2 8f3d a65f 2ebd 1be8 d3bd 6505 1b3e
000002a0: 018c e33c cac5 01be 8842 e7bd f966 dcbc
000002b0: 1042 b83d d575 98bd 85d2 01be 9914 85bd
000002c0: 97ee 11be 8bdd 923d af97 203e 0a77 2dbe
000002d0: 9067 4d3d 63a5 db3d 1060 063d 4af5 95bd
000002e0: 8fcd f33d aafd e13d b6db 993d 3080 ecbc
000002f0: 54cc 1fbd 1906 453d fd98 c1bc c0a3 74bd
00000300: 2ebe 023e 1e93 353e dc68 833b 9726 0bbd
00000310: e972 8e3c 79e7 e6bb 7ce8 793d 0a8d 8e3d
00000320: ee44 2ebe 62fd 90bd b578 1b3e 2241 833d
00000330: 6cd1 cabc ec46 dcbd 2328 ffbd 2f7f 2bbe
00000340: b0a0 9ebd 1397 413d de27 003e ba35 a23d
00000350: 51bc 29be bad8 ecbd b528 30bd f982 403e
00000360: 73f4 873c fbc6 76bd 094f 733d de0c 99bd
00000370: 78f4 03be ec57 073e 7cd1 c4bd 3798 5dbd
00000380: fc77 46be 6ac9 1b3e 9d24 233e 6a0d 973d
00000390: 8921 0fbe c7b8 4bbe 7353 24be 18b3 113e
000003a0: 966c a83d 7b2a 203e 332e c33d b4c6 453d
000003b0: 61e3 02bc 748c 1fbe c44a 2ebe 52a3 45be
000003c0: 7811 9d3d ec74 b3bd 921c 3abd b114 e9bd
000003d0: bbe0 42bd 9fa9 04be b489 03be 1a81 593d
000003e0: 130a 8fbd d313 c63d ded8 84bd 19d1 0fbe
000003f0: 879e edbc 1b86 adbd 2a8f 4ebd a29b 4abe

conv1.bias f4 [32]
4.616549e-05 0.006594897 -0.08279956 0.028984252 -0.0009398046 -0.05929806 0.00085845805 0.016308473
0.077892415 -0.034347467 -0.017286822 0.0014899655 -0.00019010942 0.0053593568 0.025046607 0.0006406709
0.026218433 0.055175964 0.00033377408 0.050833624 0.016813556 0.080834754 -0.027960861 -0.01753687
-9.9765675e-05 0.000687042 0.03277247 -0.028300405 0.01839171 -0.0037058406 0.03336432 0.0010016812
00000000: d1a1 4138 011a d83b d192 a9bd 6270 ed3c
00000010: 385d 76ba 86e2 72bd 250a 613a 5999 853c
00000020: 0f86 9f3d eeaf 0cbd 189d 8dbc f24a c33a
00000030: 1c58 47b9 8b9d af3b 8b2e cd3c b2f2 273a
00000040: 0ac8 d63c 3100 623d 66fe ae39 eb36 503d
00000050: 95bc 893c b18c a53d 2d0e e5bc 7ba9 8fbc
00000060: 4a39 d1b8 9c1a 343a 6d3c 063d 40d6 e7bc
00000070: 36aa 963c b0dd 72bb 06a9 083d d84a 833a

bn1.weight f4 [32]
0.9571252 0.9666657 0.9692937 0.97265905 0.98741955 0.98021764 0.9600631 0.97476614
0.9586602 0.9692868 0.96746564 0.99095285 0.9519379 0.98667705 0.9859166 0.9728162
0.9614558 0.97530586 0.96399236 0.96228266 0.9823603 0.96786547 0.94070685 0.96012634
0.99598986 0.98301333 0.9566896 0.96749675 0.9701681 0.97100824 0.9710679 0.9837719
00000000: 2806 753f 6777 773f a223 783f 2f00 793f
00000010: 87c7 7c3f 8bef 7a3f b2c6 753f 468a 793f
00000020: c16a 753f 2e23 783f d4ab 773f 16af 7d3f
00000030: 34b2 733f de96 7c3f 0865 7c3f 7c0a 793f
00000040: f821 763f a5ad 793f 34c8 763f 2858 763f
00000050: f77b 7b3f 08c6 773f 2ad2 703f d7ca 753f
00000060: 31f9 7e3f c3a6 7b3f 9ce9 743f dead 773f
00000070: f05c 783f ff93 783f e897 783f 7ad8 7b3f

bn1.bias f4 [32]
-0.00142631 -0.0061238324 0.042194247 0.07427655 0.09889929 0.08736002 0.058186345 -0.0026689738
0.07819288 0.051742353 -0.010007883 0.08900422 -0.02129409 0.10018786 -0.010472116 0.03054308
0.090043396 0.06370415 0.01979913 0.0028441683 -0.046733376 0.009440669 0.086522676 0.08586003
0.085439146 0.09888993 -0.007021843 -0.00089809066 0.05145959 0.039328575 0.04569046 0.09278129
00000000: 06f3 baba 6eaa c8bb e0d3 2c3d 4e1e 983d
00000010: b68b ca3d cfe9 b23d ce54 6e3d f3e9 2ebb
00000020: 9723 a03d caef 533d 1bf8 23bc d847 b63d
00000030: f270 aebc 4b2f cd3d 3d93 2bbc 7b35 fa3c
00000040: ac68 b83d 5277 823d c931 a23c 3a65 3a3b
00000050: 7f6b 3fbd 09ad 1a3c cd32 b13d 62d7 af3d
00000060: b8fa ae3d ce86 ca3d 7d17 e6bb d86d 6bba
00000070: 4bc7 523d 0017 213d eb25 3b3d 1e04 be3d

bn1.running_mean f4 [32]
0.0058117206 0.014486041 -0.095287874 0.030652424 -0.010202458 -0.069278516 -0.0028469283 0.025245862
0.07768742 -0.043828655 -0.021389239 -0.0051034046 0.00610053 -0.001368273 0.03010419 -0.00079955085
0.025822775 0.058991503 -0.0009479722 0.058045898 0.019626254 0.08774625 -0.039455824 -0.026094202
-0.003327125 -0.006649881 0.042703666 -0.03112627 0.019646686 -0.008565702 0.036270898 -0.0009302933
00000000: 3f70 be3b dc56 6d3c 4a26 c3bd cb1a fb3c
00000010: 3628 27bc e5e1 8dbd 8893 3abb 69d0 ce3c
00000020: 951a 9f3d ad85 33bd 7c38 afbc 763a a7bb
00000030: f4e6 c73b a057 b3ba 109d f63c f398 51ba
00000040: 498a d33c 13a1 713d 5681 78ba 89c1 6d3d
00000050: 3dc7 a03c 4eb4 b33d 6e9c 21bd 82c3 d5bc
00000060: e50b 5abb 3fe7 d9bb 0aea 2e3d 85fc febc
00000070: 16f2 a03c 2857 0cbc cb90 143d edde 73ba

bn1.running_var f4 [32]
0.0039004239 0.0033941641 0.0031167208 0.001865552 0.0054163826 0.0016801166 0.001128635 0.0023047773
0.0050227377 0.0022680976 0.0010092 0.002282593 0.0041896002 0.007645344 0.0012383006 0.00092095596
0.0034065002 0.0011378534 0.00076112594 0.000847832 0.0010014775 0.001487574 0.004808713 0.001695748
0.0017345302 0.0025831775 0.0018102229 0.002742578 0.0017138572 0.0015240579 0.0014740042 0.0013358948
00000000: 419e 7f3b a070 5e3b e641 4c3b 8a85 f43a
00000010: e97b b13b 5c37 dc3a b5ee 933a bf0b 173b
00000020: c795 a43b 5da4 143b 2247 843a 8e97 153b
00000030: ea48 893b cb85 fa3b 794e a23a 4f6c 713a
00000040: 973f 5f3b 0624 953a 4c86 473a 0b41 5e3a
00000050: 0244 833a b3fa c23a 6992 9d3b dc43 de3a
00000060: 2d59 e33a 874a 293b 0045 ed3a d3bc 333b
00000070: 81a3 e03a e6c2 c73a 6033 c13a 3119 af3a

conv2.weight f4 [64, 32, 5, 5]
-0.014660468 -0.020826142 -0.030668108 0.0051891413 -0.02563584 -0.0013559744 0.000321408 -0.02894282
0.0014000288 -0.03714616 -0.024465535 -0.041027933 -0.019246776 -0.021631578 -0.0014758355 -0.011100075
0.012506908 0.025457801 0.0039487462 -0.022160841 -0.040510844 0.006264321 -0.027121302 0.0043686484
0.008026009 0.02048527 0.02497429 0.022142172 -0.002607029 -0.03079672 0.027459152 -0.024871457
-0.026299149 0.020363627 0.023067925 0.01080291 -0.0032725795 -0.03579845 -0.013187526 0.025917226
0.0014105039 -0.007188848 -0.016429652 -0.023940962 0.0051600514 -0.007109849 0.01378554 -0.020052655
0.0036161083 0.001542023 0.018923692 0.02437879 0.025932247 0.015475816 0.030712437 -0.010014651
-0.040961374 0.0021379588 -0.005711606 -0.010434986 -0.012115023 0.0024165118 0.01805917 0.0032714258
-0.02140123 -0.025302721 -0.019592023 -0.0254505 0.015305719 0.014254572 0.031406205 -0.0027263884
-0.0018676436 0.004835999 -0.024585303 -0.0010701339 -0.007359335 -0.021600366 -0.03304036 0.053843133
0.024452824 0.0046886653 0.0295916 -0.025542857 0.0050221733 0.00075616053 -0.0202204 -0.013284134
-0.034735303 0.020366188 -0.027193816 -0.012264177 0.02423681 -0.018316738 0.0027775841 0.012408564
-0.02347255 -0.0070526158 0.022557907 -0.014570915 -0.06221793 -0.07463706 -0.06049731 -0.09293764
-0.09650499 -0.020408165 -0.04683193 -0.0484255 -0.090673335 -0.07989676 -0.03447153 -0.02423953
-0.016262418 -0.047332954 -0.07592154 -0.05846002 -0.0756933 -0.031692017 -0.09117741 -0.0813165
-0.029282182 -0.043576 -0.026651215 -0.095256396 -0.089336045 -0.011913304 0.025161946 -0.0024144372
-0.03792695 0.002071441 -0.02865251 -0.015993355 -0.011914554 0.020268392 0.0072960923 -0.004676335
0.004604573 -0.015165925 0.0017152216 -0.004785928 -0.0019865325 -0.026160175 0.020336738 -0.015379153
-0.024539392 0.0196035 0.018942868 0.028453816 0.013214926 0.0011930333 0.029041955 0.031929035
-0.032241315 -0.009998452 -0.015547651 0.015340654 0.015513389 -0.0033205077 -0.007841065 0.026700491
0.00020573928 -0.030629672 0.031672653 -0.02210886 -0.0038287106 -0.0024606334 -0.008415732 -0.034729872
0.0062826877 -0.014976962 -0.028394561 0.00019497333 -0.030172724 -0.032586146 -0.009145904 -0.0061233058
-0.02152153 -0.020308414 -0.0013570789 -0.02385649 -0.024306478 -0.009267328 -0.005755503 0.0123890275
-0.024958221 0.009943595 0.0140044745 0.010763654 -0.04089988 -0.017799638 -0.034457374 -0.02838447
0.010755533 -0.01604928 0.0017748951 -0.035305526 -0.0012418346 -0.033736646 0.0050518615 -0.032575514
-0.004679916 -0.031418312 -0.0054883454 -0.00053161447 0.0059992177 -0.019861402 -0.018321333 -0.0061072446
-0.0470843 0.019552732 -0.007472604 0.0062625306 -0.01292198 -0.029389333 -0.0006695936 0.0013989558
-0.0060588093 -0.02706137 0.0016568376 -0.013381758 -0.026482537 -0.02873989 0.018951496 -0.018879928
-0.017651869 0.003789599 -0.0023521518 -0.024029719 -0.034909308 0.008548402 0.036525086 0.031113857
-0.034885585 0.004207979 -0.029758712 0.024583613 0.012120365 0.018626757 0.009698245 0.013315483
-0.010633231 0.008201183 -0.024616718 -0.00014850388 -0.018094089 -0.032283638 -0.02810074 -0.010449212
-0.027189823 -0.019778805 -0.021742973 -0.042007003 -0.008811039 0.012453108 0.033553455 0.0221189
00000000: 7632 70bc 969b aabc af3b fbbc ac09 aa3b
00000010: 4102 d2bc f3ba b1ba a782 a839 7e19 edbc
00000020: 2c81 b73a 9226 18bd f26b c8bc e80c 28bd
00000030: 6aab 9dbc b534 b1bc d270 c1ba 17dd 35bc
00000040: c6e9 4c3c e18c d03c 7c64 813b a78a b5bc
00000050: b3ee 25bd ef44 cd3b 7e2d debc e126 8f3b
00000060: 867f 033c bad0 a73c e296 cc3c 8063 b53c
00000070: b0da 2abb 6749 fcbc 04f2 e03c 3abf cbbc
00000080: 5071 d7bc 9fd1 a63c f2f8 bc3c b0fe 303c
00000090: c678 56bb 65a1 12bd 7e10 58bc 5d50 d43c
000000a0: a8e0 b83a 6e90 ebbb 7a97 86bc d61f c4bc
000000b0: a615 a93b bcf9 e8bb bfdc 613c 7745 a4bc
000000c0: 3bfc 6c3b b51d ca3a dc05 9b3c 07b6 c73c
000000d0: dd6f d43c 478e 7d3c a698 fb3c 7e14 24bc
000000e0: 1dc7 27bd ff1c 0c3b 6c28 bbbb 81f7 2abc
000000f0: 177e 46bc 575e 1e3b d3f0 933c 6b65 563b
00000100: a251 afbc a747 cfbc 737f a0bc 917d d0bc
00000110: d7c4 7a3c 028c 693c cba3 003d 35ad 32bb
00000120: b8cb f4ba 4d77 9e3b 1e67 c9bc bc43 8cba
00000130: 9426 f1bb 40f3 b0bc 5455 07bd 9e8a 5c3d
00000140: 4a51 c83c 60a3 993b 156a f23c 413f d1bc
00000150: 0b91 a43b 1339 463a 41a5 a5bc b2a5 59bc
00000160: 9b46 0ebd fed6 a63c 91c5 debc b0ef 48bc
00000170: 468c c63c fc0c 96bc 2108 363b 4a4d 4b3c
00000180: 8149 c0bc a119 e7bb 5ccb b83c d9ba 6ebc
00000190: 3ad8 7ebd 51db 98bd 07cc 77bd 1756 bebd
000001a0: 68a4 c5bd 062f a7bc d6d2 3fbd d159 46bd
000001b0: f1b2 b9bd eaa0 a3bd 0532 0dbd fb91 c6bc
000001c0: c338 85bc 33e0 41bd c17c 9bbd c673 6fbd
000001d0: 1705 9bbd 7dcf 01bd 39bb babd 4489 a6bd
000001e0: 30e1 efbc bf7c 32bd a653 dabc c915 c3bd
000001f0: d1f5 b6bd 0530 43bc 6d20 ce3c 893b 1ebb
00000200: 4a59 1bbd 03c1 073b abb8 eabc 7f04 83bc
00000210: 4335 43bc e609 a63c 0f14 ef3b f13b 99bb
00000220: f5e1 963b 807a 78bc 49d1 e03a 46d3 9cbb
00000230: 7c30 02bb dd4d d6bc 3b99 a63c d8f8 7bbc
00000240: d606 c9bc 8597 a03c 132e 9b3c fa17 e93c
00000250: 6b83 583c 8e5f 9c3a 65e9 ed3c 05c8 023d
00000260: 780f 04bd 8cd0 23bc 93bb 7ebc 5e57 7b3c
00000270: df2b 7e3c e09c 59bb cf77 00bc fdba da3c
00000280: b8bb 5739 14eb fabc 2fbb 013d a41d b5bc
00000290: 1beb 7abb 9442 21bb 23e2 09bc e940 0ebd
000002a0: 01df cd3b ee61 75bc b69b e8bc c171 4c39
000002b0: ca2c f7bc 0d79 05bd b4d8 15bc 03a6 c8bb
000002c0: eb4d b0bc d55d a6bc 03e0 b1ba b06e c3bc
000002d0: 611e c7bc fed5 17bc a998 bcbb 59fb 4a3c
000002e0: 2f75 ccbc 76ea 223c 0673 653c 095a 303c
000002f0: a286 27bd 8cd0 91bc 2d23 0dbd 8c86 e8bc
00000300: fa37 303c c879 83bc 99a3 e83a 879c 10bd
00000310: 0ec5 a2ba 702f 0abd 168a a53b e76d 05bd
00000320: fb59 99bb 7db0 00bd 94d7 b3bb 0b5c 0bba
00000330: 1695 c43b 61b4 a2bc 9f16 96bc 481f c8bb
00000340: 78db 40bd 0d2d a03c bfdc f4bb ea35 cd3b
00000350: b6b6 53bc e6c1 f0bc aa87 2fba 2b5d b73a
00000360: fa88 c6bb ceaf ddbc 3f2a d93a 293f 5bbc
00000370: e8f1 d8bc eb6f ebbc 2b40 9b3c 14aa 9abc
00000380: a79a 90bc ec5a 783b 8f26 1abb f9d9 c4bc
00000390: 10fd 0ebd 990e 0c3c 549b 153d 7de2 fe3c
000003a0: 30e4 0ebd 16e3 893b 8bc8 f3bc 9363 c93c
000003b0: 7f94 463c 2497 983c 63e5 1e3c 2f29 5a3c
000003c0: 0137 2ebc 415e 063c 00a9 c9bc b5b7 1bb9
000003d0: 0e3a 94bc d93b 04bd 8633 e6bc 2c33 2bbc
000003e0: 31bd debc 2907 a2bc 521e b2bc 890f 2cbd
000003f0: 2d5c 10bc 1f08 4c3c 596f 093d b232 b53c

conv2.bias f4 [64]
9.1247326e-05 -6.6516455e-05 2.2971824e-05 6.5329215e-05 5.9207603e-05 4.6657144e-05 -5.427265e-06 -1.4401381e-05
2.3690442e-05 -6.1954204e-05 2.8751024e-06 -4.9781233e-06 1.7064056e-05 -1.4838601e-05 3.406647e-05 -2.0855032e-05
6.7833455e-05 -2.6056303e-05 -2.5365747e-05 2.9078332e-05 -1.7339271e-05 6.487623e-05 -5.0624516e-05 -7.308096e-06
8.6200416e-05 7.759345e-05 -0.00014002119 9.83809e-05 -4.0457428e-05 -3.446735e-06 3.3529774e-05 1.5213227e-05
5.1825704e-05 -5.478592e-05 -0.00013525605 -1.550601e-05 -7.1528346e-05 1.4758719e-05 -1.9759218e-05 1.1134075e-05
-7.942437e-05 1.0814329e-05 -3.0387022e-05 3.4451555e-06 -1.699716e-05 -7.7847535e-06 -3.899334e-05 -2.3070894e-05
-5.0845098e-05 -7.4723604e-05 -4.1033014e-05 -9.475065e-06 -1.763451e-05 5.5608918e-05 9.677539e-06 -1.8520926e-05
-1.6451837e-05 -1.2382633e-05 5.798798e-05 4.0730232e-05 5.780765e-05 3.5244808e-05 -3.4357263e-06 -4.7679485e-05
00000000: 095c bf38 c07e 8bb8 9eb3 c037 5b01 8938
00000010: ae55 7838 bab1 4338 da1b b6b6 769d 71b7
00000020: d6ba c637 69ed 81b8 e2f1 4036 c109 a7b6
00000030: c824 8f37 4ef3 78b7 98e2 0e38 d7f1 aeb7
00000040: cf41 8e38 7c93 dab7 87c8 d4b7 3eed f337
00000050: cd73 91b7 290e 8838 a955 54b8 1138 f5b6
00000060: 7fc6 b438 abb9 a238 a7d2 12b9 d851 ce38
00000070: d5b0 29b8 754e 67b6 52a2 0c38 503c 7f37
00000080: 6d5f 5938 efc9 65b8 85d3 0db9 e712 82b7
00000090: 7d01 96b8 379c 7737 99c0 a5b7 7dcc 3a37
000000a0: a290 a6b8 306f 3537 a2e7 feb7 5233 6736
000000b0: 2095 8eb7 439b 02b7 c88c 23b8 5e88 c1b7
000000c0: 8242 55b8 eeb4 9cb8 dd1a 2cb8 18f7 1eb7
000000d0: d2ed 93b7 9f3d 6938 b75c 2237 635d 9bb7
000000e0: 0d02 8ab7 01bf 4fb7 1f38 7338 c1d5 2a38
000000f0: 7e76 7238 d3d3 1338 5491 66b6 75fb 47b8

bn2.weight f4 [64]
1.0042207 0.9288422 0.9978135 0.9901004 0.9724252 0.9638303 1.0032824 0.97429323
1.0047771 0.9663012 1.0096096 0.9470546 0.995126 0.9436243 0.96564907 0.9859288
0.9611329 0.9915474 0.9935864 0.9782859 1.0056512 0.97948146 1.0438617 1.0150533
0.9785269 0.958423 0.9722505 0.99484354 1.0373851 0.96390885 0.9935991 0.99398637
0.9814602 0.9629051 1.002988 0.9730013 0.9996522 1.0262613 0.9679637 0.9792427
0.9972757 0.96721685 0.97497475 0.9465467 0.9801204 0.97182417 0.99868095 0.9848634
0.9931539 0.96832156 1.0054023 0.9944573 0.96657443 1.0383856 0.9937421 0.98823434
1.0174158 0.98631 1.012669 0.9766331 0.9974575 0.9773377 0.94609714 0.96551937
00000000: 4e8a 803f 9ac8 6d3f b570 7f3f 3877 7d3f
00000010: dcf0 783f 95bd 763f 8f6b 803f 486b 793f
00000020: 899c 803f 845f 773f e33a 813f 2c72 723f
00000030: 94c0 7e3f 5d91 713f c734 773f d465 7c3f
00000040: ce0c 763f 0dd6 7d3f ae5b 7e3f f270 7a3f
00000050: 2eb9 803f 4cbf 7a3f 439d 853f 44ed 813f
00000060: bd80 7a3f 365b 753f 69e5 783f 11ae 7e3f
00000070: 09c9 843f bbc2 763f 835c 7e3f e475 7e3f
00000080: fa40 7b3f f380 763f e961 803f 9d16 793f
00000090: 35e9 7f3f 885c 833f 78cc 773f a6af 7a3f
000000a0: 764d 7f3f 869b 773f f297 793f e250 723f
000000b0: 2ce9 7a3f 78c9 783f 8ea9 7f3f 0220 7c3f
000000c0: 563f 7e3f ece3 773f 06b1 803f c194 7e3f
000000d0: 6c71 773f d2e9 843f e265 7e3f edfc 7c3f
000000e0: ae3a 823f d07e 7c3f 239f 813f a004 7a3f
000000f0: 6059 7f3f ce32 7a3f 6c33 723f 472c 773f

bn2.bias f4 [64]
0.05228905 -0.053786807 0.03491252 0.060378894 0.0057585877 -0.015132664 0.065861516 -0.030417362
0.061261274 -0.0680324 0.060308564 -0.012786802 0.06760838 -0.012581798 -0.007129523 0.059465457
-0.018710349 0.058535635 0.031845763 0.04249152 0.06602161 0.053688608 0.0579281 0.051440783
0.033652224 -0.04708486 0.041072946 0.053092785 0.057345543 0.032834 -0.021872781 0.04187389
0.05136573 -0.07421245 0.06511592 0.007457434 0.050710797 0.05154645 0.012531061 0.028085453
0.054175682 -0.08620593 0.022479502 -0.05217425 -0.05171427 -0.0044404953 0.049958024 -0.06064763
0.055464983 0.008623237 0.043511294 0.04634472 0.015326195 0.05622856 0.05199099 0.053315923
0.042031415 -0.010672691 0.061965827 0.029628994 0.06352233 0.04640279 -0.047235467 -0.024489343
00000000: 0b2d 563d 8e4f 5cbd 6e00 0f3d dc4f 773d
00000010: 89b2 bc3b feee 77bc 67e2 863d d52d f9bc
00000020: 1aed 7a3d 9254 8bbd 1d06 773d bc7f 51bc
00000030: 4376 8a3d e323 4ebc c69e e9bb 0d92 733d
00000040: 7246 99bc 10c3 6f3d b470 023d 970b 2e3d
00000050: 5636 873d 96e8 5b3d 0446 6d3d 92b3 523d
00000060: ead6 093d 0edc 40bd 1b3c 283d d277 593d
00000070: 29e3 6a3d f27c 063d 8c2e b3bc f583 2b3d
00000080: df64 523d b2fc 97bd 7f5b 853d 7e5d f43b
00000090: 20b6 4f3d 5f22 533d 144f 4d3c 7713 e63c
000000a0: 52e7 5d3d bc8c b0bd ef26 b83c abb4 55bd
000000b0: 58d2 53bd 9381 91bb c9a0 4c3d a669 78bd
000000c0: 402f 633d 7a48 0d3c e638 323d f6d3 3d3d
000000d0: b91a 7b3c eb4f 663d 81f4 543d cc61 5a3d
000000e0: 2229 2c3d 83dc 2ebc e1cf 7d3d 81b8 f23c
000000f0: ff17 823d da10 3e3d fa79 41bd e09d c8bc

bn2.running_mean f4 [64]
-1.4199396 0.37392092 -1.1128807 -0.5163573 -0.72825027 -0.9803677 -1.9447176 -0.3182133
-1.0627527 0.39899072 -0.34364778 0.53973854 -1.097658 0.839312 -0.28702632 -1.5385957
-0.5512301 -1.8978683 -0.62011254 -0.9932298 -1.3476814 -1.0369276 -0.5757811 -2.0118523
-0.9145597 0.15867552 -0.20236315 -1.4593383 -1.0984904 -1.341691 -0.07407653 -0.8803586
-0.8174471 0.1620691 -1.6488882 -0.86388314 -1.487612 -0.6510164 -1.3673784 -0.70015323
-0.60092556 0.23017645 -1.0733178 -0.017709894 0.23567298 -0.8189708 -1.4797245 0.17756315
-1.4527808 -1.0587914 -0.04799957 -0.62518907 -1.0938208 -0.40009725 -1.3210152 -1.0875853
-1.2119869 -0.67701393 -1.1227027 -1.3080305 -1.2338132 -0.87022644 0.536923 -0.8226832
00000000: 95c0 b5bf 9072 bf3e e072 8ebf fe2f 04bf
00000010: 9c6e 3abf 61f9 7abf 82ec f8bf dbec a2be
00000020: 4808 88bf 8348 cc3e 9af2 afbe 4e2c 0a3f
00000030: 0f80 8cbf 27dd 563f 1df5 92be b4f0 c4bf
00000040: 6a1d 0dbf 59ed f2bf b2bf 1ebf 4f44 7ebf
00000050: d380 acbf 0bba 84bf 6466 13bf 30c2 00c0
00000060: 9620 6abf d67b 223e 4938 4fbe 99cb babf
00000070: 559b 8cbf 88bc abbf 70b5 97bd 2e5f 61bf
00000080: 3744 51bf 71f5 253e c50e d3bf 7227 5dbf
00000090: 126a bebf 03a9 26bf 4106 afbf 3e3d 33bf
000000a0: 42d6 19bf 60b3 6b3e 7a62 89bf 5714 91bc
000000b0: 4254 713e 12a8 51bf 9d67 bdbf 1dd3 353e
000000c0: b9f4 b9bf 7a86 87bf 329b 44bd 640c 20bf
000000d0: 5202 8cbf 8cd9 ccbe 0717 a9bf ff35 8bbf
000000e0: 6322 9bbf c950 2dbf b9b4 8fbf 8b6d a7bf
000000f0: 97ed 9dbf 29c7 5ebf c973 093f 5e9b 52bf

bn2.running_var f4 [64]
2.38989 2.3980198 3.8278816 1.6842774 1.7308524 1.9253407 1.1917521 2.4182642
0.66372764 1.0502943 0.9267378 2.2497137 1.6395884 3.209124 1.4659829 0.8317733
2.1879604 1.2077619 1.0751859 2.1563315 1.272841 1.1465954 1.0422981 1.037361
3.2386897 2.3611393 1.6498438 0.95933384 0.9186699 3.3631854 2.0182137 1.8572671
1.7323725 1.4747823 1.048567 4.831569 0.98342216 0.89382696 3.67293 1.9693304
0.8635813 1.103776 1.2239374 1.1227103 1.6745486 2.7063684 5.4785094 1.1256354
1.7497355 2.5750837 1.061903 0.87245375 2.8739846 1.0059005 0.66586894 1.0252626
2.266219 3.1461918 0.8330501 1.9943182 1.1379267 2.8690696 2.2991357 2.187509
00000000: f5f3 1840 2879 1940 03fc 7440 6796 d73f
00000010: 928c dd3f 9071 f63f 558b 983f d7c4 1a40
00000020: 0eea 293f 0b70 863f b03e 6d3f 4ffb 0f40
00000030: 08de d13f 4a62 4d40 54a5 bb3f 18ef 543f
00000040: 8b07 0c40 f197 9a3f b19f 893f 5601 0a40
00000050: 74ec a23f a3c3 923f 066a 853f 3fc8 843f
00000060: b146 4f40 e81c 1740 152e d33f e796 753f
00000070: f32d 6b3f 6e3e 5740 6a2a 0140 eeba ed3f
00000080: 62be dd3f abc5 bc3f 7237 863f 379c 9a40
00000090: 8ec1 7b3f d8d1 643f 4911 6b40 0513 fc3f
000000a0: aa13 5d3f 8848 8d3f fba9 9c3f f9b4 8f3f
000000b0: 9c57 d63f 2435 2d40 f34f af40 d214 903f
000000c0: 55f7 df3f 2cce 2440 70ec 873f 2159 5f3f
000000d0: 5def 3740 59c1 803f 6376 2a3f ce3b 833f
000000e0: bb09 1140 355b 4940 c542 553f d245 ff3f
000000f0: 95a7 913f d69e 3740 0a25 1340 2600 0c40

conv3.weight f4 [128, 64, 3, 3]
0.0009536055 -0.002161143 -0.0100328885 -0.0016555255 -0.04479828 -0.033498105 -0.008570491 -0.025545744
-0.005959803 -0.0196239 0.0014671383 0.025679767 0.012608305 0.02332569 -0.023301015 0.015276502
-0.024691692 0.018017136 -0.046951573 0.01299405 -0.0015529869 -0.0059450637 -0.0002061128 0.0026018627
0.024535092 -0.032449715 -0.035086468 -0.029998843 -0.0538426 -0.023536475 -0.034329597 0.0014019961
-0.0007716296 0.020838622 -0.029403687 -0.049727943 0.0008372276 0.0022272551 -0.044933166 0.0019138596
0.033196095 -0.04022033 -0.037502967 -0.0054896204 0.012906838 0.015774159 -0.03674231 -0.048146844
0.0069901585 -0.021802742 -0.010019696 -0.032175284 -0.017678777 -0.01265817 -0.042312443 -0.017038044
-0.028027233 0.018502854 0.035621967 0.0068883877 0.009367628 -0.04551971 -0.035580713 -0.017219655
0.03494174 0.02670888 -0.009107738 -0.0043705646 -0.032670777 0.019256612 -0.02405441 -0.021106208
0.0105239 -0.016801096 -0.037216228 -0.010974774 0.03745702 0.019770136 -0.046090573 0.014784027
-0.029604325 0.008264737 0.019818906 0.02439783 -0.025649976 -0.023265123 0.011972392 0.03334273
-0.0009110831 -0.015489919 0.013626538 -0.022307439 -0.037573945 0.00780939 -0.020710308 0.023330282
-0.009826471 -0.030436877 -0.015911987 0.010042366 -0.049010478 -0.011163495 0.019869901 0.020884153
0.00353409 -0.008471637 -0.012177768 0.023110045 -0.011525068 0.0073105134 0.0017848102 0.0013817949
-0.011987526 -0.0025680913 -0.049504112 0.020865612 -0.027143808 0.006979876 0.013830151 0.013730644
0.028615506 0.028572835 -0.029802937 -0.0295039 0.013670014 0.0375252 -0.029348148 0.0297847
-0.00802566 0.026858011 0.00021359714 0.026761286 -0.037109736 0.018980438 0.014567066 -0.047326237
0.02288435 -0.013362819 0.024050474 0.007041772 -0.037665747 0.00708974 -0.018220617 -0.04234681
0.018838814 0.009423443 0.018240511 0.012685041 0.008319068 0.028205253 -0.00419635 -0.011152006
-0.026491463 -0.0005855949 0.029987363 -0.038304128 -0.0029360836 -0.012397201 0.028526047 -0.027066834
-0.01912986 -0.04892974 0.0038776055 -0.033244822 0.026636861 0.008082427 -0.02652898 -0.017133798
0.024233527 0.012809473 0.025896834 -0.013304632 -0.0067982804 0.029352827 -0.0069274534 0.05113123
-0.0006357996 -0.03790387 -0.00019435123 0.017013645 0.010160735 0.0007173214 -0.012205794 0.0032178003
0.012676977 -0.034232922 -0.0468907 -0.043576673 -0.036384836 -0.0071129906 -0.0173182 -0.049927577
-0.034973413 0.026399184 -0.00181602 0.0039657494 0.031054432 -0.04050356 -0.004640633 -0.027719852
-0.020296382 0.014683007 0.03666532 -0.029050447 -0.03786631 -0.032547265 -0.048577014 -0.027106302
-0.03191515 -0.05433125 0.030544668 0.017551592 -0.0061881416 -0.006027426 -0.017771428 -0.05347454
-0.045576595 0.02654964 0.0018595133 -0.04951103 -0.015549806 -0.037339397 0.014075398 0.033938177
-0.020687 -0.03822654 -0.009448915 0.0296509 0.008370249 -0.012422709 0.0049835797 0.015208857
-0.014925689 -0.004588775 0.025084782 0.013993182 0.03332372 -0.021007301 -0.0023941966 -0.04238287
0.009823219 -0.004134099 0.0032836904 -0.03715694 -0.044708334 -0.031383 0.00015503593 -0.04214338
-0.0071355808 -0.016797096 -0.0024599086 -0.012568874 -0.050227568 0.019090602 -0.040805526 -0.0071892855
00000000: 62fb 793a f7a1 0dbb fc60 24bc 38fe d8ba
00000010: 677e 37bd 4f35 09bd 3f6b 0cbc 4f45 d1bc
00000020: 734a c3bb 4dc2 a0bc fe4c c03a 605e d23c
00000030: 1093 4e3c 8415 bf3c c5e1 bebc 4b4a 7a3c
00000040: 3b46 cabc ac98 933c 4b50 40bd ffe4 543c
00000050: 988d cbba cfce c2bb fc1f 58b9 0384 2a3b
00000060: d1fd c83c fee9 04bd d4b6 0fbd 22c0 f5bc
00000070: 0f8a 5cbd 91cf c0bc 319d 0cbd 2fc3 b73a
00000080: 3047 4aba c2b5 aa3c 00e0 f0bc 87af 4bbd
00000090: 6579 5b3a 24f7 113b d70b 38bd 79da fa3a
000000a0: a1f8 073d 13be 24bd b69c 19bd 46e2 b3bb
000000b0: 3477 533c cf38 813c 1b7f 16bd a035 45bd
000000c0: b30d e53b aa9b b2bc a729 24bc 3bca 03bd
000000d0: 15d3 90bc 3764 4fbc d04f 2dbd 5e93 8bbc
000000e0: 5e99 e5bc 4c93 973c 57e8 113d fcb7 e13b
000000f0: ae7a 193c e072 3abd 15bd 11bd 3c10 8dbc
00000100: 121f 0f3d 95cc da3c 9f38 15bc f436 8fbb
00000110: cbd1 05bd 0bc0 9d3c c10d c5bc ede6 acbc
00000120: 706c 2c3c 74a2 89bc 0b70 18bd 8acf 33bc
00000130: 886c 193d fbf4 a13c 78c9 3cbd b438 723c
00000140: c584 f2bc d268 073c 425b a23c f5dd c73c
00000150: e61f d2bc 8096 bebc da27 443c 6392 083d
00000160: c0d5 6eba 6ec9 7dbc d841 5f3c 17be b6bc
00000170: 23e7 19bd e9e5 ff3b aaa8 a9bc 261f bf3c
00000180: 35ff 20bc c256 f9bc db59 82bc bc88 243c
00000190: 36bf 48bd 17e7 36bc 34c6 a23c 3e15 ab3c
000001a0: 319c 673b 9fcc 0abc 4385 47bc 4751 bd3c
000001b0: a4d3 3cbc 088d ef3b 4bf0 e93a 581d b53a
000001c0: 5467 44bc 6c4d 28bb d3c4 4abd 5cee aa3c
000001d0: b15c debc 72b7 e43b dc97 623c 7ff6 603c
000001e0: 116b ea3c 9411 ea3c 4a25 f4bc 2ab2 f1bc
000001f0: 32f8 5f3c 06b4 193d 876b f0bc 0bff f33c
00000200: 0f7e 03bc 5505 dc3c 0cf9 5f39 7c3a db3c
00000210: 6100 18bd dd7c 9b3c b4aa 6e3c 28d9 41bd
00000220: f677 bb3c baef 5abc 8005 c53c aabe e63b
00000230: 6647 1abd 0d51 e83b 6743 95bc d973 2dbd
00000240: db53 9a3c c964 1a3c 206d 953c ebd4 4f3c
00000250: b34c 083c b40e e73c 8981 89bb e7b6 36bc
00000260: a004 d9bc 9c82 19ba 0fa8 f53c cae4 1cbd
00000270: 4f6b 40bb a11d 4bbc 75af e93c 44bb ddbc
00000280: 39b6 9cbc 8d6a 48bd 6d1f 7e3b b92b 08bd
00000290: 8c35 da3c 286c 043c 4e53 d9bc 2e5c 8cbc
000002a0: 6485 c63c d3de 513c 9925 d43c acfb 59bc
000002b0: 1cc4 debb 5775 f03c b1ff e2bb fb6e 513d
000002c0: caab 26ba 1741 1bbd c3ca 4bb9 3360 8b3c
000002d0: 3679 263c a00a 3c3a d0fa 47bc bbe1 523b
000002e0: 18b3 4f3c d237 0cbd 7610 40bd 747d 32bd
000002f0: 4408 15bd 1714 e9bb e6de 8dbc dc80 4cbd
00000300: 4840 0fbd 1a43 d83c 8507 eeba 1ef3 813b
00000310: dd65 fe3c 10e7 25bd 7310 98bb be14 e3bc
00000320: 9944 a6bc ff90 703c 602e 163d 34fb edbc
00000330: b419 1bbd 4850 05bd b1f8 46bd 090e debc
00000340: 76b9 02bd 728a 5ebd d038 fa3c 5bc8 8f3c
00000350: e5c5 cabb b781 c5bb 6395 91bc 1f08 5bbd
00000360: 86ae 3abd a17e d93c eaba f33a 14cc 4abd
00000370: 9dc4 7ebc 32f1 18bd 809c 663c c202 0b3d
00000380: c977 a9bc 6f93 1cbd 9fcf 1abc 72e6 f23c
00000390: 5e23 093c 9e88 4bbc 4c4d a33b 922e 793c
000003a0: e18a 74bc 6f5d 96bb 9a7e cd3c a943 653c
000003b0: 747e 083d 8117 acbc f4e7 1cbb a999 2dbd
000003c0: 91f1 203c 5677 87bb 2f33 573b e031 18bd
000003d0: 1620 37bd 768b 00bd 2491 2239 899e 2cbd
000003e0: 97d1 e9bb 109a 89bc 6b36 21bb aeed 4dbc
000003f0: 6cbb 4dbd e563 9c3c b223 27bd 1994 ebbb

conv3.bias f4 [128]
0.00011786717 -3.93962e-05 0.00011446211 6.818716e-05 7.2603485e-05 -7.7384095e-05 -3.3712226e-05 1.424188e-05
1.957788e-05 -5.348973e-06 -1.0204854e-05 -8.058918e-06 1.7628096e-05 -3.819799e-05 2.8986062e-06 -1.7544997e-05
-0.00012831268 -8.346081e-05 3.164915e-06 0.00013436188 -1.09209695e-05 3.0922914e-05 8.42483e-06 1.2274033e-05
5.8030073e-05 -1.5932283e-05 -3.8026024e-05 -3.9883445e-05 0.00010171497 -2.537161e-06 -0.00014316644 -3.7248552e-05
-1.990116e-05 0.00013891955 -9.6841795e-06 -0.00011728082 3.8754766e-05 -5.6045537e-05 1.3261744e-05 0.00012861122
2.7354676e-05 4.336798e-05 3.9958086e-05 -1.985508e-05 4.3128165e-07 -0.00013444871 2.5229849e-05 -0.00013327775
-3.5103917e-06 3.7445636e-05 -7.5482385e-05 -1.8524132e-05 3.478264e-05 2.0766178e-05 -6.4390224e-05 -0.00010331588
3.0374815e-05 -2.1866115e-06 -7.481635e-05 -3.3438388e-05 -2.2025672e-05 8.263873e-05 5.368572e-05 -3.278309e-05
1.3656156e-06 0.00013310081 -1.665555e-05 -6.459324e-05 0.00013541625 -6.467009e-06 1.1076606e-05 -3.9288345e-05
0.00013820421 -0.000101296304 4.772667e-06 -6.9962356e-05 2.852782e-05 -7.196542e-05 -8.62875e-05 -6.434303e-07
-4.7509493e-05 2.9683977e-05 -3.5924164e-05 -2.8257826e-05 3.413735e-05 3.7913873e-05 -9.865256e-05 -0.00012404902
-3.1256237e-05 -1.091255e-05 -0.00010879037 0.000141003 7.151475e-05 3.0125448e-05 5.5160635e-05 -7.2571083e-06
-5.934802e-06 -2.8243137e-05 -0.00012757404 6.92309e-05 -5.071014e-05 5.056913e-05 8.661838e-05 -1.7332275e-05
5.4090007e-05 2.3899745e-05 -3.39328e-05 2.8491281e-06 3.993625e-05 2.8967452e-05 1.958986e-05 -0.00014351316
-8.918132e-05 8.1723716e-05 -2.2545748e-05 3.448437e-05 0.0001403966 -4.4758395e-05 -3.9833076e-06 6.040464e-06
3.1491538e-05 -2.9941986e-05 8.630064e-06 3.4714107e-05 -7.8588615e-05 -3.0157165e-05 2.6364292e-05 -7.173126e-05
00000000: 742f f738 593d 25b8 610b f038 b4ff 8e38
00000010: b342 9838 4549 a2b8 3a66 0db8 69f0 6e37
00000020: 2d3b a437 547b b3b6 8435 2bb7 ca34 07b7
00000030: 0ce0 9337 c836 20b8 ad85 4236 982d 93b7
00000040: ac8b 06b9 ae07 afb8 d364 5436 7ee3 0c39
00000050: 3539 37b7 3ab3 0138 5f58 0d37 92ec 4d37
00000060: 5165 7338 51a6 85b7 227e 1fb8 8648 27b8
00000070: cf4f d538 1844 2ab6 f31e 16b9 543b 1cb8
00000080: 6af1 a6b7 efaa 1139 3c79 22b7 a9f4 f5b8
00000090: 9d8c 2238 7012 6bb8 c27e 5e37 d0db 0639
000000a0: b877 e537 04e6 3538 ab98 2738 768e a6b7
000000b0: e68a e734 cdfa 0cb9 b0a4 d337 79c0 0bb9
000000c0: 1294 6bb6 f20e 1d38 4c4c 9eb8 4564 9bb7
000000d0: 93e3 1138 0733 ae37 3d09 87b8 4aab d8b8
000000e0: 6bcd fe37 b3bd 12b6 b9e6 9cb8 3240 0cb8
000000f0: c5c3 b8b7 554e ad38 9a2c 6138 9380 09b8
00000100: 324a b735 fa90 0b39 85b7 8bb7 3b76 87b8
00000110: 86fe 0d39 2fff d8b6 a9d5 3937 8ac9 24b8
00000120: e9ea 1039 0a6f d4b8 e624 a036 c1b8 92b8
00000130: 074f ef37 24ec 96b8 40f5 b4b8 32b8 2cb5
00000140: ee44 47b8 db01 f937 47ad 16b8 380b edb7
00000150: b32e 0f38 b605 1f38 b1e3 ceb8 2813 02b9
00000160: 2119 03b8 0c15 37b7 6326 e4b8 34da 1339
00000170: 30fa 9538 e8b5 fc37 485c 6738 1682 f3b6
00000180: 9023 c7b6 adeb ecb7 65c5 05b9 0e30 9138
00000190: 99b1 54b8 311a 5438 e3a6 b538 c764 91b7
000001a0: b4de 6238 507c c837 1153 0eb8 a633 3f36
000001b0: 3981 2738 21ff f237 e754 a437 057c 16b9
000001c0: db06 bbb8 1663 ab38 a020 bdb7 4fa3 1038
000001d0: 6d37 1339 f6ba 3bb8 5aa8 85b6 31af ca36
000001e0: c815 0438 ed2b fbb7 d8c9 1037 fd99 1138
000001f0: f1cf a4b8 05fa fcb7 e328 dd37 6d6e 96b8

bn3.weight f4 [128]
1.0254802 0.99926615 1.0674754 1.0445856 1.0582017 1.0428952 1.0456545 1.0494485
1.0321151 1.025369 1.0392436 1.0701795 1.0215552 1.0149049 1.0409114 1.0605801
1.0081325 1.0219626 1.039015 1.032445 1.0576843 1.0431148 1.0313163 1.0049905
1.0618142 0.9898068 1.074126 1.0213763 1.0379205 1.0490302 1.043158 1.0381349
1.002197 1.0405223 1.010971 1.0450797 0.97323835 1.0642556 1.062061 1.0286427
1.037307 1.0156269 1.0387536 1.0161424 1.0142136 1.0348339 1.0590456 0.99988633
1.0089046 1.0319133 1.0352312 1.0576328 1.0475322 1.0271883 0.9934928 1.0359366
1.0513307 0.98945093 1.0413296 1.0373538 1.0450963 0.99591625 1.0317025 1.0551229
1.0242777 1.0134165 1.0528663 1.0488871 1.0359637 1.0309732 1.0546457 1.0138339
1.0451701 1.0568451 1.0177671 1.0460894 1.0308634 1.0447327 1.0659472 1.0356272
1.0565573 1.0610615 1.0390984 1.0276158 1.0017492 1.059149 1.0656207 1.0344666
1.025755 1.0419983 1.0457839 1.0389534 1.0169206 1.0473263 1.0322387 1.0345516
1.0365202 1.0575932 1.063115 1.0582142 1.0509955 1.0000927 1.0484895 1.0556868
1.0602379 1.0472796 1.040386 1.0558566 1.0315387 1.0640433 1.0413989 1.049457
1.0346096 1.043373 1.0423425 1.0301094 1.020405 1.0135876 1.0292058 1.0279764
1.0510448 1.0034282 1.0104343 1.053112 1.047872 1.0384927 1.0276848 1.0121619
00000000: ef42 833f e8cf 7f3f 09a3 883f fbb4 853f
00000010: 2773 873f 977d 853f 02d8 853f 5454 863f
00000020: 591c 843f 4b3f 833f ef05 853f a4fb 883f
00000030: 52c2 823f 67e8 813f 963c 853f 17c1 873f
00000040: 7c0a 813f accf 823f 72fe 843f 2827 843f
00000050: 3362 873f c984 853f 2c02 843f 87a3 803f
00000060: 87e9 873f fa63 7d3f f67c 893f 75bc 823f
00000070: 94da 843f 9f46 863f 3486 853f 9be1 843f
00000080: fe47 803f d62f 853f 7f67 813f 2cc5 853f
00000090: 2626 793f 8739 883f 9df1 873f 90aa 833f
000000a0: 7ac6 843f 1000 823f e1f5 843f f410 823f
000000b0: c0d1 813f 7075 843f ce8e 873f 8df8 7f3f
000000c0: c923 813f bc15 843f 7582 843f 8360 873f
000000d0: 8915 863f e87a 833f 8b55 7e3f 9299 843f
000000e0: 0192 863f a84c 7d3f 4a4a 853f 02c8 843f
000000f0: b7c5 853f 5ef4 7e3f d40e 843f 440e 873f
00000100: 881b 833f a2b7 813f 53c4 863f ef41 863f
00000110: 759a 843f eef6 833f a1fe 863f 4fc5 813f
00000120: 22c8 853f b346 873f 3146 823f 42e6 853f
00000130: 55f3 833f cdb9 853f f570 883f 6f8f 843f
00000140: 453d 873f ddd0 873f 2d01 853f ea88 833f
00000150: 5139 803f 3292 873f 4266 883f 6769 843f
00000160: f14b 833f 3360 853f 3fdc 853f 6dfc 843f
00000170: 742a 823f ca0e 863f 6620 843f 306c 843f
00000180: b2ac 843f 375f 873f 2714 883f 9073 873f
00000190: 0587 863f 0a03 803f e734 863f bf20 873f
000001a0: e0b5 873f 420d 863f 5e2b 853f 4f26 873f
000001b0: 7609 843f 9232 883f 8f4c 853f 9b54 863f
000001c0: 166e 843f 3f8d 853f 7b6b 853f a0da 833f
000001d0: a29c 823f 3dbd 813f 04bd 833f bb94 833f
000001e0: a388 863f 5670 803f e955 813f 60cc 863f
000001f0: ab20 863f 54ed 843f 2d8b 833f 858e 813f

bn3.bias f4 [128]
0.029639687 0.0018258585 0.031698033 0.055496197 0.019999726 0.046475485 0.045998283 0.035333145
-0.002538835 0.027825274 0.048183497 0.01377743 0.001677253 0.0012900588 0.04648168 0.062738165
0.0009336753 -0.0067896387 0.020483812 0.038559675 0.03804049 -0.0025659474 0.015342676 -0.004926733
0.066404186 -0.010341025 0.032886166 0.010248372 0.046443667 0.06662458 -0.002159412 0.029175185
0.002159597 0.00788459 0.0006919398 0.011495209 -0.020554319 0.063143305 0.015728446 0.03518238
0.03962616 0.020126132 0.043555 0.018892387 0.017287534 0.042446963 0.011827501 0.0020092644
-0.0011438073 -0.0011653139 0.037121728 0.0062953574 0.0507989 0.0031971056 -0.010475944 0.027722329
0.051501583 -0.021746183 0.03598816 0.02037203 0.047218304 -0.0033012393 -0.01208013 0.054595396
0.0032724766 0.018278264 0.05256672 0.056197006 0.039636917 0.031595528 0.018862158 0.018010309
0.05026641 0.056263115 0.011575411 0.048520144 0.038318228 0.028811648 0.06935701 0.039881743
0.058967892 0.05837457 5.0890605e-05 0.032895513 -0.010488125 0.06886505 0.0060014827 0.02020309
0.026695421 0.018068982 0.025740001 0.027671643 -0.008832519 0.03241703 0.021185996 -0.0056092674
0.017875224 0.06868504 0.01986687 0.018782325 0.014259534 0.012292899 0.048498984 0.01897449
0.059134 -0.0035298571 0.0129835475 0.01741454 0.02882527 0.06601732 0.028236283 0.055774916
0.010403929 0.04509358 0.04346095 0.03604833 0.024081955 -0.0017880196 -0.00094779866 0.01745929
0.05214133 0.003990032 0.018813457 0.05645449 0.0045229755 0.040323973 0.011042467 0.018527467
00000000: eece f23c a551 ef3a ccd5 013d fb4f 633d
00000010: 77d6 a33c 145d 3e3d b268 3c3d 7db9 103d
00000020: 9562 26bb d4f1 e33c 0f5c 453d bbba 613c
00000030: 46d7 db3a 3117 a93a 9363 3e3d de7c 803d
00000040: e4c1 743a 9e7b debb abcd a73c c0f0 1d3d
00000050: 58d0 1b3d 7429 28bb d95f 7b3c 6f70 a1bb
00000060: ebfe 873d 676d 29bc a5b3 063d cae8 273c
00000070: b73b 3e3d 7872 883d ec84 0dbb cc00 ef3c
00000080: 0688 0d3b 5e2e 013c 4b63 353a 6756 3c3c
00000090: 8861 a8bc 4751 813d f1d8 803c 661b 103d
000000a0: 0a4f 223d 8fdf a43c ba66 323d 35c4 9a3c
000000b0: 969e 8d3c dedc 2d3d 22c8 413c ddad 033b
000000c0: ceeb 95ba 72bd 98ba f40c 183d 4949 ce3b
000000d0: 8212 503d 8886 513b 4ba3 2bbc f019 e33c
000000e0: 53f3 523d 0d25 b2bc 5268 133d 3ee3 a63c
000000f0: fb67 413d 9b59 58bb bdeb 45bc 6c9f 5f3d
00000100: 0c77 563b 4cbc 953c 3350 573d d52e 663d
00000110: 525a 223d 506a 013d d084 9a3c 5b8a 933c
00000120: 27e4 4d3d 2774 663d cba6 3d3c 0fbd 463d
00000130: 93f3 1c3d 6806 ec3c 0c0b 8e3d 0a5b 233d
00000140: 5188 713d 2c1a 6f3d 5f73 5538 72bd 063d
00000150: 62d6 2bbc 1f09 8d3d 16a8 c43b f380 a53c
00000160: 5bb0 da3c 6705 943c b2dc d23c a4af e23c
00000170: 45b6 10bc b8c7 043d 418e ad3c f2cd b7bb
00000180: 106f 923c beaa 8c3d d9bf a23c 64dd 993c
00000190: d2a0 693c 2868 493c dfa6 463d 6470 9b3c
000001a0: 7e36 723d 2d55 67bb f2b8 543c f0a8 8e3c
000001b0: f922 ec3c 1734 873d c74f e73c 3d74 643d
000001c0: 3e75 2a3c 0cb4 383d 1c04 323d 6aa7 133d
000001d0: 8547 c53c fb5b eaba b175 78ba c906 8f3c
000001e0: 2692 553d d0be 823b ae1e 9a3c d33c 673d
000001f0: 7835 943b c02a 253d 77eb 343c eac6 973c

bn3.running_mean f4 [128]
-1.1359485 0.69959724 -0.14072058 -1.2769325 0.19976209 -1.0654565 -0.938313 0.21620053
0.38866168 -0.8668025 -1.2778332 -0.0791812 0.24165477 0.50616074 -1.2522064 -1.2514292
0.11426969 -0.26166466 0.1307057 -1.324609 -0.05658387 -0.5618039 0.1766605 0.024876455
-1.1548365 0.018714996 -0.32148984 0.291381 -1.3810242 -1.5776899 -0.32723075 0.2505442
1.3104287 0.21935405 0.67865014 -0.31879973 0.82367873 -1.4312638 0.23860998 -1.1030902
-1.0081463 -0.9944029 -1.3419125 0.8988739 -0.52672744 -1.0797544 -0.3682686 -0.5908166
0.69896513 -0.0864679 -0.71741897 0.004616418 -1.2352239 -0.34087786 0.4931859 0.3629646
-1.734098 0.47193798 0.605382 0.5000171 -1.4475497 0.92161334 -0.5453636 -1.5759844
0.07151786 0.63229895 -1.4495918 -1.4239975 -1.295656 -0.7663347 -0.2724006 -1.1893839
-1.323096 -0.928414 0.60621685 -1.8336438 -0.9910261 0.049273565 -1.2061657 -0.90881526
-1.3809876 -1.2235017 -0.4176474 -1.2383041 0.034568943 -1.4090501 -0.41882938 0.46962982
-1.0636336 0.58562773 -0.060631838 0.28169626 -0.30048305 0.1307453 -0.0072423993 -0.4856701
0.04735466 -1.5454886 0.26090106 -0.42816758 0.51105285 1.1274529 -1.6300278 -0.21331353
-1.1003263 -0.39616036 0.38553828 0.1480241 0.42348057 -1.2783784 0.55823576 -1.2096086
0.279424 -1.402816 -1.339905 -1.1858068 -0.86210054 -0.10504992 -0.16412622 0.7166091
-1.3300809 0.921012 -1.0880519 -1.3408751 -0.25888234 -1.3695643 -0.11700373 0.8601802
00000000: c366 91bf ce18 333f 0e19 10be 8672 a3bf
00000010: 6f8e 4c3e e160 88bf 4835 70bf ac63 5d3e
00000020: aafe c63e c5e6 5dbf 0a90 a3bf c129 a2bd
00000030: 5974 773e c093 013f 4d48 a0bf d52e a0bf
00000040: 3a06 ea3d e9f8 85be b7d7 053e ca8c a9bf
00000050: 7dc4 67bd 61d2 0fbf 7de6 343e b5c9 cb3c
00000060: afd1 93bf 3150 993c 519a a4be e42f 953e
00000070: 67c5 b0bf bef1 c9bf ca8a a7be 5447 803e
00000080: 21bc a73f 599e 603e 04bc 2d3f b839 a3be
00000090: 9cdc 523f a733 b7bf 2d56 743e 0f32 8dbf
000000a0: f00a 81bf 3091 7ebf cac3 abbf 9a1c 663f
000000b0: 9cd7 06bf 6435 8abf b48d bcbe c23f 17bf
000000c0: 61ef 323f 1516 b1bd c5a8 37bf 5245 973b
000000d0: d11b 9ebf 8b87 aebe dd82 fc3e 7fd6 b93e
000000e0: ecf6 ddbf dba1 f13e 51fa 1a3f 1f01 003f
000000f0: 4f49 b9bf daee 6b3f f39c 0bbf dbb9 c9bf
00000100: f577 923d 58de 213f 398c b9bf 8d45 b6bf
00000110: 0ed8 a5bf 832e 44bf 1778 8bbe bb3d 98bf
00000120: 365b a9bf 8aac 6dbf 0731 1b3f d7b4 eabf
00000130: e3b3 7dbf 14d3 493d a363 9abf 1ea8 68bf
00000140: 34c4 b0bf b49b 9cbf e1d5 d5be c080 9ebf
00000150: 2a98 0d3d c15b b4bf ce70 d6be 5273 f03e
00000160: 2525 88bf b3eb 153f 1759 78bd 7e3a 903e
00000170: ead8 99be 19e2 053e a651 edbb c0a9 f8be
00000180: f6f6 413d 92d2 c5bf d394 853e c838 dbbe
00000190: 5cd4 023f 6050 903f c0a4 d0bf dd6e 5abe
000001a0: 7ed7 8cbf 88d5 cabe 4665 c53e a193 173e
000001b0: 72d2 d83e e7a1 a3bf 8ae8 0e3f 74d4 9abf
000001c0: aa10 8f3e 7a8f b3bf 0282 abbf 84c8 97bf
000001d0: 9fb2 5cbf 6a24 d7bd b410 28be b273 373f
000001e0: 1740 aabf 71c7 6b3f 4945 8bbf cca1 abbf
000001f0: 3a8c 84be e24d afbf a79f efbd c534 5c3f

bn3.running_var f4 [128]
0.5037919 1.0656602 0.1742237 0.63485277 0.32934424 0.65132886 0.34053513 0.3408439
0.9873493 0.37171447 0.6818276 0.1358116 0.44780183 0.51687634 0.6786929 0.60396713
0.33122358 0.11430803 0.20225011 0.6878545 0.13426968 0.11554999 0.4674247 0.32631356
0.54076356 0.6480067 0.12420214 0.5126486 0.6159788 1.1511464 0.10457005 0.32356033
0.7464211 0.24009651 0.5402545 0.15802222 0.8194597 0.5694912 0.33018786 0.3296801
0.45287746 0.8426844 0.7127714 0.5686832 0.38251966 0.52676076 0.14544432 0.7324617
0.4915156 0.33873314 1.5203121 0.44753242 0.45860004 0.18659264 0.7746503 0.34485427
0.89504176 0.86436886 0.34803241 0.2901579 0.43369392 2.0318995 0.13033023 0.56436145
0.3228327 0.6066286 0.4390119 0.9391536 0.7570147 0.3913889 0.2365938 0.64159805
1.3968498 0.39388105 0.9909776 1.1559337 0.5687344 0.1596121 0.408306 0.5830894
0.52904975 0.4514114 0.18952459 0.57960457 0.7612675 0.59835446 0.10655608 0.514988
0.3577544 0.52788675 0.17355609 0.34060404 0.27105638 0.14036074 0.3296064 0.15412878
0.38653308 0.98698866 0.19537836 0.12453655 0.42405018 0.7790007 0.638179 0.26487947
0.51463485 0.0984919 0.39252302 0.2293285 0.16569647 0.6555978 0.28543898 0.46640623
0.3759766 0.6205942 0.4672329 0.64912194 1.3985698 0.30597195 0.13715479 0.98141855
0.43770373 1.1345464 0.73273635 0.7378497 0.17797041 0.7109073 0.22544564 0.8955909
00000000: 82f8 003f 8e67 883f b367 323e b685 223f
00000010: cf9f a83e 7dbd 263f 9f5a ae3e 1783 ae3e
00000020: ecc2 7c3f 5c51 be3e 418c 2e3f 3212 0b3e
00000030: 4846 e53e 0252 043f d1be 2d3f 979d 1a3f
00000040: 2396 a93e 541a ea3d a71a 4f3e 3c17 303f
00000050: fe7d 093e 79a5 ec3d 4a52 ef3e 9212 a73e
00000060: 7b6f 0a3f c4e3 253f b15d fe3d f03c 033f
00000070: c9b0 1d3f c458 933f d328 d63d b3a9 a53e
00000080: 7415 3f3f dcdb 753e 1e4e 0a3f 94d0 213e
00000090: 1cc8 513f 2dca 113f 620e a93e d4cb a83e
000000a0: 8edf e73e 2aba 573f 3078 363f 3995 113f
000000b0: 9ed9 c33e cbd9 063f 5bef 143e 9c82 3b3f
000000c0: efa7 fb3e 6e6e ad3e 9699 c23f f822 e53e
000000d0: a0cd ea3e 2412 3f3e 7b4f 463f bd90 b03e
000000e0: 7521 653f 4747 5d3f 4e31 b23e 948f 943e
000000f0: 210d de3e a40a 0240 4a75 053e fe79 103f
00000100: 544a a53e 034c 1b3f 2bc6 e03e 5f6c 703f
00000110: b7cb 413f 2064 c83e a545 723e c53f 243f
00000120: f9cb b23f c7aa c93e b5b0 7d3f a3f5 933f
00000130: 9498 113f 5b71 233e 7c0d d13e 5945 153f
00000140: ce6f 073f 651f e73e bc12 423e f760 143f
00000150: 6de2 423f c22d 193f 133a da3d 41d6 033f
00000160: 962b b73e 9623 073f b0b8 313e a763 ae3e
00000170: e7c7 8a3e baba 0f3e 2cc2 a83e efd3 1d3e
00000180: aae7 c53e 4aab 7c3f 4411 483e 050d ff3d
00000190: 1b1d d93e 976c 473f b35f 233f 489e 873e
000001a0: 1cbf 033f 1fb6 c93d c7f8 c83e 17d5 6a3e
000001b0: 56ac 293e 42d5 273f 0f25 923e cccc ee3e
000001c0: 0180 c03e 43df 1e3f 2739 ef3e db2c 263f
000001d0: 5604 b33f 5ba8 9c3e 4e72 0c3e 3f3e 7b3f
000001e0: b41a e03e d138 913f 9c94 3b3f b8e3 3c3f
000001f0: e03d 363e 05fe 353f 39db 663e 7245 653f
